model_gru/best_model.pth (torch, 121072 bytes, 8 tensors)

lstm.weight_ih_l0 f4 [200, 62]
00000000: e761 0ebe c61b d7be c2da 95be 623a 8a3e
00000010: 54cd d3bd edb3 3c3d ef75 f3bd d7d4 90bd
00000020: ea8d 2bbd b011 95be b16c c2be 49a6 4fbe
00000030: 3dec 393e f389 f53d 476e c6bd e751 b8be
00000040: 264a a8bd 753a 96be 6ada e3be 2def 6bbe
00000050: 56ba 8a3d d6d5 843e 299d a63e 7420 85be
00000060: 4fc9 9dbe 30e8 e13d db25 84be 457d 9dbe
00000070: b815 65bd 528f aa3e 8237 733e 80b4 a33d
00000080: 9a94 543d 6f32 2ebd 890c 96be 10f5 24bd
00000090: 17f3 373d b2a9 dcbd d6a4 113e 6819 06be
000000a0: d7d7 cd3d f051 8cbe d74b 1a3e ba29 1ebe
000000b0: ebae cd3d d99a 54bd eeac 82be 9063 403e
000000c0: 8dbf 313e f438 c23d 06cf 203d ff2b b8bd
000000d0: ae68 49be 683b 3abe d82d 1ebe 6852 fdbc
000000e0: e250 4e3e 560b 53bd ea9b 873d 6238 debc
000000f0: 3c0d 45be 5f59 77be 1811 873d c1e8 803e
00000100: 7cca 223d db2f 183d e42d ddbd fd57 743d
00000110: 8537 23be 864d 423e b9a6 cc3c 5804 05bd
00000120: 27c5 d4bd 6c41 05bd cbf1 30be 5cbe 9a3c
00000130: 7bb5 c43c ac5d 1abe f01f 77be ea48 52bd
00000140: 26ce 0ebd 663a 02be 89c4 223e b98c 39be
00000150: 1a0f 0f3d f9d2 31be 454e 9e3c 16fa 12be
00000160: 9cf9 efbe 32a6 3fbd 0ee5 25bd d045 adbe
00000170: 3b12 ccbe e09c 113e 8558 acbd 8da7 afbd
00000180: 507e 2f3e ed9f 82bd 693a 67bd f6d3 d8bd
00000190: afee 97be 491d b5bd b777 c1be 8569 ad3d
000001a0: 6daa 243e c7fa 15be 275f 91bd 83ca 9dbe
000001b0: bc99 d83d 6020 c0be e4aa 2dbe 940f 383e
000001c0: 89dc 09be 7b32 88be 21bb 0bbe 64b8 6cbe
000001d0: 4970 2fbd 5d15 4abe 7059 f13d 644b 02be
000001e0: afa6 1dbd 78d0 513b 2fc8 8bbc 62b6 02bf
000001f0: 3604 b4bd 58dd 63be 8657 0dbd f6d8 c03c
00000200: 432b 853d 1cfd 633d b92b 8d3d 7490 c93d
00000210: d50e cebd b26f df3c 7ff1 823c f716 df3d
00000220: 1f0a b83d 80a9 23be 74cf 763d e406 ae3d
00000230: 4084 b7be 6b89 063e 3b28 af3e ec2d 3cbe
00000240: 7b04 27be 9e9c 6fbe b8af 33bc bfd6 c23e
00000250: 6a66 2fbe ba02 70bd 1eee 953e e29f 843e
00000260: 6ca4 03be 634c 703e fa35 02be 752f 56bc
00000270: 2de8 0a3c fed8 b3bb 42d7 f3bd 62fb acbe
00000280: 9d2c 9c3e 5459 cb3e 9c3e 033d 36a2 0ebe
00000290: 2718 c1bd 43d8 28be 1845 70be b10b 8ebe
000002a0: b571 76bd 9773 9dbd c7f9 90be b435 0b3e
000002b0: ecd5 adbd e3dd b23c b8f5 f13d bc97 853e
000002c0: 415a 103e 8206 91be d4ee 24be 3c14 a53d
000002d0: 1a6b 4b3e dfe9 1c3e 6d26 c6bd 945c 03be
000002e0: f723 87bd 443d 263d ece6 05be 81e9 a03d
000002f0: d63a 073d 8ee2 eb3d 1b37 073e 4d32 483d
00000300: 9376 95bc ca51 d9be d375 0fbe 4b84 153e
00000310: 311c 0ebe 1ae2 033c ec65 6e3d 6f6d 143e
00000320: 50f3 15bd 32a0 0dbf 9ef5 acbd c12c 4cbe
00000330: b6ab bcbb f478 ddbe 2c0c 0abd 2b97 f13d
00000340: 0dd1 5f3e 7c68 4fbd 35b0 223d 5f1d ef3d
00000350: 95fb e9bc f38e c53e 6425 34be ad58 133e
00000360: 37d7 1bbd 24d7 ee3d 2f98 ea3e 2ed8 66be
00000370: 7643 333d f712 4e3d 1fc2 693e ddea d53e
00000380: 1f57 603e 70e6 5e3e c2f0 303e 80fc 0b3e
00000390: 35d2 91be e97a 11be f2c2 43bd 0294 7b3d
000003a0: 6db3 e6bd f4b3 e43c e5c7 99bd d295 39bc
000003b0: 76e6 81be d65c 023e 7f1d 1ebe 4840 243c
000003c0: 23b6 7abe 1b9f 5fbe 5eb7 38be cbf5 34be
000003d0: 0ce0 01be 3fc1 01be cf27 933d ab8b d93d
000003e0: 69e3 253e eb21 5d3e 324e 523e 367c bd3d
000003f0: 4d18 833d 62c5 dcbc 3e5f fe3d db0a b2bd
-0.13904534 -0.42013377 -0.2926846 0.26997668 -0.103418976 0.046070028 -0.118877284 -0.07071846
-0.041883387 -0.29115057 -0.3797355 -0.20278277 0.18156524 0.11989202 -0.096890025 -0.35999987
-0.08217268 -0.29341474 -0.44502574 -0.23040457 0.06773822 0.25944394 0.3254178 -0.26001322
-0.3081765 0.110306144 -0.2581013 -0.30759636 -0.055928916 0.3331247 0.23751643 0.07993412
0.05189953 -0.042528566 -0.2930644 -0.040272772 0.044909563 -0.10774554 0.14223036 -0.13095629
0.10050934 -0.27406263 0.15067993 -0.15445605 0.100431286 -0.051905487 -0.2552256 0.1878798
0.17358227 0.09483519 0.039259933 -0.089927666 -0.19668838 -0.18186724 -0.15447176 -0.030923083
0.20148042 -0.051524483 0.06621535 -0.027126495 -0.1924333 -0.24155186 0.06595057 0.25177577
0.039743885 0.037155014 -0.107997686 0.059654225 -0.15939148 0.18974885 0.024981843 -0.032474846
-0.10389166 -0.032533094 -0.17279737 0.018889599 0.024012318 -0.15074795 -0.24133277 -0.051339068
-0.034864567 -0.1271759 0.15895285 -0.18120088 0.03492651 -0.17365636 0.019324431 -0.14353213
-0.46870124 -0.046789356 -0.040501647 -0.33842325 -0.3985766 0.1422 -0.08415321 -0.0857688
0.17138028 -0.0637816 -0.05645219 -0.10587303 -0.2967429 -0.08843476 -0.37786648 0.08467392
0.16080637 -0.14646445 -0.07098227 -0.30818567 0.105761975 -0.375247 -0.16959721 0.17974693
-0.13463034 -0.26601014 -0.13645603 -0.23117214 -0.042831693 -0.19734712 0.11784637 -0.12724072
-0.03848904 0.0032015126 -0.017063228 -0.51059544 -0.08789866 -0.22252405 -0.034507297 0.023540955
0.06502392 0.055661306 0.06893105 0.09842005 -0.10061423 0.02727494 0.015984295 0.10893052
0.089863054 -0.15982628 0.060256436 0.08497408 -0.35843086 0.13138358 0.3421038 -0.18376893
-0.16310303 -0.23399588 -0.010967188 0.38054463 -0.17128912 -0.05859635 0.29283231 0.2590323
-0.1285569 0.23466639 -0.12715903 -0.013072838 0.008478207 -0.005488514 -0.119062915 -0.3378554
0.30502787 0.3971659 0.03204213 -0.13929066 -0.09428435 -0.16488747 -0.23463857 -0.27743295
-0.060167033 -0.07688063 -0.28315565 0.13594705 -0.08488068 0.02183432 0.11814445 0.26092327
0.14096929 -0.28325278 -0.1610673 0.080605 0.19865075 0.1532359 -0.09675298 -0.12828285
-0.065986566 0.04058577 -0.13076371 0.07857037 0.033015095 0.11517821 0.13204615 0.048876096
-0.018245017 -0.42445213 -0.1400979 0.14601247 -0.13877942 0.008049512 0.05820267 0.1449487
-0.036608994 -0.55322564 -0.08445285 -0.19938947 -0.005757774 -0.43256342 -0.033703014 0.11796411
0.2185709 -0.050636753 0.039718825 0.11675524 -0.028562346 0.38585624 -0.17592388 0.14389296
-0.03804704 0.116621286 0.45819232 -0.22543404 0.043765508 0.050311055 0.22827958 0.4178075
0.21908234 0.21767592 0.17279342 0.1367054 -0.28480688 -0.14207043 -0.047793336 0.061420448
-0.112646915 0.02791784 -0.0750883 -0.011327224 -0.2537114 0.12730727 -0.1544094 0.0100250915
-0.24483542 -0.21838038 -0.18038699 -0.17671888 -0.12683123 -0.12671374 0.07185327 0.10622343
0.16200031 0.2159497 0.20537642 0.09252207 0.064011194 -0.026949588 0.1242051 -0.08693477

lstm.weight_hh_l0 f4 [200, 50]
00000000: dcec b83e e8fd 193b 8ce0 4ebe 9905 2f3d
00000010: 3fdf 18bf 798b 323e 9875 053f 27d1 263a
00000020: 1f59 8f3d 29c2 0ebe 997d 8bbd f2c0 52be
00000030: a1b0 dd3e a79e d6bd b150 c53d f894 9e3e
00000040: 28d7 ff3d 13e9 983d e112 9c3d aa11 253e
00000050: 8690 29bf c382 e23c a4e9 68be 6a7d 17bd
00000060: de00 883e d461 abbe 065e 18be d82c 9fbe
00000070: 4f08 293f 3434 3e3e da7a 803e 2eaa 033d
00000080: 68bf c63e 4bc7 e2bd 8a8f 013e d61c 743e
00000090: 9ba9 663e e23f 6a3d 1f15 83bd 39bf c53e
000000a0: c109 4f3e 1c01 e93c 8373 443e 9544 853e
000000b0: df6c a03e f8d7 82be aad3 8ebe 9724 c93d
000000c0: cee2 8bbe 1e14 813d b765 993e 2660 29be
000000d0: 80a2 953e 1bc6 a63d e162 7c3e 0edf 1abe
000000e0: eb17 003e 0053 5cbe 81e7 123e e840 a13d
000000f0: 303b 84be 2dd5 4bbe 6d3a ccbd 4102 5f3d
00000100: 4170 7fbe aa19 7cbd f1ef 1ebe 47c3 60be
00000110: 6d7f 0e3e e53d 2abd bd62 25bd 9985 1b3d
00000120: fd00 10be 4dc1 b1bd 8b05 22be 646d cfbe
00000130: c386 b73e 52fc f13e 2178 5fbe 1f47 00bf
00000140: ccea 103e 6c9e f8bd 494d 10bd eb31 aa3e
00000150: a724 503d 7820 8bbe 3e4c f03d d239 c23d
00000160: 9356 82bc 29a3 51bf 0ec0 7a3e 7669 ac3e
00000170: 0a24 65bd 0529 16be e23d 90be 6604 d13d
00000180: 2bdb 9ebe 160a f93d 7cc7 873d b635 b5be
00000190: 4a99 6b3d 542c b13e 1e44 c83d d61c cf3d
000001a0: 9a44 343d e43e 4dbc c507 c53d 060a 1dbe
000001b0: 307c 8bbd 3b20 a03d 981b 353e cfb2 883c
000001c0: bd82 80bd a905 e6be 520c f83d 7c69 d83d
000001d0: f828 173f abbc f0bd cd81 6abd c48b 24bd
000001e0: 0677 20be 2451 26be 55c7 823e f13c 983e
000001f0: f571 f93e 116d 92be 0cfc 593e 6adc 773d
00000200: 3781 f33c e48e d3be e1c5 063f c3d6 b5be
00000210: 156e 5cbd 8913 083d 1e13 cfbd ad65 bbbd
00000220: 1ed8 473e d514 333d 36f0 213c 8c91 8cbe
00000230: 2b81 243d 87b8 4d3e 33c5 bfbe dcdc 2f3e
00000240: 99ce aa3e dd9d df3c 16a6 5ebe 58e5 a03e
00000250: 9d6e efbb f949 3ebe 52cd 09be 4e20 e73e
00000260: 8026 8bbe 542a d0be 2d14 883e 8909 49bd
00000270: 28de b73c aabd 89be ad43 52be b202 91be
00000280: fede c5be 23e8 a63d 034a ecbe b84f 0abe
00000290: d3fb 83bd 29b8 ebbc cb0e 043f d76b 113d
000002a0: 80bc 81be 189d b23e 9e20 c73e 2517 b03d
000002b0: 480b 11bf 4ebc 013f c6b5 62be 12ee adbe
000002c0: c278 bd3b b692 b93e 7a10 49be 496a e1be
000002d0: 1e51 93be 6393 19be dc69 18bc ed58 e9bd
000002e0: 4b14 d7be 67dc 42be 7a6a 283f fd15 8fbe
000002f0: e650 39bd 6c1c 89be 7139 c83e 0797 7c3e
00000300: 91a3 35bd dc6c 37be 62fb 263d 081c 433e
00000310: f48c f83e 34b9 27be fa0a b1be 9581 883d
00000320: 9a2d 4e3e f81b aa3e b754 883e 663d b6bd
00000330: 3961 df3e 915c 51be a972 4ebd 8b74 9e3e
00000340: f4ae 98bc f735 d3be f6b7 e5be 5a4d 8abd
00000350: 3701 063e 876d 263d 1778 89be 8866 b63d
00000360: 8efa a4bd 632b 763e ce4c 26be 54c5 b7be
00000370: 11cb eabb 667c 813e be1b 033e 0064 573e
00000380: 252f a7bb fdcc ea3e ee86 34be 78d6 f4bc
00000390: 39fb 66be 6340 2c3e 2d4b 6abe 6269 463e
000003a0: 419b 04be 5d44 f73e 5635 19be 34ce 9f3e
000003b0: 8d96 2dbe 47b6 bb3e fede 83be 9609 623d
000003c0: 18e8 a7be e7d8 373e 75a8 bb3d 8ad5 dfbc
000003d0: 45eb c1be b4e8 83be e50a 99bd 789b c6be
000003e0: 85ef d8be fed7 fbbd 407e 8e3c 5833 083f
000003f0: f7b3 7abc acbc a73e 57a3 5ebe 0014 af3e
0.3611821 0.0023497287 -0.20202845 0.042729948 -0.59715647 0.17436017 0.5213256 0.00063635636
0.069994204 -0.13941254 -0.06811065 -0.20581415 0.4329882 -0.10479479 0.09634531 0.3097303
0.1249221 0.074663304 0.07620788 0.1612002 -0.6623615 0.027650243 -0.22745377 -0.03698484
0.26563162 -0.33473074 -0.14879617 -0.310889 0.660283 0.18574601 0.25093728 0.032144718
0.38817906 -0.11073168 0.12652412 0.23839125 0.22525637 0.05718983 -0.06400513 0.38622454
0.20218565 0.028442912 0.19184689 0.26028886 0.31333062 -0.25555396 -0.27895862 0.09821432
-0.27321476 0.06302665 0.29960415 -0.16540584 0.2922554 0.08143254 0.24647094 -0.15124151
0.12509124 -0.21516037 0.14346124 0.07873708 -0.25826406 -0.19905539 -0.09972081 0.05444551
-0.24945165 -0.061547913 -0.15521218 -0.21949492 0.13915797 -0.041562933 -0.040377367 0.037969206
-0.14062877 -0.08679447 -0.15822427 -0.40513146 0.35845003 0.47262818 -0.2182317 -0.5010852
0.14152068 -0.121395916 -0.035229955 0.3324121 0.050816204 -0.2717321 0.11733292 0.094836846
-0.015910422 -0.8188959 0.24487326 0.3367421 -0.055942573 -0.14664085 -0.28172213 0.10205917
-0.31026587 0.12160127 0.066298455 -0.3539254 0.057519235 0.34604132 0.09778617 0.10112922
0.044010736 -0.012527201 0.096206225 -0.15335855 -0.06810796 0.078186475 0.17686307 0.016686825
-0.06274936 -0.44926193 0.12111725 0.105669945 0.5904689 -0.117547356 -0.057252694 -0.040172353
-0.15670404 -0.1624189 0.25542703 0.29733995 0.48719755 -0.28598836 0.21287555 0.060512938
0.0297247 -0.41319954 0.5264569 -0.35515413 -0.05381592 0.033221755 -0.10111068 -0.091502525
0.19516036 0.04372104 0.009883931 -0.27454793 0.040162247 0.20089923 -0.3745514 0.17174095
0.33360747 0.027296955 -0.21743044 0.31424975 -0.0073068873 -0.18582906 -0.1345723 0.45141834
-0.2717781 -0.40657294 0.26577893 -0.04908136 0.0224448 -0.26902515 -0.20533629 -0.2832237
-0.38646692 0.08149745 -0.46150216 -0.13506973 -0.06444516 -0.028774338 0.5158507 0.035503235
-0.25339127 0.34885478 0.38892072 0.085981645 -0.5665784 0.50677955 -0.22139654 -0.33970696
0.0057822177 0.36244744 -0.19635192 -0.44026402 -0.28772825 -0.1499763 -0.009302583 -0.11393914
-0.4200767 -0.1902939 0.6578747 -0.27946463 -0.045243166 -0.26779497 0.39106324 0.24666987
-0.044345442 -0.1791262 0.04076708 0.19053662 0.4854504 -0.16379243 -0.34578687 0.06665341
0.20134583 0.33224463 0.26627132 -0.088984296 0.43628863 -0.20445468 -0.050402317 0.3094829
-0.018638112 -0.4125211 -0.44866914 -0.06753035 0.13086401 0.040631797 -0.26849434 0.08906275
-0.08055602 0.24039988 -0.16240236 -0.35892737 -0.0071653207 0.2529022 0.12803552 0.2103424
-0.0051020556 0.4585952 -0.17629597 -0.029887423 -0.22556771 0.16821437 -0.2288024 0.19376138
-0.1294985 0.48294345 -0.14961752 0.31212008 -0.16951962 0.36662504 -0.25756067 0.055184923
-0.3279426 0.17953835 0.0916299 -0.027323503 -0.3787481 -0.25763476 -0.07472781 -0.38790488
-0.4237024 -0.122970566 0.017394185 0.53203344 -0.015301696 0.32761133 -0.21741997 0.34194946

lstm.bias_ih_l0 f4 [200]
00000000: fbcb 403d 2312 433b 11c2 7f3d 4672 f4bd
00000010: d643 5c3c 852e 85bd 6f0b db3e f1aa d03c
00000020: 0b7b 57bd 8eac e9be 110e 0d3d b1cb c6be
00000030: c3d4 71be 4691 2abd d8ab 85be 73d5 36be
00000040: d94d 8fbd 73c8 36bf 7d18 afbd 166b acbe
00000050: d4a8 a33e 566a b33e b4db 043f 2fc8 76be
00000060: d7e1 21bf c5ec 77be 18fa 6bbe d4d0 1c3f
00000070: d6e8 8a3a 64ba a4be c7b1 62bd 5a17 babe
00000080: 5817 a6bd 45fc 14be def4 e9b9 f478 4fbd
00000090: ddd6 4d3e 39b9 fc3e 2d0b f43d a8e9 58be
000000a0: b567 f93c 9e3b c7be 1bf8 973e 4fe8 47bd
000000b0: 6906 02bf 0a06 c83e f99f b63e 665d 89bf
000000c0: 976c ae3d 904b f03d 1eb9 383e 8af7 fb3e
000000d0: e178 16bd 4063 e23e 6e96 893e 35e9 c23d
000000e0: 986c a23e c22c 033f 32ef e53e f393 83be
000000f0: 28e8 9e3d 02f2 593e fae4 ad3e 2b85 d33e
00000100: 7c1d 313f a9a1 f83d db07 183f c3f5 a23f
00000110: 9ebb b0bc a8b3 663e f2b9 8a3f 550c 5d3f
00000120: 3dc4 ccbd f0d0 253f c9c3 f83e fd50 36be
00000130: a3b4 ae3e 4f42 b43e 9b97 f33e d186 b13e
00000140: 45e5 023f 3656 a33e e9e0 aa3e b3da 323e
00000150: 011d d03e 9c50 eb3e 69d8 8b3e dcf5 793e
00000160: fd45 ea3e 76be f53d c796 a73e b774 463e
00000170: d9f3 733f d54b e63e 4f9e 383f 8aad 293e
00000180: e723 c13e d1d9 b73e f35d 97bd b0c6 7bbd
00000190: de1a 99be 8379 173e bd55 283e 1a0a af3e
000001a0: 0f11 e63e a89c 113e e689 b9be cdaf 553e
000001b0: 0c66 5ebe f972 d1bd 5bda 9ebe a3c6 0d3f
000001c0: 33db 2b3d 93f2 c8be 2ceb e2bd 26f4 963e
000001d0: 1088 d73e 20b3 453f 75b5 86bd 0f2d 383e
000001e0: 321f 5a3f 4ce4 8a3e 9e2a 003e 710b 073f
000001f0: a1bf 83be da56 44be 59b3 b0bd e586 563f
00000200: a307 203e 9b7b 233e 0d95 27bd 1512 583d
00000210: d9b3 6f3d d2a1 233f 8932 d3bd b15d 953d
00000220: ea69 ea3d 3bf2 d2bd 4f8e e73d 3cbf 19be
00000230: 3183 6b3e 9a51 0e3f 5968 d33e 4a85 503e
00000240: 3ecf 0cbf 9903 51be 4f3d 1d3d 5566 d7be
00000250: a407 763e 96ae 183d ed4f 533d e5d3 eb3e
00000260: d8ea 6c3d ff6c 443f 04c6 123f 4663 1bbe
00000270: 904f a43e 0e6e 9f3e ab2d 6ebe 1c0d 89be
00000280: 9604 793e 3513 e73e 1d37 f03e c5b7 8abe
00000290: 7057 813e 622a 793e 29da bd3e 8cd9 503f
000002a0: 816f 56be aa33 8a3e 305a 9b3f 4f7e d4bd
000002b0: 6809 363d b91a 33be 3ad9 ab3e 832b d5be
000002c0: 7bb3 32bf bec6 1b3e 7b08 ca3a 14c7 e23e
000002d0: 24f1 c03e 69e7 033f 7d46 143d ad62 563e
000002e0: e6fa 0ebb af36 b83d 3481 2b3e 472f 943e
000002f0: 4c39 aa3e 2be9 293d e7ff 073f 5699 553e
00000300: ae7e 273f 4d11 313e 3f91 2a3f 6c5b 2b3f
00000310: 9355 df3e b7c7 bd3e 6a89 993e dcd3 2a3d
0.04706953 0.002976545 0.062440936 -0.119358584 0.013443908 -0.065030135 0.4278216 0.025472136
-0.052607577 -0.4563946 0.034437243 -0.3882728 -0.23616318 -0.04164245 -0.2610767 -0.17854862
-0.0699727 -0.7139961 -0.08549593 -0.3367545 0.31964743 0.35042065 0.5189774 -0.24099801
-0.6323523 -0.24211414 -0.23044622 0.61256146 0.0010597955 -0.32173455 -0.055345323 -0.3634594
-0.08109921 -0.14549358 -0.00044623663 -0.05065246 0.20101495 0.49360064 0.11916194 -0.21182883
0.03044496 -0.38912672 0.29681477 -0.04880553 -0.5079103 0.39067107 0.35668924 -1.0731628
0.085168056 0.117331624 0.18039367 0.49212295 -0.036736373 0.44216347 0.2687258 0.09517137
0.31723475 0.5124017 0.44909054 -0.25698814 0.07759124 0.21283725 0.33963758 0.41312537
0.69185615 0.12140209 0.59386986 1.273125 -0.021573838 0.22529471 1.0837996 0.8634694
-0.09998367 0.6477194 0.48586872 -0.17804332 0.3412219 0.3520684 0.47576603 0.3467317
0.5113109 0.3190171 0.33374718 0.1746624 0.40647128 0.45959938 0.27313545 0.24410194
0.45756522 0.11999218 0.3273222 0.1938046 0.95293957 0.4497973 0.7211656 0.16570106
0.37722704 0.35908368 -0.07390966 -0.06146878 -0.2990331 0.14792447 0.16438957 0.34187394
0.4493489 0.14219916 -0.3623802 0.20867844 -0.21718615 -0.102270074 -0.31025967 0.5538122
0.04195709 -0.3924757 -0.11080012 0.29483145 0.42095995 0.7722645 -0.06577579 0.17985938
0.8520385 0.27127302 0.12516257 0.52751833 -0.2573214 -0.19173756 -0.08627958 0.8379958
0.15627913 0.1596512 -0.04091363 0.05275162 0.058521125 0.63918793 -0.10312373 0.07293261
0.11445983 -0.10300108 0.1130644 -0.15014356 0.22999264 0.55593264 0.41290548 0.20363346
-0.55003726 -0.20411529 0.038388547 -0.4207026 0.24026352 0.037275873 0.051589895 0.460601
0.057841152 0.76728815 0.573334 -0.15174589 0.3209195 0.31138653 -0.23259608 -0.26767814
0.24318156 0.4513184 0.46917048 -0.2709333 0.25262022 0.24332574 0.37080505 0.8158195
-0.20940973 0.26992542 1.2136898 -0.10375654 0.044442564 -0.17490663 0.33564168 -0.4163476
-0.69805115 0.15212533 0.0015413904 0.4429251 0.37683976 0.5152498 0.036200035 0.2093608
-0.0021817028 0.08994805 0.16748506 0.2894232 0.3324684 0.041482132 0.5312485 0.20859274
0.6542767 0.17291756 0.6662788 0.66936374 0.43619975 0.37066433 0.2998765 0.04170595

lstm.bias_hh_l0 f4 [200]
00000000: 402e c83d 60da 28bd ad29 22bc cd41 c0bd
00000010: 66d2 353e ee2b 0abe aa8d dd3e 82c0 89bb
00000020: 5dff b43c d8d3 17bf 984f 25be e9b5 09bf
00000030: dab9 aebd 60bc 1abd abcd 7ebe 18b8 1ebe
00000040: 98c9 7cbe d322 f1be 01ed 25bd 0d86 7abe
00000050: e052 6c3e 1df2 893e d796 9c3e 3272 bd3c
00000060: 9712 56bf eb73 11be 24db 6abe 9b79 4a3f
00000070: ab7e 75bd 1741 bcbe 3287 573d b8c5 20be
00000080: 9a9d 9abe e04d 86be 300b 07be a41e 63be
00000090: 06c4 5b3e cccc 793e 2cc2 933d 684a f5bb
000000a0: 8a58 f2bd 7263 a2be a9d5 f43e 9831 8cbd
000000b0: d88e ffbe 64de 0b3f d778 ce3e fb19 67bf
000000c0: 2c31 abbc fe4c 033e 3ea2 033d cc55 183f
000000d0: eb88 2e3e 43ce e53e 73bd 7b3e bdce 283d
000000e0: cf0b f43e 868e fe3e 5193 313f dd12 8dbe
000000f0: a209 543e 8fbb 963e c21f 2b3e 6c5a d03e
00000100: cc11 3c3f 38bd 823e e491 063f 464b b63f
00000110: 3a7d 84bd 3d3b 01bc 151c 833f 6b5b 3e3f
00000120: 8f96 7dbd 48bb 233f 1021 ee3e 668e 84be
00000130: 0b33 063f 6bc6 0c3f 1c30 063f e405 073f
00000140: 6313 f93e 3ab7 c63e 9395 793e ed3a 883e
00000150: 0694 b13e 545e d33e 2eb8 8c3e 6d9e c03e
00000160: 9565 393f 393a 8e3d 397d 5d3e 99a3 8f3e
00000170: 4966 783f bdef 893e 3f5b 1e3f ba73 6e3e
00000180: 2f25 cf3e 488e da3e c69d 073e c002 1a3e
00000190: 8660 2bbd 1105 aa3e 2605 903e 26f4 053f
000001a0: f106 343e 0ecd 863e 5370 5dbe 3437 8eb9
000001b0: 553f 49be d053 c1bd a97c fdbd 31ae 093f
000001c0: 3148 28bd 0582 61be 6659 66be 1c7b 9a3e
000001d0: aa63 943e 64b6 233f a95b 1c3b ce1d 063e
000001e0: 9915 443f 249f 5f3e 377e c03d 3714 0f3f
000001f0: 2099 b6be 9030 04be 1385 35be f19f 5c3f
00000200: eb12 9b3d e2b2 2abc eb53 b73d 094c 4a3e
00000210: bc8a 313e 82c2 263f c86a 00bc 3680 8d3d
00000220: 3120 7e3e 176d 89be 1ebc 013e 06ea 46be
00000230: 4eb4 6c3e d87c 253f a811 043f 4be3 1f3e
00000240: e486 f5be 2e99 83bd 04a7 463e 7452 a9be
00000250: 9e66 5b3e 1037 873e 812b 643d 9ea3 0b3f
00000260: 8bfe 013e a77b 373f 637f 193f 80cb 18be
00000270: c48b 783e da5e 9a3e cc6d 67be 8c8f 8dbe
00000280: 7901 ca3e 2993 fa3e 43ec b13e 8353 95bd
00000290: a67b 9c3e 6c00 343e e488 d13e 12bf 333f
000002a0: c844 00bc 9710 923e e150 973f 34d3 ae3b
000002b0: a344 c33d 18d7 2cbe bbd3 c93e 376a b1be
000002c0: af88 23bf ecac af3e 2278 6b3c f256 983e
000002d0: 2e58 1a3f e3a8 1c3f 0907 633e a349 923e
000002e0: aca5 3cbe df28 e33d 9373 cb3e 1a33 4e3e
000002f0: 0fa0 153e e12f e6bc 57da 293f b9f4 f63d
00000300: 15f7 dd3e 9dd2 cd3d 52c4 0d3f 9ee7 163f
00000310: 8eea 7e3e 2239 f73e f442 cb3d 7e90 edbd
0.097744465 -0.041223884 -0.009897632 -0.093875505 0.17756042 -0.1349332 0.43272144 -0.004203857
0.022094423 -0.5930762 -0.16143644 -0.537932 -0.08531542 -0.037777305 -0.24883144 -0.15499914
-0.24686277 -0.4709688 -0.040509228 -0.24465199 0.2307849 0.2694253 0.30583832 0.023125742
-0.83622116 -0.14204375 -0.22935158 0.79091805 -0.059935253 -0.3676841 0.052619167 -0.15700424
-0.30198365 -0.2623129 -0.13187861 -0.22179657 0.21461496 0.2439453 0.0721477 -0.0074856766
-0.11833294 -0.31716496 0.4781926 -0.06845397 -0.4991367 0.54636216 0.40326568 -0.9027402
-0.02089747 0.12822339 0.032137148 0.59505916 0.17044418 0.44883928 0.24583988 0.041212786
0.4766526 0.49718112 0.6936541 -0.27553454 0.207068 0.2943997 0.16711333 0.40693986
0.73464656 0.25534987 0.5256636 1.4241722 -0.064691976 -0.007887659 1.0242945 0.7435824
-0.061911162 0.63957644 0.465096 -0.2588989 0.52421635 0.5499026 0.5241716 0.52743363
0.48647603 0.38811666 0.24373464 0.26607457 0.34683245 0.41282904 0.27484268 0.3762087
0.72420627 0.06944699 0.216298 0.28054503 0.97031075 0.26940718 0.6185798 0.23286334
0.40458056 0.42686677 0.1324378 0.15040112 -0.0418401 0.3320699 0.28128928 0.52325666
0.17580773 0.2632832 -0.2162488 -0.0002712548 -0.19653066 -0.09439814 -0.12377293 0.5378142
-0.041084472 -0.22022255 -0.2249504 0.3017205 0.28982288 0.6395018 0.0023858345 0.13097307
0.76595455 0.21838051 0.093990736 0.5589022 -0.356637 -0.1290915 -0.17726545 0.8618155
0.07571968 -0.010418626 0.08951553 0.19755568 0.17338079 0.65140545 -0.007837959 0.0690922
0.24816968 -0.2684104 0.12669417 -0.1942521 0.23115656 0.6464362 0.5158944 0.15614049
-0.47954476 -0.06425701 0.19399649 -0.3307072 0.21425864 0.26409197 0.05570555 0.54546535
0.12694757 0.71673054 0.5996 -0.14921379 0.24272066 0.3015049 -0.22600478 -0.2764858
0.3945425 0.489404 0.34750566 -0.07291319 0.30563086 0.17578286 0.40924752 0.70213425
-0.007828899 0.28528282 1.1821557 0.005335236 0.09534576 -0.16878927 0.3941935 -0.34651348
-0.6388044 0.34311616 0.014371904 0.29753834 0.602908 0.611952 0.22170652 0.28571805
-0.18422574 0.1109178 0.39736614 0.20136681 0.14611839 -0.028099002 0.66348785 0.12058396
0.4335257 0.10049937 0.55377686 0.5894717 0.24894163 0.48285776 0.0992488 -0.11599825

fc_1.weight f4 [128, 50]
00000000: 00d5 f23d e2ba 27bd 9ccc 5ebe a964 ee3c
00000010: 62b3 183e 56cf 3cbe 71f6 37be a88b bb3d
00000020: b6aa e13e 98c6 8e3e 18d9 833e 7a2c e13d
00000030: bc2a 623d e128 b93e be77 9bbe c6fd 4cbc
00000040: 204e a13d 6d1e 6bbe 476d 1a3f 715e aa3d
00000050: 96e0 763d ffe9 97bc 9daa 913d 2fbf 88be
00000060: 6658 cabc 01b9 abbe 364d fc3d 089c f0be
00000070: 24ab 08bf c470 22be a56e 9e3e e782 e43d
00000080: 9991 9a3e 36d5 cd3d 336a 05bf 4fe2 66be
00000090: f672 173d 0f13 b33e ddab 8dbe e09a 0f3e
000000a0: 538c 30be 3ea8 e5be b091 80be 9a3f 823e
000000b0: e4c1 dc3e 7e9c 35bd c19c fc3d 9699 15be
000000c0: aec9 cc3e 26b8 0abe 5114 5b3e cf08 35be
000000d0: 7fdf 63be f8ef 4bbd e5a9 943d 0516 d6be
000000e0: 5de6 f8be 23f9 923e 8a10 163e 6ba8 a3bd
000000f0: bc80 853d e295 0cbe d120 2b3e 745c de3e
00000100: b1dd fdbe f10d 4ebe e249 2e3d 40db 013e
00000110: fe19 39be 0341 a13d 3dc0 9a3c 3487 5cbd
00000120: ab33 0c3e a582 433e 9049 bcbd 5e00 1dbe
00000130: 8b6d cdbd 9a8b 9ebe d5d3 223e 3597 253e
00000140: 2af0 e2be 6108 e93e 3ecf 54be fdee c5bd
00000150: e893 efbd 01f5 65bc a5f2 bcbd 330a 943e
00000160: a897 5abe 9cac 023e e128 f53e cee2 bf3d
00000170: 4118 a33e f154 4ebe 3b9f 4e3e 0e70 80be
00000180: cbf8 eebe 0c30 92be dedb 1abe f997 233e
00000190: 881c 113e e2a1 a43d 3802 a23e 4cf4 09be
000001a0: 4a4b eabd 0928 883e 4978 f8bd b4da ccbd
000001b0: 7579 593e 22d9 333e c73d af3d 30a2 c13c
000001c0: a3b6 a13e 3ec2 45be 534c 1a3e 7a69 9ebd
000001d0: c53f b43e ee0e 25be cab1 a53e 7bce 313e
000001e0: 8bdc 94be 34f5 2ebe 2a77 63be 38f0 edbd
000001f0: 4276 723e 515a c7bd 6bd8 29bd 88ab a4be
00000200: 1116 043e 71ef 61be 2824 963e 328b 34be
00000210: b12b b13d 40e9 b7bd d989 95be e527 a53c
00000220: 319d dcbd 8c5d 8d3d 76ff babd 1fa8 cdbd
00000230: 05c2 0abe c8a7 fa3c 865b 82bd b5fa c7bc
00000240: 6c04 01be 7cd1 27be 2580 3cbe 6810 643e
00000250: 5d49 453e 87ac 5a3e 57ed eabd e7d4 873d
00000260: 1f2a db3d 2618 223e 763c 933e 68ee 2abe
00000270: 1b69 993e d086 fd3d f76a a5bc c351 9bbe
00000280: 480b 07bd 2fc8 38bd bbd8 5bbe 3a7f ac3d
00000290: 8060 5abd 619d 7d3e 1789 483c 316c e03d
000002a0: 29db 9ebe 07a4 bf3d b385 183b 5d2e 033e
000002b0: f5b2 613d 398e c93e 5d41 c7bd e42d b2be
000002c0: 5fc1 a13e 6944 3ebd 3bcd 4cbd ac47 b3bd
000002d0: 5044 84bd c70c 23be 7373 1dbe c77d 2e3e
000002e0: 2958 e83d d30b b8bd acee 8e3e c027 d5bc
000002f0: 5c5a 38be 0b94 c4be 452d 993e 9cc7 ae3d
00000300: 473d 903e 7d04 dfbd e120 7ebe 7d01 643e
00000310: 00b9 b6bd 356c c6be 90d6 2f3e 782f f8bd
00000320: 3d95 c8bc 1407 99bd 2feb 343d 06bb 76be
00000330: 9321 93bd 30be 4d3e 978a d03e c238 abbc
00000340: 96e8 01bd 9e95 cdbd b48f e63c 6091 bc3e
00000350: e6e5 293e a0bd 173f 8cdc 93be f0db 323e
00000360: 3453 1fbd dbcb c4be dd61 59be 73bb 5abe
00000370: fe19 3dbf 7f51 8bbe 708a 663d f1f8 4bbe
00000380: 165f 803d c2be 5ebe 428d 633c 1824 84bc
00000390: 7137 edbe 66ec 523e 163c 20be c6fb 77be
000003a0: bf06 87be 3f4e f1be 9302 323f 8f68 b73d
000003b0: b167 d73e 03cc a6be 2ee1 ab3c 4725 a53d
000003c0: 525a 8abe 64e0 b6be 242c 0e3e 534e be3e
000003d0: 1cb1 bc3c 2d02 17be 7836 0d3f 20a7 eebe
000003e0: 5ad9 b6bd 57ff 1ebe d5ca 3d3e 9b57 d33e
000003f0: a8c8 013e fea6 c93e 6dd6 a5bd c44a 363e
0.11857033 -0.04094971 -0.2175774 0.029100733 0.14912179 -0.18438467 -0.17965104 0.09157497
0.44075555 0.2788589 0.25751567 0.10994811 0.055216536 0.36164 -0.30364794 -0.012511676
0.07876229 -0.22960825 0.60322994 0.083187945 0.060272776 -0.018544195 0.0711262 -0.26708362
-0.024700355 -0.33539584 0.12319414 -0.46994042 -0.5338614 -0.15863329 0.3094379 0.1115778
0.30189207 0.100504324 -0.5211517 -0.22547267 0.03697487 0.34975478 -0.27670184 0.14023924
-0.1724103 -0.4485492 -0.2511115 0.2543915 0.43116677 -0.044338696 0.12334586 -0.1460937
0.3999762 -0.1354681 0.21394469 -0.17679141 -0.22253226 -0.0497894 0.07258967 -0.41813675
-0.48613253 0.287057 0.14654747 -0.079911076 0.06518695 -0.13729051 0.16711737 0.4342991
-0.495832 -0.20122506 0.04255093 0.12681293 -0.18076321 0.07873728 0.018890494 -0.053839877
0.13691585 0.19092806 -0.091937184 -0.15332171 -0.10030659 -0.30965883 0.1590112 0.16170962
-0.44323856 0.45514205 -0.20782182 -0.09664724 -0.11698133 -0.014035464 -0.09225968 0.2891403
-0.21346915 0.12761158 0.4788275 0.093694314 0.31854442 -0.2014959 0.20177929 -0.2508549
-0.4667419 -0.28552282 -0.15122935 0.15975942 0.1417104 0.08038689 0.31642318 -0.13472098
-0.114401415 0.26593044 -0.121323176 -0.10002652 0.21237738 0.17563298 0.08556705 0.023636907
0.31584653 -0.19312379 0.15068178 -0.07734962 0.35204902 -0.16118976 0.32362205 0.17363922
-0.2907451 -0.17085725 -0.22213426 -0.11618084 0.23677924 -0.09734023 -0.041466158 -0.32162118
0.12899043 -0.22063996 0.2932446 -0.17631224 0.086509116 -0.08980036 -0.29206732 0.020160625
-0.107721694 0.06902608 -0.091307566 -0.10041832 -0.13550575 0.030597582 -0.06365113 -0.024411539
-0.12599343 -0.16388506 -0.18408258 0.22271883 0.19266267 0.21354876 -0.1147105 0.06632405
0.10701393 0.15829524 0.28757066 -0.16692507 0.29963002 0.12379229 -0.020192606 -0.30335817
-0.032969743 -0.045112785 -0.21469395 0.08422704 -0.053314686 0.24767067 0.012239716 0.10958136
-0.3102658 0.093574576 0.002327305 0.12810655 0.055102307 0.3936632 -0.09729264 -0.34800637
0.31592843 -0.04645196 -0.05000041 -0.08753905 -0.06458342 -0.15922843 -0.15376072 0.17040168
0.1134494 -0.0898663 0.27916467 -0.02601993 -0.1800322 -0.38394198 0.2991735 0.08534166
0.2817175 -0.10889528 -0.2481723 0.22266193 -0.08922005 -0.3875443 0.17171693 -0.12118429
-0.024485225 -0.07472053 0.0441696 -0.24094781 -0.07184138 0.20092082 0.40730736 -0.020901088
-0.03171595 -0.10038303 0.028144695 0.36829662 0.16591606 0.5927372 -0.288792 0.17466712
-0.038897708 -0.3843678 -0.21228738 -0.21360569 -0.73867786 -0.27210614 0.056284368 -0.19919182
0.06268136 -0.21752456 0.013888659 -0.016130492 -0.4633136 0.20597991 -0.15647921 -0.24217138
-0.26372334 -0.4713001 0.6953518 0.0895549 0.42071298 -0.32577524 0.020981397 0.08063751
-0.27022034 -0.3571807 0.13884026 0.37169132 0.023033671 -0.14746924 0.5516124 -0.4661188
-0.08928175 -0.15527092 0.18534406 0.41277775 0.126742 0.39385217 -0.08097539 0.17801958

fc_1.bias f4 [128]
00000000: e5f4 5cbc d5ac 45be dbbc b03c 9c12 ae3d
00000010: 8b2f a73d a5d1 083e 5c45 d43d e22e 82bd
00000020: 3f6e d23c 8c71 773d 2cf5 79bd c004 a1bd
00000030: 9b6c f4bc 73cd c4bd fe56 a9bc 579a b6bd
00000040: f752 56bd 3fe5 833d 7ab3 36bd f750 31bc
00000050: afe4 173d e7ef 203e 680e d0bd 82ad 62be
00000060: d4c2 8e3c 835b dabd 1795 943c 4e36 18be
00000070: 14f8 a53d 0f65 33bd f330 aabc a502 90bd
00000080: e7ef 973d df4d a5bd 39a6 f8bd fa67 78bc
00000090: 0fa3 d7bd 2e36 2b3e a149 b2bd b40e 02be
000000a0: b7b1 da3c de3f 5a3c 1b42 32bd 63ad 7fbe
000000b0: 5b65 cc3d 110d 0ebe 8642 543c 3187 12bd
000000c0: bc90 46be 5ce2 6dbd 3715 51be 6717 483b
000000d0: 7f59 10be fb58 50be f586 50bc ad64 c63b
000000e0: ce0b 61bd 1839 adbc 1054 ebbd 2c67 d83c
000000f0: e6ab 063e 95ee a53d 01bb 853d 547a 233e
00000100: 5441 1abc 84c4 f0bd a959 1cbe 9d8b 6c3e
00000110: df96 2a3c 3f8d 833c 3372 4ebe ba9f 30be
00000120: 4649 cfbc b766 88bc 7561 043e 2d4c d3bd
00000130: d01d 5ebe c9c2 fa3c 9e0d 38bd 4487 bb3b
00000140: 697a 0d3e 1eb7 a93d 210b 65be b705 b23d
00000150: 656a 9cbd ba33 0a3e 659b 57be e7d0 60be
00000160: 01d9 32bd bb8d 2cbe eaa5 dd3d a3e3 673d
00000170: 0afc 27be 4b34 2fbe db99 843d 138f 133d
00000180: 94bc 2f3d 11cd 44bc d219 50bd 4f22 203c
00000190: 3252 81bc 87f7 683d bd3e 52bd 6a05 583e
000001a0: a7c2 65be dc82 c43a e64a cf3c c373 ce3c
000001b0: 6724 ba3d f17e 0abe e8b1 b53d 012b 06be
000001c0: 4ae1 143a 1073 c4bd 4542 15bd aaef dcbd
000001d0: 04aa 793d 6dfc 3a3e 3f27 93be 25a5 d2bd
000001e0: c150 55bd 6fab 503c d420 113e 52b6 033d
000001f0: 42e3 313c 4233 af3d c32b c73d a155 75be
-0.013486122 -0.19304211 0.021574428 0.08499643 0.08163365 0.13361223 0.10364792 -0.063565984
0.025687335 0.06041102 -0.06102483 -0.07862234 -0.029836943 -0.09609499 -0.020671364 -0.08916157
-0.052325215 0.064402096 -0.044604756 -0.010822526 0.037083324 0.15716515 -0.10158998 -0.221365
0.017426886 -0.10661986 0.018137498 -0.14864466 0.08103958 -0.04379755 -0.020775294 -0.070317544
0.074188046 -0.08071493 -0.121410795 -0.015161509 -0.10529148 0.16719887 -0.0870545 -0.12700921
0.02669607 0.013320891 -0.043520074 -0.24968486 0.099802695 -0.13872172 0.012955314 -0.03577346
-0.1939115 -0.0580772 -0.20418249 0.0030531527 -0.1409664 -0.20346443 -0.012727489 0.006054482
-0.0549429 -0.021145388 -0.11490643 0.026416384 0.13151512 0.081021465 0.06529809 0.15964633
-0.0094149895 -0.117562324 -0.15268578 0.23100133 0.010411947 0.016058562 -0.20160751 -0.17248431
-0.025303494 -0.01665054 0.12927802 -0.10317264 -0.2169106 0.030610459 -0.04493486 0.005722912
0.13816227 0.0828688 -0.22367527 0.08692496 -0.07637481 0.13496295 -0.21055372 -0.2195469
-0.043663982 -0.16850941 0.10822661 0.056613576 -0.16404739 -0.17109792 0.06474658 0.036025118
0.04290445 -0.012011782 -0.050805874 0.009773805 -0.015786264 0.056876685 -0.051329363 0.21095815
-0.22437535 0.0014992612 0.025304269 0.025201684 0.090889744 -0.13524987 0.088718235 -0.13102342
0.00056793226 -0.09592259 -0.036440153 -0.107879 0.060953155 0.18260355 -0.2874088 -0.10285405
-0.052078966 0.012736185 0.14172679 0.032156296 0.010857405 0.085546985 0.09725144 -0.23958446

fc.weight f4 [3, 128]
00000000: 77fb 3bbf a981 7abe b873 72bd b3e7 263e
00000010: 143e 6abe d6e3 003e e4c9 2e3e b905 343f
00000020: d1dd 6c3e 7cbb 93bd 67cd dbbd 87e1 05bf
00000030: 6384 51bd 863c 55bd 022b 62bf 9ea8 293e
00000040: 4ad4 5e3e 77c5 e13e 4075 903d 486c a63e
00000050: 76c7 db3e 7517 9b3e 2e7f fbbd 31ed 0fbf
00000060: 3ffc 47be b7a7 7b3e 19bd 723c e791 21bf
00000070: a3a7 9abd e58b d53e b29e 28be 74a4 c23d
00000080: 156c da3e eccc c53d ce4b 58be 8109 92bb
00000090: 0cc2 8ebd 0485 ca3d f7b2 ae3e 539a 6cbf
000000a0: 2ea0 b43e c926 d5bd d784 8dbe 6399 8a3f
000000b0: 8992 c0be b33e 16bf 8e8b 9ebe 338f 93be
000000c0: f551 25bf 2a8c 513b 4d83 51be f2e5 6cbe
000000d0: 774f 1cbf 4fea dbbe 687d 023f eb87 b3bd
000000e0: 2d6d 75be c139 723d 8544 45bf c94d b53d
000000f0: 2207 6f3e 9d21 fdbe c5a9 5b3e da86 853e
00000100: 1f09 dabd 3e67 17bf cf24 193f 4856 393e
00000110: 28e4 2ebe fc38 18bf a0c1 0f3e dd92 0c3f
00000120: 5374 1b3d ff4e dfbe 733e 363f 364b 29bf
00000130: 3fa9 fabd 64a4 92bd de60 0dbf 73a5 023f
00000140: 37c3 ab3d 8eb7 233f 2523 3cbe 2b8b 203e
00000150: c89f aebe 0944 583e 51eb aabe b18c abbe
00000160: e6e7 b4be dbdf 66be 1fc3 1f3e 2031 6b3e
00000170: 9801 e2be f94d fcbc 376b 333f c49b cc3e
00000180: d669 093f 3bae 53be 4168 df3e 54e2 bcbd
00000190: e0ef babe f22e fe3e 2d1e c6bd 12e1 a73e
000001a0: e1a9 3a3f f295 1abf 61e8 de3d 9910 733e
000001b0: 25d7 1d3f 7abd 293f ad06 123f 6c68 6e3e
000001c0: 2294 bc3e 9a1c 1c3e 048a 893d 7b84 1c3f
000001d0: 5f6c 0fbd d077 043e 5005 26bf 8b13 cbbe
000001e0: badc fbbc 31ef cb3e 2d44 dc3e f9b4 0e3d
000001f0: bf76 67bb feed 3ebd 20dc 5c3d 6c5c 0abf
00000200: 8a52 42bd 421a ff3e 216d 873d 1820 7f3d
00000210: 3c31 713f bc25 91be 6fe6 c2bd 5fab d8be
00000220: 2634 a03d c48b a13d 9ae6 41be 81a7 943e
00000230: 886f 893d c2df 7abd 35fb 023d 4a07 8c3d
00000240: ab9a 623e 198d 5cbf e799 cfbe 1ac8 6cbd
00000250: 67b8 7dbe fdf3 edbe cbd7 eabe ad3c e53c
00000260: bc10 563d 641c bfbe 0984 b8bd a98e 263f
00000270: 8940 073f 07d7 85be d408 213d b9a2 14bf
00000280: 5382 57bb e431 f6be 4fa2 c9be 4eb9 8f3e
00000290: d2f7 0a3f db3c a43d 7d21 1abf 6d6d a03e
000002a0: d462 253c 896a e8be 76c9 17bf db73 24bf
000002b0: bb9f 33bf b75f 303f 6fc9 96be 052c 23bf
000002c0: 30f4 cc3d 6d07 cdbe d36c cf3e d9a6 a83e
000002d0: 3cef 94bd 9527 153f 020c 9dbe 8991 8e3e
000002e0: acae c0bd cb9d 973e e9af 8f3d 1474 20be
000002f0: f66b dabe 003f 853e 2577 fa3d d816 763e
00000300: f376 2b3e d3c3 3b3d 28c0 25be ea7a e23e
00000310: a33a 553d 3cab 373f a53b b3be d759 d2be
00000320: fc14 c7be 5e2d d3be ae34 35be f278 153e
00000330: bf42 9dbe 4323 8e3d 7d30 1f3d c32f 24be
00000340: c20a 9dbe a83f e2be 272d 12bf aa1c f93d
00000350: 3d0b ca3c ef46 3a3e ffd3 123f d548 c9bd
00000360: b12c 683e fb3d 523e c5b8 f0bd 5999 28bf
00000370: badd 333f 5776 f0be f9f4 0dbf 1346 4ebe
00000380: e455 c9be 370e 08bd 83a7 17bf c8af 533d
00000390: 5355 94be 8c5a 85be 586c da3e 8a1e 1cbe
000003a0: 86fd 5dbf 81ed 363f 61cc 85be 1e60 9d3d
000003b0: e889 80bf b975 ebbe 2f8c 35bd ce33 2a3e
000003c0: b213 d9be df94 20bf 1ccc febd 91f7 41be
000003d0: 1dc4 913e 1370 363e d530 543f a2bf 5d3a
000003e0: 2124 d23d d4f8 43be 1abf 3fbf d8aa eebe
000003f0: 37b0 d63d 2f9b 0cbe 30fd a63d e68a 5d3e
-0.7343058 -0.24463524 -0.05919239 0.16299324 -0.22875243 0.12586913 0.17069203 0.7032123
0.23131491 -0.07213494 -0.10732537 -0.5229725 -0.051151644 -0.052059673 -0.88346875 0.16568229
0.2176067 0.44095966 0.07053614 0.32504487 0.42925614 0.30291334 -0.12280117 -0.562213
-0.19529818 0.24575697 0.014815592 -0.63113254 -0.075515054 0.41708294 -0.16466787 0.09504023
0.42660585 0.09658226 -0.21122667 -0.0044566994 -0.06970605 0.09888652 0.34120914 -0.9242298
0.35278457 -0.10407788 -0.2764041 1.082806 -0.37611797 -0.5868942 -0.30965847 -0.2882019
-0.6457818 0.0031974413 -0.20460244 -0.23134592 -0.61058754 -0.429522 0.50972605 -0.08766159
-0.23967429 0.05913711 -0.7705768 0.08852727 0.23342565 -0.49439707 0.2145148 0.26079446
-0.10646271 -0.5914191 0.5982179 0.1809932 -0.17079222 -0.5946195 0.14038706 0.54911596
0.037952732 -0.43614957 0.7118904 -0.6613039 -0.122393124 -0.07160261 -0.5522593 0.51033705
0.08386844 0.6395196 -0.18372782 0.15678088 -0.34106278 0.21119703 -0.33382657 -0.33505777
-0.35333174 -0.22546332 0.15601777 0.22967958 -0.4414184 -0.030798899 0.7008547 0.3996259
0.5367712 -0.20671932 0.43634227 -0.09222856 -0.36511135 0.4964519 -0.09673724 0.32788903
0.72915465 -0.6038505 0.108841665 0.237368 0.6165641 0.66304743 0.57041436 0.23282021
0.36831766 0.15245286 0.067157775 0.6113965 -0.03501546 0.1293633 -0.64851856 -0.39663348
-0.030744899 0.39830926 0.43020764 0.034840558 -0.003531858 -0.046613686 0.053920865 -0.54047275
-0.047441997 0.4982472 0.066126116 0.062286466 0.9421575 -0.28349102 -0.09516608 -0.42318246
0.078224465 0.07887986 -0.18935624 0.29034045 0.06710726 -0.06124855 0.03197785 0.06837328
0.22129314 -0.861528 -0.40547106 -0.05780802 -0.24777375 -0.4647521 -0.45867762 0.027983034
0.052262053 -0.37326348 -0.09009559 0.6506143 0.5283285 -0.26140615 0.03931506 -0.58060795
-0.0032884076 -0.4808494 -0.39381644 0.28071064 0.54284394 0.0801942 -0.6020735 0.31333485
0.010094363 -0.4539378 -0.5929178 -0.6423928 -0.70165604 0.6889605 -0.29450557 -0.63739043
0.100075126 -0.40044728 0.40512714 0.32939795 -0.07272193 0.5826352 -0.30673224 0.2784541
-0.09408316 0.29612574 0.07015974 -0.1566928 -0.42660493 0.26024628 0.12229756 0.24032152
0.16744594 0.04584105 -0.16186583 0.442344 0.052057873 0.7174566 -0.35006443 -0.41084167
-0.38883197 -0.4124555 -0.17695877 0.14596918 -0.30714986 0.069403194 0.0388646 -0.16033845
-0.3067227 -0.4418919 -0.57100147 0.1216367 0.024663562 0.18191122 0.5735473 -0.09828345
0.22673298 0.20531456 -0.11753992 -0.6585899 0.702602 -0.46965286 -0.55451924 -0.20143919
-0.39323342 -0.03321668 -0.5923998 0.05168131 -0.28971347 -0.26045644 0.42660785 -0.15246025
-0.8671497 0.7145615 -0.2613249 0.076843485 -1.0042086 -0.45988253 -0.044323143 0.16621324
-0.4239784 -0.6272716 -0.124412745 -0.18942095 0.28469935 0.1781619 0.8288701 0.00084590365
0.10260797 -0.19137889 -0.7490097 -0.46614718 0.10482829 -0.13731073 0.081537604 0.21635017

fc.bias f4 [3]
00000000: bd7f f93c ce8b c03d e551 37bd
0.030456418 0.09401666 -0.044755835
