model_gru/best_model.pth (torch, 800434 bytes, 6 tensors)

gru.weight_ih_l0 f4 [768, 1]
000000 14 bd 95 bd 78 75 16 3e 8e ce 0c bd 20 4c a6 3c
       -0.073114544 0.14693248 -0.034376673 0.020299971
000010 ec f6 f1 3c ae 28 9f 3d 6e fd 49 3c b8 89 a5 3d
       0.029536687 0.07771431 0.012328489 0.080829084
000020 1c 5a 23 bc 56 86 90 3c 62 9e ad 3d 50 9b 13 bd
       -0.009970214 0.017642181 0.08477475 -0.03603679
000030 7f f0 d8 3d 5b 18 c1 3d 49 27 72 bc 71 ff 8a bd
       0.10592746 0.094284736 -0.014779874 -0.06787003
000040 ec 7b 19 bc b1 ac 02 be fa ad d1 3b 18 8b 1b be
       -0.009367924 -0.12761189 0.0063989135 -0.15189779
000050 f8 9d 18 3d e2 6f fe bc ab e1 48 3d 6b 9c 06 bd
       0.037260026 -0.03105921 0.04904334 -0.032864016
000060 d8 4d 8a 3d 4e 2a 88 bd be 93 4c ba b1 0a b1 bd
       0.06753129 -0.06648694 -0.0007803998 -0.08644617
000070 75 b7 4b bd 09 e2 b1 bc 5a 90 97 3c 50 b1 88 bd
       -0.049735505 -0.021714227 0.01850145 -0.06674445
000080 8d 72 98 3c 8f a5 94 bd a8 88 bd bd d8 78 33 3d
       0.01860931 -0.0725814 -0.09254581 0.043816417
000090 1a 40 51 3d b1 ea c2 bc 07 e9 91 3c 1f 83 f8 3d
       0.051086523 -0.02379355 0.017811311 0.12134384
0000a0 69 aa 5a 3d b9 02 6b bd 8c 65 2a be cc 74 96 bb
       0.053385172 -0.057375643 -0.166403 -0.00459156
0000b0 40 cb 2a 3d ad e1 9e 3d 18 27 6f bd 1c 81 d1 bb
       0.04169774 0.07757888 -0.058386892 -0.006393565
0000c0 b1 9d 98 bc de c7 7e 3d c2 cd 81 3d 03 8c 6a bd
       -0.01862988 0.062202327 0.06338073 -0.05726243
0000d0 53 9d 6a bd 85 11 28 bd 13 5a ba 3c 03 e5 43 bc
       -0.057278942 -0.041032333 0.022748029 -0.011956456
0000e0 aa c0 ed 3d 8a 9b 27 3c 87 8c cb 3d 81 fd 2e 3d
       0.116090134 0.0102299545 0.09938913 0.04272223
0000f0 a3 3b ab bd 45 2d 06 3e c1 d7 af bd f1 46 93 3a
       -0.08360984 0.13103206 -0.08586074 0.0011236352
000100 9e 0a e5 bd 47 f1 51 bd 66 25 d6 3c 22 90 7a 3d
       -0.11183666 -0.05125549 0.02614088 0.061172612
000110 43 e9 50 3e 73 15 14 bd 3c 13 36 3e ad 67 fe bc
       0.20401482 -0.036153268 0.17780775 -0.031055296
000120 84 7a 3c 3d 41 f9 01 be 54 c1 55 3d 13 92 10 be
       0.046015278 -0.12692739 0.052186325 -0.14118223
000130 c4 5b 6d bd 22 e0 ae bc cc 9e 94 3d e7 f8 5f bd
       -0.057948843 -0.02134711 0.072568506 -0.05468073
000140 2f 5d 2f bd cb 3d 21 3c 64 1d 62 3d 30 5b 16 3d
       -0.042813476 0.009841393 0.05520381 0.036708057
000150 41 69 f5 38 77 65 b6 3c 80 7d b8 bd 88 dd e6 bd
       0.000117021154 0.02226518 -0.09008312 -0.112727225
000160 c6 ff 04 3e 3e 93 1e bb c4 41 19 3d b5 a0 15 3e
       0.12988195 -0.002419665 0.037416235 0.14612086
000170 28 52 1d 3e a2 48 b5 3c 7d fd 1b be 0f 8c dd 3d
       0.15363371 0.02212936 -0.15233417 0.1081773
000180 47 19 d7 3c fd e6 a2 bd ef 45 34 bd 9c 38 20 be
       0.02625717 -0.07954214 -0.044012006 -0.15646595
000190 0d 72 02 be 90 a4 29 bd 8c 15 c3 bd 2c e6 aa bd
       -0.1273882 -0.041416705 -0.09525594 -0.08344683
0001a0 12 5f 13 3e 2d fa 57 bd bd 07 f9 3d cc 3b d3 3d
       0.14391735 -0.05272882 0.12159679 0.1031414
0001b0 0e 17 00 3e 59 3d 9a 3d 08 a6 98 bd 35 7e 83 bd
       0.12508795 0.075312324 -0.07453543 -0.064205565
0001c0 4a 49 52 bd df 87 ef 3c 30 ae ec 3c 84 8f 1e 3d
       -0.051339425 0.029239593 0.028891653 0.038711086
0001d0 ff 8b 02 3d e0 a6 6a 3d 30 1e 35 3d 76 e2 fa bd
       0.031871792 0.05728805 0.044218242 -0.12250225
0001e0 94 cf 1c bd a4 ea 3e 3c 88 c9 ab 3d 0c 95 b4 3d
       -0.0382839 0.011652622 0.083880484 0.08817491
0001f0 27 8c 8b bd 34 4c 2b be 7a d2 24 3b 0f 14 62 3d
       -0.06813841 -0.16728288 0.0025149868 0.05519491
000200 32 c4 3d bd ff b9 0f 3e 39 9c fa bd 7f 74 89 3d
       -0.046329685 0.14035796 -0.12236828 0.06711673
000210 e5 f4 54 3e 5a 9f 00 3d d3 8a d5 bc cf 8f 2b 3d
       0.20796545 0.03140197 -0.026067173 0.041885193
000220 42 66 9b bc 39 ce 4e 3d 3a d9 c7 3c 44 b0 bd 3c
       -0.018969659 0.050489638 0.024395574 0.023155339
000230 af 44 4d bc ac bb 80 3d 9c 0b 4a 3d 59 f6 24 bd
       -0.0125285825 0.062857956 0.049327478 -0.040273998
000240 c7 63 3a 3d dc 4c 29 bd c2 55 20 bd d9 04 83 bd
       0.04550531 -0.041333064 -0.039144285 -0.06397409
000250 48 d3 2d 3d 70 e0 ee 3d a2 98 63 3d fb 9d 17 be
       0.04243782 0.11663902 0.055565484 -0.14806359
000260 07 61 e8 3c f6 1c 27 3d aa c2 f3 bd 43 6c 09 bd
       0.028366579 0.040799104 -0.119023636 -0.033550512
000270 23 85 35 3e ab c7 83 bd f1 91 c7 bc ae 6c ba bd
       0.17726569 -0.06434568 -0.024361582 -0.0910276
000280 bb b0 eb bd a8 f2 2a be b4 19 8a bc 92 d8 80 3d
       -0.11508318 -0.16694129 -0.01685796 0.062913075
000290 56 5e cc bd e0 e2 e4 bd 4d 5f cb 3d 03 1e 54 bd
       -0.09978931 -0.111760855 0.099302866 -0.051786434
0002a0 23 66 a3 bd 04 f5 65 bd 82 8e a6 3d e3 b8 82 3d
       -0.079784654 -0.05614187 0.0813265 0.063829206
0002b0 22 75 83 bc 9c 23 d9 3d 5e 46 72 3d 78 b8 ed bc
       -0.016047064 0.10602495 0.05914914 -0.029018626
0002c0 4e cc c8 bd e4 53 27 3d 57 fb 04 3b 25 56 ac 3d
       -0.09804593 0.04085149 0.0020291412 0.08414868
0002d0 8a a7 5f bd 22 57 2a 3d 6f 1c 99 bd 35 c3 c4 3c
       -0.054603137 0.041587003 -0.074761264 0.024018863
0002e0 8b 5c 0d bd 0f 96 05 3e 6d 95 6c 3c f0 33 f5 bc
       -0.034512084 0.13045524 0.014439923 -0.029931992
0002f0 69 a1 82 3c 67 8a 35 3e 51 ec 7a 3d 6a 07 2b 3d
       0.015946107 0.17728578 0.061260525 0.041755117
000300 42 25 78 3c c3 a4 e8 bd 9e 2a b2 bc 8d 10 4b bc
       0.015145602 -0.11359551 -0.021748837 -0.012394083
000310 57 96 b9 bd 43 2b df bd 17 60 c3 3d 42 d3 ba 3d
       -0.09061878 -0.108969234 0.09539812 0.091223255
000320 ec d3 bc bc 4f f7 40 3e 21 9e 18 3d 7a ac b1 bd
       -0.023050271 0.1884434 0.03726018 -0.086754754
000330 48 6d af 3d 4b 65 eb bc a4 25 ba bc 5f d8 64 bd
       0.085657656 -0.028734824 -0.022723027 -0.05587041
000340 5c b4 1d 3d 72 20 73 3c 14 60 1d 3d 9a 8c e9 bc
       0.038502082 0.0148392785 0.038421705 -0.028509427
000350 06 ea 53 3c 0c 05 ff bc 5d 49 38 be 54 3b ca 3c
       0.0129342135 -0.031130336 -0.17996736 0.024686493
000360 a4 4d 71 bc 0b a4 1c 3e 68 d7 28 be 74 a3 0a 3d
       -0.014727984 0.15296952 -0.16488421 0.033847287
000370 3a 5a c7 bd 36 d7 65 bd 84 6e d0 bc 8b 51 d0 3d
       -0.09734006 -0.056113444 -0.025443323 0.10171803
000380 85 95 e9 bb 7e dc 22 bd cc 78 b4 3c a3 cd 58 3d
       -0.00712842 -0.03976106 0.022030257 0.052930485
000390 58 19 85 3d 3d 7b 8f 3d 38 48 07 3d 29 d1 82 bd
       0.064989746 0.07005928 0.033027858 -0.063875504
0003a0 2c 7b 2f be 2a dd 5c 3d a5 1c 2f 3e 5b 48 3b 3d
       -0.1713683 0.053921856 0.17100771 0.0457233
0003b0 1f a1 19 bd 09 2f f3 bc 17 53 0a 3d 7a 98 14 3e
       -0.037507173 -0.029685514 0.033770647 0.1451129
0003c0 f8 b5 ae 3c 9e 77 0d 3e 9b 8f de bd a0 2b 56 bc
       0.021327004 0.13815162 -0.10867234 -0.013071924
0003d0 84 ad fb 3d 88 36 32 bd 61 49 60 3d 0e bb a7 bc
       0.12288955 -0.043509036 0.05475748 -0.020474937
0003e0 c5 d5 5b be 14 19 8d bc fd 2d fb 3d d3 5a 7b bd
       -0.21468265 -0.017223872 0.12264631 -0.061365914
0003f0 51 68 b9 3c a5 91 91 3c c9 3b 2c bd 04 0a 4c 3d
       0.02263275 0.017769644 -0.042049203 0.04981424

gru.weight_hh_l0 f4 [768, 256]
000000 0b e6 0c bd f2 da 94 3d ba 9b 68 3c 30 57 a0 3c
       -0.034399074 0.07268323 0.014197284 0.019572824
000010 08 c9 9f 3c 28 7e 4a bc 91 2d 26 3d dc bf b1 3c
       0.019505039 -0.01235918 0.0405708 0.021697931
000020 0e 8f 21 3b 4f f2 9e 3d db c9 d0 bd 57 74 55 3d
       0.0024651918 0.077610604 -0.10194751 0.052112903
000030 c0 0f cc bc d9 ac 9b 3b ee 3d 3e bc da d1 e5 3c
       -0.024909854 0.0047508297 -0.011611445 0.028054167
000040 69 e3 e4 bc 6f 90 ea bc 7e 2f 08 bd 41 73 1f 3d
       -0.027940469 -0.028633324 -0.033248417 0.038928274
000050 b9 9e e6 3c bb b2 89 bc 9e b5 f7 3c e9 63 52 b8
       0.028151857 -0.016808858 0.030237969 -5.016095e-05
000060 b5 e8 0b bd 4f 7d 09 3d a4 f3 98 bd 9c e7 1e ba
       -0.034157474 0.03356677 -0.07468346 -0.0006061734
000070 05 24 66 3d ad a9 54 3d 33 57 e4 bb 0e 61 ec 3c
       0.056186695 0.051919628 -0.006968403 0.028854873
000080 f8 26 81 3c f6 ba 76 3d 28 0a 6c bd f9 38 a4 bc
       0.015765652 0.060236894 -0.057626873 -0.020046698
000090 30 0d 34 bd e4 f4 59 3d e3 9d fd b8 0f b9 4a 3d
       -0.04395789 0.05321206 -0.00012093389 0.049492892
0000a0 0b 2f bd 3d e1 ac 00 3d 57 1f 67 bc cf 9c 20 3d
       0.09237488 0.03141487 -0.014106593 0.039212044
0000b0 b9 9a bd 3c 53 fa de bc b7 30 8a bd b4 20 dd bc
       0.023145067 -0.027218973 -0.06747573 -0.026993133
0000c0 e0 45 ef bc 7d 73 e8 bc bf c6 2c bd 33 02 df bd
       -0.029208124 -0.028375382 -0.042181727 -0.10889091
0000d0 73 bb 5a 3d fd 23 32 3d 4f 4a 69 bb a5 b2 57 bd
       0.05340142 0.043491352 -0.003559727 -0.052660603
0000e0 b2 34 7d bd 13 4b 84 bd 7b 39 d0 bc c6 30 4d bd
       -0.061817832 -0.06459632 -0.025418034 -0.050095342
0000f0 0c 83 0c 3b 63 65 68 bd 25 91 62 bd 37 81 31 3d
       0.0021440415 -0.056737315 -0.0553142 0.04333612
000100 9d 4a 59 bc 1f b5 97 3c f3 d9 00 bd 66 6d 75 bd
       -0.013262418 0.018518982 -0.031457853 -0.059918784
000110 10 17 5d 3d 05 f4 cd 3c c8 4a 00 3d ca 13 88 3b
       0.053977072 0.025140772 0.031321317 0.0041527497
000120 49 99 04 bc 9c 65 80 bd 58 8f 92 3d 79 ce 0e bd
       -0.008093187 -0.062693805 0.07156247 -0.034864876
000130 7e f8 0c bd 44 3f 41 3d 64 94 b0 bc 50 96 87 3d
       -0.034416668 0.047179475 -0.021555133 0.06620467
000140 79 d3 01 bc 38 8a 7c bc b2 57 d4 3d 54 16 13 3d
       -0.007923954 -0.015413813 0.10368289 0.035909966
000150 82 13 76 3d 31 68 71 3d 3c 9f 8f 3d 13 86 d7 3c
       0.060077198 0.058937255 0.070127934 0.026309049
000160 9e e5 1c 3c bc 1e cb 3c fd 2f 84 bc 2d e0 01 bd
       0.009576229 0.024794929 -0.016136164 -0.03170793
000170 a5 76 ec 3c b4 fa 2a 3c 91 9d 4b 3d 86 b7 07 bd
       0.028865168 0.010435749 0.049710814 -0.033134006
000180 88 f9 ea bc 60 a9 da bc 1d 38 31 ba b4 98 dd bc
       -0.028683439 -0.026692092 -0.00067603757 -0.027050354
000190 2e 9b 19 bc bc 86 b0 3c 2d 4a 5d 3d 2b 73 29 3c
       -0.009375377 0.021548621 0.054025818 0.0103424
0001a0 1d 61 c1 bc 82 bc 93 bd 91 1d 5c 3b 9b f3 6b bd
       -0.023605878 -0.072136894 0.003358696 -0.057605367
0001b0 4b 72 8f 3d 45 73 93 3d b2 e8 80 3d d3 b7 62 3d
       0.070042215 0.0719972 0.06294383 0.05535109
0001c0 f8 2e d0 bc f8 2f 0b 3d 19 1f 4d bd 74 e8 e3 3c
       -0.025413021 0.033981293 -0.050078485 0.027820803
0001d0 97 02 c3 bc e6 63 7f 39 c0 ba b0 bd 8e 79 85 3b
       -0.023804946 0.0002435591 -0.0862937 0.0040733283
0001e0 f6 18 9c 3d 94 14 87 bd 36 c8 1a bd 00 c8 05 bd
       0.076219484 -0.06595722 -0.037788592 -0.032661438
0001f0 13 c1 f3 bc c5 12 5f 3d 8b e2 00 3d ed cb ab 3c
       -0.02975515 0.05446126 0.03146605 0.020971263
000200 80 e2 90 bd 2a 49 8a bd b1 ae a1 bc 9c d3 e0 bc
       -0.070744514 -0.06752236 -0.01973662 -0.027444653
000210 5a 5b a7 bd 13 92 3d 3d 04 67 cb 3c a3 b2 44 3d
       -0.08171721 0.046281885 0.024829395 0.048021924
000220 3e 7b 0b 3d b6 37 f6 3b dc 5c 54 3d 9a 18 b3 3c
       0.03405308 0.0075139655 0.05184637 0.021862317
000230 d7 25 19 bd 20 ff d9 bc 05 08 aa 3d c1 85 83 bd
       -0.037389603 -0.02661091 0.08302311 -0.06421996
000240 4e 91 05 3d f6 3e 55 bd a4 72 fe bc 06 e3 14 3c
       0.032609276 -0.052061997 -0.031060524 0.00908733
000250 36 84 8b bd 58 b0 89 bd ab 36 9c bc 2c 73 a3 3d
       -0.068123266 -0.06723088 -0.019069036 0.07980952
000260 b1 8e 08 3d 37 0d 03 bd c1 d3 cc ba e2 8d 5c 3d
       0.033339206 -0.031995025 -0.0015627072 0.053846247
000270 1d 29 8e 3d 00 86 b5 bc 29 9e 56 3d 7b 3e 21 bd
       0.069414355 -0.022158623 0.052396927 -0.039366227
000280 67 e8 52 3c 5c 6d 1b 3d 14 3d 04 3d cb 5c 71 3d
       0.012872792 0.03794609 0.03228481 0.058926385
000290 46 5c fe bc 99 8b b1 bc 94 23 0a 3c 72 ec 7f 3d
       -0.031049859 -0.02167301 0.008431334 0.06248135
0002a0 54 e4 89 3d f6 a7 54 3d 64 92 af bd b0 26 89 bd
       0.06733003 0.051917993 -0.08572844 -0.06696832
0002b0 e4 dd 5b bc d9 3b 4f 3d 4a 78 fc 3c 30 e0 8c 3b
       -0.013419602 0.050594185 0.030819077 0.004299186
0002c0 5e 24 85 bd 13 8c 84 3b 17 63 79 3d 15 96 20 bd
       -0.06501077 0.0040450185 0.060885515 -0.03920563
0002d0 92 b5 a6 bc d3 7b 5b 3c fd d9 a3 3d 0a 78 4d 3c
       -0.020350251 0.013396221 0.08000562 0.012540827
0002e0 e7 27 01 bd d4 f1 14 3d 02 e7 63 bc 79 ef 44 bd
       -0.031532194 0.036363438 -0.013910057 -0.04807994
0002f0 6f ca 81 3d a3 e4 29 3d 09 67 59 3c 8d 5d b7 3d
       0.06337439 0.04147781 0.013269194 0.0895339
000300 57 a2 50 3c 1a 98 48 bd 2c 04 07 3d 38 78 66 3d
       0.012734017 -0.04897318 0.032962963 0.056266993
000310 dc c9 a3 bd 6f be c4 3c df 04 b9 3b 66 26 4b 3d
       -0.07997486 0.024016587 0.0056463326 0.049597166
000320 38 76 4a bd 7f f8 2d bc 88 ac 80 3c 2a 88 8b 3d
       -0.04942915 -0.010618328 0.01570727 0.068130806
000330 0d 48 52 bd 96 51 4c 3b 4f 5d 8d 3d eb 5f 4b bc
       -0.051338244 0.0031176559 0.06902563 -0.012413005
000340 1b 7b 52 3d 92 07 d4 3d aa 42 12 3d 41 5c 2a 3d
       0.051386934 0.103530064 0.035708107 0.041591886
000350 32 d0 80 3d a7 81 a2 3c 36 06 da bc 7b e4 11 bc
       0.0628971 0.019837214 -0.02661429 -0.008904572
000360 6c d6 a0 3d 96 a3 67 bd 89 f5 72 3d a4 e1 d8 bc
       0.07853398 -0.056552492 0.05931619 -0.026474781
000370 c3 f5 44 bc 44 a7 ad bc e8 d5 bb bc 02 87 d9 3c
       -0.012021485 -0.021197923 -0.022929147 0.026553635
000380 29 a5 9c bd 48 ad 4d bd 7a 74 4f 3c 56 14 1e 3d
       -0.07648689 -0.050214082 0.0126620475 0.038593613
000390 56 91 e8 3c ab 7e 93 bd a6 78 35 bc 11 03 67 bd
       0.028389614 -0.072018944 -0.011076128 -0.05639941
0003a0 e5 21 27 bc d0 ba 6a 3d 6a 9e 3f 3c 79 73 28 3d
       -0.010200952 0.057307065 0.011695484 0.04112575
0003b0 bc c2 a3 3c 57 69 ff 3b f5 8b ef 3c fa 2a 01 bd
       0.019990318 0.00779454 0.029241541 -0.031535126
0003c0 53 a6 f3 bd d7 ba 96 bd d2 17 17 ba 6a 89 4b 3c
       -0.11896958 -0.073598556 -0.00057637424 0.012422899
0003d0 da f7 89 3c 56 3e 69 bd 30 d9 01 bd 23 6e ad 3c
       0.016841818 -0.056944214 -0.031701267 0.021170681
0003e0 83 bf 03 3d ae f6 c2 ba 5a 8d 3f bd d1 c9 e4 bc
       0.03216506 -0.0014874542 -0.046765663 -0.027928265
0003f0 47 d0 b6 3d 6c 2f c2 3d c8 b0 ef 3c 62 60 67 3c
       0.089264445 0.09481701 0.0292591 0.014122101

gru.bias_ih_l0 f4 [768]
000000 05 a9 a6 3d ee 93 b9 3d 7f 30 a6 3b bd cf c4 3d
       0.08137707 0.090614185 0.005071699 0.096099354
000010 8d 1a 0e 3d 82 f1 86 3d bb 7f 14 bd 0e a8 34 3d
       0.03469329 0.06589033 -0.036254626 0.044105582
000020 8d fc df 3d 03 ca fb bc 82 14 39 bc 06 90 8c bb
       0.10936842 -0.030735975 -0.011296393 -0.00428963
000030 2a aa ae 3c b0 96 13 3d c1 7d bc 3c 9b 49 93 3d
       0.021321375 0.03603238 0.023009183 0.071917735
000040 8e 3c d1 3c 8a cd 98 bd 2d 29 0d bd 55 3a bb 3d
       0.02554157 -0.074610785 -0.034463096 0.09141985
000050 dc 77 b4 3d 2f 30 7d 3d e1 36 1e 3d b2 6c 01 3b
       0.08811924 0.06181353 0.038626555 0.0019748625
000060 91 46 29 3e 51 5a 14 3d e9 cd bd bc d0 19 96 3c
       0.16530825 0.036218945 -0.023169475 0.018322855
000070 5f fb 1b 3d 2f 63 0f bd b1 fa 63 3b 11 c4 d1 bc
       0.038081523 -0.0350067 0.0034786875 -0.025606187
000080 b2 16 96 3d db ca a5 3d d8 49 8a bc 52 65 c4 3c
       0.073285475 0.08095332 -0.016880915 0.023974095
000090 39 d1 13 3d 34 b8 04 3d 1e 7d db 3c ef 8c b8 3c
       0.036088202 0.032402232 0.026793059 0.02252814
0000a0 70 c3 a4 bb c2 eb 8d 3d 3f 97 b4 3d ae 59 2c bd
       -0.005028181 0.06929733 0.088179104 -0.042077713
0000b0 c1 8a bc 3b d5 6f 56 3d e3 bb 16 bd 6b 3a b8 3c
       0.0057538454 0.052352745 -0.036800276 0.022488793
0000c0 81 dc 54 bd 81 e1 a5 3d 9f b1 8d bc c4 5d ad bc
       -0.0519681 0.08099652 -0.01729661 -0.021162875
0000d0 d3 c0 be 3d 2b b5 a9 bd 90 d4 a6 bc c7 36 33 3d
       0.09314122 -0.08286508 -0.02036503 0.04375341
0000e0 1a db 89 3d 6b c7 83 3d 32 ad 7b bd 67 0b 75 3b
       0.067312434 0.0643452 -0.06144447 0.003739083
0000f0 31 31 b4 3d 15 63 25 bc 58 cc 82 3d c2 99 1b 3d
       0.08798445 -0.010094424 0.06386632 0.03798843
000100 e9 9b 3d bc 26 bf 6b 3d 99 96 ce bd a1 f5 b8 3b
       -0.011572816 0.05755534 -0.10087318 0.0056445156
000110 aa 19 57 bd 82 4f 1b 3d cc 29 fc bc ae 9d 9d 3d
       -0.05251471 0.03791762 -0.030781649 0.07696091
000120 7c 58 ef bb 68 cd 64 bd 38 95 03 3d ca 13 0c 3d
       -0.0073042493 -0.055859953 0.032124728 0.03419856
000130 e4 c7 d5 bc 19 40 bc bc 07 a9 af 3b c9 e2 94 3b
       -0.026096292 -0.022979783 0.005360726 0.0045436365
000140 51 5e f9 3c 8e 2d c7 bc c7 73 dc bd 82 dc 16 3d
       0.030440481 -0.024313714 -0.1076427 0.036831386
000150 c8 92 0f 3e 5e b5 12 3c d2 53 09 3d dd 5d 27 3d
       0.14020836 0.008954374 0.033527203 0.040861
000160 c5 1a 20 bd 48 0c 0f 3e af 99 5b bd 7d 77 8b bc
       -0.03908803 0.13969529 -0.05361336 -0.01702475
000170 b5 aa c1 3c 54 d9 46 3d 59 10 28 3d 19 8f 6d 3d
       0.02364097 0.048547104 0.041031215 0.057997797
000180 90 40 a6 3d 78 6d 1c bc 91 d6 99 3d 0c a8 14 b9
       0.08117783 -0.009547584 0.075116284 -0.00014176982
000190 43 4c 69 bd 79 f2 9b 3d f7 fb 30 3d bc 7f db 3b
       -0.056957494 0.07614607 0.043209042 0.0066985767
0001a0 e0 3c 5e bc dc 7f b9 3d 68 48 85 3d 68 f0 80 3d
       -0.013564318 0.0905759 0.06507951 0.06295854
0001b0 16 f2 88 bb e0 8a 70 bc 5c 60 c6 3c ca c2 f7 3d
       -0.0041792495 -0.014681548 0.02421587 0.120977
0001c0 a2 82 d3 bb d0 b7 06 3d 7f 71 30 3d 0d 1e 8a 3d
       -0.0064547816 0.03289014 0.04307699 0.06744013
0001d0 00 94 e1 3d c3 4d ba 3c d1 12 61 bd 54 07 ee 3c
       0.11014557 0.022742158 -0.054949585 0.029056229
0001e0 bb 66 97 bc b9 c3 ea bc bc 87 62 3c 3e aa c4 3d
       -0.018481603 -0.028657781 0.013826307 0.096027836
0001f0 42 32 4f 3d 34 8a 4d 3d 54 cf 87 3d 45 7d 05 3d
       0.05058504 0.05018063 0.066313416 0.03259017
000200 bc 42 7d 3c e8 fb ef bc 58 40 00 3d f2 3c 92 bd
       0.015457805 -0.029294923 0.031311363 -0.07140531
000210 9d f3 95 bc 24 af 22 3d fe d1 5d 3d 8c ce 0a 3d
       -0.01830464 0.03971781 0.054155342 0.033888385
000220 52 19 d8 bb 37 15 8e bc 75 91 a6 bc 89 4d f8 b9
       -0.0065948153 -0.0173441 -0.020333031 -0.00047360014
000230 e6 0e 9b bd ba 9d 2d bd e4 e1 09 bd 16 08 c6 3a
       -0.07571201 -0.042386748 -0.03366269 0.0015108611
000240 94 0c e6 bc c0 0c 36 3b b5 26 af 3d 6f 46 be bb
       -0.02808217 0.0027778596 0.08552305 -0.005806736
000250 93 41 23 bd a0 ec 38 bd fc 6a e1 3c 7d 46 d6 bb
       -0.03985746 -0.04514754 0.027516834 -0.0065391646
000260 b5 94 11 3e d3 2d 13 3d 5a 70 97 bd 0d c4 90 3d
       0.14216883 0.035932373 -0.07394476 0.07068644
000270 82 2f 7f bd 74 75 d0 3d c7 9b 45 3d d2 e3 62 3d
       -0.062301166 0.101786524 0.048244264 0.055393048
000280 b3 3c 90 3d 4b 21 98 3d d3 e7 27 3d 0a 52 1b 3d
       0.070428275 0.07428225 0.04099257 0.037920035
000290 f7 bb 9b bc 36 35 84 bd 56 88 12 3c c7 f7 87 3d
       -0.019010527 -0.06455462 0.008943638 0.06639057
0002a0 c3 eb 42 3b 7d 4d 49 3c 41 75 80 3d d4 88 ce 3a
       0.0029742576 0.012286541 0.062723644 0.0015757331
0002b0 35 74 8f bc 5a 1e e2 bc cb cd a8 3c c8 24 90 3b
       -0.017511467 -0.027602363 0.020605942 0.004398916
0002c0 8c bf b3 3c de b6 29 3c ec 8e db bc e8 ee b0 bb
       0.021941923 0.01035854 -0.026801549 -0.0053995736
0002d0 57 f5 da 3c 4f 73 31 3d 8e 0c 82 3d b3 fe 06 bd
       0.026728315 0.043322857 0.06350051 -0.032957744
0002e0 1d 70 fd 3d ac 1f 46 3d b2 6f 43 3c 08 b2 a0 3d
       0.123748995 0.04837005 0.011928486 0.07846457
0002f0 2f a7 0e 3d 06 d1 84 bd 4e 43 08 bd 0c 9c 80 bd
       0.034827407 -0.064851806 -0.03326731 -0.062797636
000300 45 e4 f4 3c 39 30 a5 bc 6a c9 1c 3c ae 40 d8 3d
       0.029894004 -0.020164596 0.009569505 0.10559212
000310 cb ab ac 3b c6 b0 a4 bb 2d bb 10 bd 24 df b0 3c
       0.0052695028 -0.005025956 -0.035334755 0.021590777
000320 7e 1b 94 3d 3d 34 0f 3d a0 d9 29 3c 69 c3 a8 bc
       0.07231806 0.034961928 0.010366827 -0.020600991
000330 2a 2f 24 bd e6 06 08 bc 15 e4 7d bd 59 32 99 3b
       -0.04008404 -0.008302426 -0.061985094 0.0046751914
000340 69 3f 2b 3d 4b 94 4b 3c 8f 18 98 3c b7 b5 ab 3c
       0.04180852 0.0124254925 0.018566398 0.020960672
000350 0f d8 22 bd 50 15 84 bd af 6a 04 bd b2 05 cc bc
       -0.03975683 -0.064493775 -0.032328304 -0.02490506
000360 1b 78 34 bd f3 07 a5 bb 29 51 94 3d 01 c7 a5 3c
       -0.044059854 -0.005036348 0.072420426 0.020236494
000370 40 41 19 3d 8e e5 a6 3d e4 de 09 bc b1 91 0d bd
       0.037415743 0.08149253 -0.008414958 -0.03456277
000380 00 b1 aa 3d eb b0 91 bb b6 cb c2 3d 0a cc 15 3d
       0.08334541 -0.004446139 0.09511511 0.03657154
000390 5e 1e 20 3d 75 2b 74 bc 11 3c 28 3d 17 35 88 3d
       0.03909146 -0.014902939 0.04107291 0.06650751
0003a0 2d c3 c0 3c 15 34 85 3d 27 3b 96 bb b0 ff b6 3d
       0.023530567 0.065040745 -0.004584688 0.08935487
0003b0 eb b2 50 3a 3e e9 b4 3d e2 72 7b bd df a3 32 bd
       0.0007961231 0.0883355 -0.061388858 -0.04361331
0003c0 ce ee 1f bc ac 29 1a bd 6c ec fc 3c d0 05 7e 3c
       -0.009761525 -0.037637398 0.030874453 0.0155043155
0003d0 c6 8e 94 3d 10 a1 06 3d 8d f9 1a bd ea 78 d4 3c
       0.07253794 0.032868445 -0.037835646 0.025936563
0003e0 17 6a 10 3d 40 2a 5e bd dc eb 98 bd 3c 6b dd bc
       0.035257425 -0.05423951 -0.074668616 -0.027028672
0003f0 bd 4e 67 3d 6a 8e b6 3d fc e4 51 3c c4 05 70 3d
       0.056471575 0.08913882 0.012810942 0.05859925

gru.bias_hh_l0 f4 [768]
000000 f8 ee ee 3c 84 b7 da 3c 99 a6 cc bc cd d6 db 3d
       0.029166684 0.026698835 -0.024981784 0.107343294
000010 a2 ec 5a 3b 09 57 bc bc e9 d5 22 bc 8a 69 a5 3d
       0.0033405204 -0.02299072 -0.0099386955 0.080767706
000020 d5 bd 30 3e 65 e6 66 3d 33 05 1b bc 93 77 1a 3d
       0.17259915 0.056372065 -0.009461689 0.03771169
000030 ec eb 5b 3d 11 e2 92 3d 67 b4 08 3c 37 91 97 3d
       0.05369179 0.07172025 0.0083437925 0.074007444
000040 f4 1e d4 3d 1c 7f 62 bc 21 28 74 3d 37 41 e8 3c
       0.10357466 -0.013824251 0.059608582 0.02835141
000050 69 88 04 3e c9 36 06 bc 57 f0 53 3d 93 cc d0 3c
       0.12942661 -0.008191773 0.051742878 0.025488174
000060 e0 d1 f1 3d e7 04 83 3d bb 45 ac bd 04 b0 8b 3c
       0.118076086 0.063974194 -0.084117375 0.017051704
000070 20 16 6a bd f1 69 ef bc 60 85 ef 3b 14 70 15 bd
       -0.057150006 -0.029225321 0.0073096007 -0.03648384
000080 53 15 a6 3d 8b f3 e4 37 42 1f 27 3d 7a 4b 9f 3d
       0.08109536 2.7293127e-05 0.040801294 0.07778068
000090 bb 09 93 bc a0 5a e3 3d 95 43 6d 3d fc c3 37 3d
       -0.017948976 0.1110127 0.05792578 0.04486464
0000a0 90 57 d2 3c 6b 87 4d 3d 18 a8 2b 3d 9f 21 88 bd
       0.025676519 0.050177973 0.041908354 -0.06647038
0000b0 39 d9 4b 3c 84 e2 1d 3d b7 da 31 bd bd 2b 42 bd
       0.012441927 0.0385461 -0.043421473 -0.047404993
0000c0 93 16 6e bd 30 c3 df 3d 07 af ec 3b f6 9d c7 bc
       -0.058126997 0.10925901 0.0072230133 -0.024367314
0000d0 a3 e5 7e 3b 86 6e 83 bd 9a cd 38 bd 8f fd 80 3d
       0.0038894198 -0.06417565 -0.045117952 0.062983625
0000e0 9d 6f a4 3d 53 d0 29 3d 36 4e 0f bd f5 53 1e 3d
       0.08029101 0.04145844 -0.034986697 0.038654286
0000f0 0f 1b 73 3d d3 7b 5c bd 5d 5d be bb 34 22 6e 3d
       0.059351977 -0.053829025 -0.0058094696 0.058138087
000100 e7 a8 8a bc 34 50 6f 3d 11 d6 e6 bc 1a f9 37 bc
       -0.016926242 0.058426097 -0.028178247 -0.011228824
000110 7e 74 42 bd 03 f3 8b 3c 8c 46 55 3d cf 30 27 3d
       -0.047474377 0.01708365 0.052069232 0.040818032
000120 a9 5a f8 3b 30 03 07 3d 99 0a 89 bc f0 7a 0d 3c
       0.007579167 0.032962024 -0.016728686 0.008635268
000130 34 45 5c bd 43 d8 62 bd a2 ee 8a 3d 6e 0e 72 3c
       -0.053776935 -0.055382024 0.06783797 0.014773948
000140 4c 58 a6 3d 93 7b be 3b c0 de cc bd cc 15 b4 3d
       0.0812231 0.005813071 -0.10003424 0.0879322
000150 3c b0 8f 3d ae 86 a4 3c 06 09 70 3d 88 b8 54 3c
       0.07016036 0.020083752 0.058602355 0.012983449
000160 03 70 98 bc bd e4 8e 3d 1d 9d 55 bd b6 1d 29 bc
       -0.018608099 0.06977222 -0.052151788 -0.010322025
000170 76 6d 19 3d f0 ca 4d 3d ef 3c 98 3d 6c 99 a1 bc
       0.037457906 0.050242364 0.07433497 -0.019726478
000180 25 dc ef bc ab bb bb 3c c2 9e d2 3d 88 7c 99 3d
       -0.029279778 0.022916635 0.10284187 0.074944556
000190 6a f2 38 bd be e5 69 3d 84 ce 3d 3c 76 e1 a3 3c
       -0.04515306 0.057103865 0.011584882 0.02000497
0001a0 1d 7b 27 3d 10 a5 82 3c 6b c5 29 3b a1 50 e0 3c
       0.040888894 0.015947849 0.0025905024 0.027382197
0001b0 ce 57 83 3b 93 58 14 bd 03 4a ab 3d 30 15 00 3d
       0.00400827 -0.036217283 0.08363726 0.031270206
0001c0 57 2f 9f 3d 72 11 83 3d 3c 85 99 3d 16 df 00 3d
       0.07772701 0.06399812 0.074961156 0.03146275
0001d0 1e 90 ac 3d 5a 6b d4 3d 6d a9 a2 bd 50 5f 0f 3d
       0.08425926 0.10372038 -0.07942472 0.035003006
0001e0 43 ff 55 3d be 61 fd 3a 44 e8 0b bd 73 a4 95 3d
       0.05224539 0.0019331498 -0.034157053 0.07306757
0001f0 03 93 c2 ba e9 a6 d8 3b 97 8b 74 3d 0a df f4 3c
       -0.0014844838 0.006611694 0.059703436 0.02989151
000200 27 e3 c3 3c 7c 0d 0c bd b4 52 3b 3c 6b bb 38 3d
       0.023912026 -0.034192547 0.011433292 0.04510061
000210 67 31 82 bd c3 10 40 3d 4f 46 a1 3c 16 44 a5 bc
       -0.06357079 0.046890985 0.019686846 -0.020174067
000220 7a e1 9e 3d 46 52 80 ba 2e 84 83 bc cd 1d b0 bb
       0.0775785 -0.0009790144 -0.01605424 -0.0053746463
000230 4c c1 9c 3c 0c 09 2e 3d 9c 2e 98 3c cb 96 11 bc
       0.01913514 0.042489097 0.018576913 -0.0088860495
000240 58 65 78 3d 93 f9 72 3d f6 36 90 3d 2e 5f dc 3c
       0.060643524 0.059320044 0.07041733 0.026900854
000250 0d cc 15 3d ff 5f 5d bc 76 6e 36 bd 8e 7c 63 bd
       0.03657155 -0.013511657 -0.044538938 -0.055538706
000260 12 fa f5 3d 3a 6c 6b 3d a8 77 c6 bd 28 ef aa 3b
       0.12010588 0.05747626 -0.09690791 0.005216498
000270 86 ef 86 bd 64 28 69 bb a0 13 cf 3c d8 3f a8 3d
       -0.06588654 -0.0035577053 0.025277913 0.08215302
000280 25 95 08 3e 16 be 62 3d 68 e9 74 3d 8e d8 d7 3c
       0.13338144 0.05535706 0.059792906 0.026348379
000290 21 8c 62 bb 16 16 0f 3d 93 ff 80 3d ed e8 cc 3c
       -0.0034568387 0.034933172 0.06298747 0.025013411
0002a0 21 3c a0 3d a7 07 65 3d 3f 73 cb bc c4 a3 95 bd
       0.07823969 0.0559155 -0.024835227 -0.073066264
0002b0 8c 51 49 3d a9 86 06 bc 91 bf 0b bc fd 36 c7 bd
       0.049150035 -0.008210816 -0.00852956 -0.09727285
0002c0 c9 41 b2 bd 92 56 d2 3b ac 46 93 3d 70 30 4d b7
       -0.08703954 0.0064190114 0.07191214 -1.223023e-05
0002d0 18 7f 2d 3d 82 87 2d 3d 50 07 ce 3d d2 eb d0 3c
       0.042357534 0.04236556 0.100599885 0.025503073
0002e0 70 15 0a 3d 3b 08 d0 3c b1 ea d2 3c fb 9b b3 3d
       0.03371185 0.02539455 0.025746675 0.08769985
0002f0 5f 74 11 3d fd 98 67 bd 8a d2 04 3d ff e8 85 bc
       0.03551137 -0.056542385 0.03242735 -0.016346453
000300 d1 24 38 3d ba ef 42 3d 21 33 15 3d e2 7c 8e 3d
       0.044956986 0.047591902 0.036425713 0.06957413
000310 67 d0 68 3d 71 03 83 3d d2 9b b9 3c 9b e3 8f 3d
       0.056839373 0.06397141 0.022657309 0.07025834
000320 a8 16 cb 3d bd 7d 9a bc fa 61 87 bd eb 90 95 3d
       0.09916431 -0.018858785 -0.066104844 0.073030315
000330 ce 5c 78 bd bc 17 96 3d 69 7b 79 bd 9a d1 d0 bb
       -0.06063538 0.07328746 -0.06090871 -0.0063726427
000340 06 29 b4 3b c3 c7 b1 3b 3a 29 b9 3d 38 ab 70 3c
       0.0054980544 0.005425425 0.090410665 0.014689259
000350 20 68 25 3c e0 8e 00 bd d9 cf 76 bd 36 cf 8b 3d
       0.010095626 -0.031386256 -0.060256813 0.06826632
000360 cf 07 2d 3c 1e df 27 bc ef c9 ac 3c 3e 18 86 3d
       0.010560944 -0.010246066 0.021092383 0.065475926
000370 91 18 ef 3c cc cf 9d 3d 95 06 e9 ba 1f 50 a9 bc
       0.029186519 0.0770565 -0.0017778451 -0.020668088
000380 8e ab 91 3c 9d 7a 97 3c f9 39 b2 3d 31 94 89 bc
       0.017781999 0.018491084 0.08702464 -0.016794296
000390 88 f0 a1 3b fc ad 8d 3d 2b 88 11 bd 3d 8e 6b 3d
       0.0049420036 0.069179505 -0.03553025 0.057508696
0003a0 f9 dc 89 3d 85 4f 0e 3d e9 14 44 3d 16 2c f7 3d
       0.067316 0.034743804 0.047871504 0.120689556
0003b0 cf aa 3a 3d cb 7a d8 3d 54 ce 8e bc 6c d8 4b 3c
       0.045573052 0.10570296 -0.01743237 0.012441736
0003c0 49 08 68 3c 6a 91 1f 3d d4 54 e0 bc d0 c2 f4 bc
       0.014162132 0.038957037 -0.0273842 -0.02987805
0003d0 93 49 88 3d 67 35 af bc b6 bf 59 3d 38 81 29 3c
       0.06654658 -0.021387769 0.053161345 0.01034575
0003e0 70 df 69 3b db 09 bd bc 3a 37 71 3c e8 fd 91 bd
       0.0035686158 -0.023075989 0.01472264 -0.07128507
0003f0 9b 8c b9 3d 49 db d9 3d 62 1a 68 3d 33 69 8d 3c
       0.090600215 0.106375284 0.056665786 0.017262077

fc.weight f4 [3, 256]
000000 4e 79 87 bd dc a0 1f be d5 99 04 3d 43 e8 f2 3c
       -0.06614934 -0.15588707 0.03237327 0.029651767
000010 0d 67 9c 3d 80 09 8f be f4 76 85 bd 6b 7c 21 bd
       0.07636843 -0.27936935 -0.06516829 -0.039425295
000020 cd 16 d6 be cb 80 25 3d 84 b4 38 bd b3 6e c3 bd
       -0.4181427 0.04040603 -0.045094028 -0.095425986
000030 5c 90 47 3d 64 f8 15 be f4 ba f5 3c 39 e7 44 bd
       0.048721656 -0.14645535 0.029996373 -0.048072074
000040 ad 53 61 3d ad 1d 4f 3d 35 0a a6 3c 00 66 06 bd
       0.05501144 0.05056541 0.020268539 -0.03281212
000050 ba 61 77 bc 32 8a 0f 3e a1 97 be bd a5 25 ae bd
       -0.015098983 0.14017561 -0.09306265 -0.08503274
000060 2a de 9f 3d 80 e5 5f be 42 09 5d 3c 91 80 3f bd
       0.07806046 -0.21864891 0.013490977 -0.04675347
000070 3d 9a b4 bd fd 1a 47 3c d8 40 d1 bc fb 5b c3 bd
       -0.08818481 0.012152431 -0.025543615 -0.09539028
000080 8f 6f bf 3d e9 f3 4c bd bd 30 d5 3d 1a d8 1c 3e
       0.0934745 -0.0500373 0.10409687 0.15316811
000090 9b 66 f6 3d 47 d2 96 bd 29 21 2b bd 19 43 97 bd
       0.12031289 -0.07364326 -0.04177967 -0.07385845
0000a0 0b dd 01 bd 84 d1 90 bd 07 de 79 3d 21 04 fe 3c
       -0.031704944 -0.07071212 0.061002757 0.031007828
0000b0 78 63 0f bd 8c ae 76 3d 9a 35 10 3e 72 e3 67 3d
       -0.03500697 0.060225055 0.14082947 0.056613393
0000c0 e4 5f 1b 3d 6c 4c ea 3d cd f4 76 3d 90 ee 86 3d
       0.037933245 0.114403576 0.060292054 0.06588471
0000d0 86 ab 81 3d 73 88 50 b6 56 9f ec 3c 04 46 a3 bd
       0.063315436 -3.107384e-06 0.028884571 -0.07972339
0000e0 75 98 2f 3d 59 aa 65 3d 98 f2 80 bc 4c 58 1c bc
       0.042870004 0.05607066 -0.015740678 -0.009542536
0000f0 36 67 42 3c 3f ff 69 3d 56 77 e8 3d ba 38 98 3b
       0.011865428 0.057128187 0.113508865 0.004645434
000100 05 8a 87 bd e0 c6 f6 bd 54 40 db 3d 72 78 97 bc
       -0.06618122 -0.12049651 0.10705629 -0.01849005
000110 14 1e 4e bd ed ed 95 bd 9d 38 88 bd ec ac 4e bc
       -0.050321653 -0.07320771 -0.06651423 -0.01261447
000120 0c 3d 78 3d 08 e1 5c 3d 85 f0 89 3c db 62 21 be
       0.060605094 0.053925544 0.016838321 -0.15760367
000130 b7 12 93 3d 21 df 07 bd 3d bd b7 bc 4e 9a c7 bc
       0.07181304 -0.033171777 -0.022429103 -0.02436557
000140 3d b4 6a bd bd cc fc bd e7 19 90 3d 9e 62 01 bd
       -0.057300795 -0.12343738 0.070361905 -0.03158819
000150 da 5a 4b be bf 86 cf bd ae 9d b4 bc ee 4a 14 bd
       -0.19858876 -0.10133123 -0.022047844 -0.03620427
000160 0a a6 f2 bc 6e 21 e0 bd 1d dd 76 3d b9 91 b0 bd
       -0.02962019 -0.10943876 0.060269464 -0.086215444
000170 6c b6 9c 3d 89 0c d1 bd 9a fc ea 3c d8 2d 87 3a
       0.07651982 -0.10207469 0.028684903 0.0010313345
000180 0f 89 4a 3d ee 11 9d 3d 38 b1 4f bd 20 2b 1a be
       0.049447116 0.076694354 -0.05070612 -0.15055513
000190 c8 df 4a 3d 75 ce 1d bd e0 49 f6 bb f0 d7 be 3d
       0.04952982 -0.03852697 -0.007516131 0.093185306
0001a0 be 8b 4f 3c 6b 81 0a 3b a4 3a 5b 3d 4b 50 35 bd
       0.0126675945 0.0021134268 0.05352272 -0.044266026
0001b0 dd 49 64 3d e9 eb 95 3c 4f d3 d1 bb 5a a6 14 bc
       0.055734504 0.018300967 -0.006403364 -0.009072864
0001c0 49 40 c9 3d c1 f5 4c 3d f0 3c 15 bc 26 a0 3c be
       0.098267145 0.050039057 -0.009108767 -0.18420467
0001d0 94 37 0a bf 5b b1 9b bc 1f 76 a1 3d b3 37 ed 3d
       -0.53991055 -0.019005468 0.07883858 0.115828894
0001e0 3b 5f 86 3d fe c0 c2 bd 3f d8 a5 bd ef 2f 5d 3d
       0.065611325 -0.095094666 -0.08097886 0.05400079
0001f0 48 b0 84 be 45 a8 c9 bc cc 75 a2 bc cd 13 d5 bc
       -0.25915742 -0.02461637 -0.01983156 -0.026010418
000200 b7 f0 d6 3d 8c 97 28 3d 10 00 e1 3c 97 3d 5c 3c
       0.104951315 0.04116015 0.02746585 0.013442419
000210 7b 6f 10 3d ec 88 cb bc af 82 f4 bd 78 65 26 bd
       0.035262566 -0.024845563 -0.119389884 -0.040624112
000220 22 c7 10 bd 9b c1 32 3d f9 b9 4b bd 80 ab 1d 3d
       -0.035346158 0.043641668 -0.049737904 0.038493633
000230 cb 4c ee 3a a4 65 7c bc af 4a c6 bb c7 a6 9f 3d
       0.0018180845 -0.015405092 -0.0060513834 0.07795482
000240 76 a4 11 bd df ba 83 3d ea 0f 71 bc 45 96 46 bd
       -0.035557233 0.06432127 -0.014713267 -0.048483152
000250 8e a7 a4 3d 95 c8 d7 3d 09 f8 64 bd 6f 33 8c bd
       0.08039771 0.10536305 -0.055900607 -0.06845748
000260 97 ce e0 bd df 08 24 bd 21 44 a6 bc 28 91 37 bb
       -0.10976904 -0.040047523 -0.020296158 -0.0028010104
000270 f3 a6 94 bd 8c 52 a2 3b 51 48 ac 3d e5 a2 cd bd
       -0.072584055 0.004953688 0.08412231 -0.10040835
000280 a8 c2 4a 3d 29 3c 8d bd e4 33 89 3d d4 57 35 3a
       0.049502045 -0.0689624 0.066993505 0.00069176895
000290 f9 06 ec 3d 33 4b dd bd de 40 c2 3d 06 6a 05 3c
       0.115247674 -0.10805359 0.09485029 0.008142954
0002a0 82 c3 22 3d d0 24 27 3c 94 fd 2e bd 05 1f ec bc
       0.039737232 0.010201648 -0.0427223 -0.028823385
0002b0 d3 51 d3 3c ec aa 57 3d 15 3a a0 3d 28 59 de bc
       0.025795853 0.05265324 0.07823578 -0.027142122
0002c0 8f 44 2d bd 45 02 d9 3c 23 75 10 bc 73 7f 42 3d
       -0.04230171 0.02649034 -0.00881699 0.047484826
0002d0 df 65 c3 3c 8d f9 f8 bd e0 f7 7b bc b9 68 9d be
       0.023852287 -0.12156973 -0.015378922 -0.3074396
0002e0 9d 57 e0 3d 9e 53 81 3d 60 3a 05 3d e7 27 58 3d
       0.10954211 0.06314777 0.032526374 0.05277243
0002f0 e0 30 6c bc 19 f9 69 bc af 83 7d bc 1a 0a 40 be
       -0.01441595 -0.014280581 -0.01547329 -0.18753853
000300 b2 a1 34 3d bb 6f ae bb f7 d1 0a 3d 1e 39 d9 bd
       0.044099517 -0.005323378 0.033891644 -0.10606597
000310 e1 94 82 3d 90 53 35 bc cb 8e 8d 3d 4d 41 08 bd
       0.06376053 -0.011067286 0.06912001 -0.0332654
000320 a6 fe 38 3d e3 d5 99 3d 5a 92 e4 3c c5 89 50 bd
       0.045164727 0.07511499 0.027901817 -0.050912637
000330 65 2b 02 3d 31 d1 ae 3d 7c 7b 4a bd 4c 40 47 3d
       0.031779665 0.08535994 -0.04943417 0.048645303
000340 d3 b2 84 ba cc 17 01 3c 80 2f b5 3d 5d 87 e1 3c
       -0.0010124095 0.007879209 0.088469505 0.027530367
000350 2b 17 1b 3d e7 af 1e 3c 67 b2 39 bb f4 ec a3 3d
       0.03786389 0.009685493 -0.0028335096 0.080041796
000360 9c 93 c4 bd ec 69 36 3d 38 82 6e bd 89 06 74 bd
       -0.09598467 0.04453461 -0.058229655 -0.059576545
000370 34 44 29 3d 26 f9 70 bd 78 8c b3 bb 17 9f 70 bd
       0.04132481 -0.058831356 -0.0054793917 -0.05874547
000380 3f ec 0f 3d 2a 83 d1 bc 76 fc 30 bd 97 cd 25 3d
       0.03513741 -0.02557524 -0.043209516 0.04047927
000390 74 b8 a7 3c 63 2c 12 be 4d 4a b2 bc 7c 46 3c bb
       0.020473696 -0.14274745 -0.021763945 -0.0028728535
0003a0 0d e7 04 3e b1 69 4b bd ae f3 ad bd 6a 0a f3 be
       0.12978764 -0.049661342 -0.08493744 -0.47468883
0003b0 f9 00 b0 3c 1e ae c3 3e b7 73 7f 3d 35 57 62 bb
       0.021484839 0.38218778 0.062366214 -0.0034536843
0003c0 1a f7 41 3d 8b d8 ea 3d 4a 24 b4 3d 72 03 b9 bd
       0.047354795 0.114670835 0.08795984 -0.0903386
0003d0 d4 d2 71 bd b1 7d 42 bd fd 5b 23 3d 5c 16 74 3d
       -0.059038952 -0.04748315 0.03988265 0.059591636
0003e0 73 10 e0 3b 57 8a e6 bc 12 db 9e 3d f5 e2 42 bc
       0.0068378984 -0.028142137 0.07756628 -0.011894931
0003f0 a8 03 52 3d 02 f4 94 bd 18 76 a0 3d b7 09 b1 bd
       0.051273018 -0.07273103 0.078350246 -0.08644431

fc.bias f4 [3]
000000 ee 43 cb 3c a4 94 02 3c 9a b9 e1 3c
       0.024812665 0.007970009 0.027554322
