model_gru/best_model.pth (torch, 987826 bytes, 6 tensors)

gru.weight_ih_l0 f4 [768, 62]
00000000: 692b ecbc c349 f7bd 1439 a0bd 1b87 0b3d
00000010: 85b0 51bd 4697 013e 96b4 213e 135e 3b3c
00000020: 4b05 b3bd 6a0f 8d3d 78d3 1abe 7699 6ebd
00000030: 0e0f d13c f6c9 083d d7f7 643e 6e97 183e
00000040: 9779 31bd a678 aa3d 5985 18bd 973b fcbd
00000050: 1503 fa3c 527a 813d aad5 b13d 5820 f6bc
00000060: 0bd1 26bb 8eaf 79bd e080 5f3d 35c2 32bb
00000070: 8dca 1bbc 7354 32bd d048 343c 0374 6abc
00000080: 6c6b 11bd ba05 1bbe d2c3 3bbe 899b a0bc
00000090: d4a9 71be 2832 50bd 595d 4cbd a7e7 70bd
000000a0: a3b9 a43c 6819 d3bc d859 18bc 332e 003e
000000b0: 83ed fa3d 64ee e8bb 4fc7 083d 250f bdbd
000000c0: b826 8dbd ccd3 1d3b 00f3 80bd e5fa 2bbd
000000d0: 769c 80bd 111e 00bd be43 4bbe 6b1d b6bd
000000e0: 2302 c3bd 5a95 d7bd 9640 a2bd f867 69be
000000f0: 5b59 1bbe 4cff 15bc 79d9 2bbd 4087 6dbd
00000100: ad4a 993d 2838 7dbd dd91 27bc 7987 c0bc
00000110: 08da e9bd e5bf f6bd 71c6 88bd e25e cf3d
00000120: 24e6 383e 45b5 073e 78e5 6f3e e550 3a3e
00000130: 63c2 cdbd c54b 363a 98ca 11bc 8abb 193e
00000140: 1cd6 453d 538a 183e fe23 263d 4da3 183e
00000150: 395d 9c3d e917 90bd 6f2c dc3d 7a57 2eba
00000160: d536 433d acbf 813d 1b4f 58bd ef82 f03d
00000170: fc85 623e 3733 7f3c 25e3 09be ef45 0bbe
00000180: b713 8abc 19c8 54bb e35e fdbc 6b18 fe3d
00000190: 2fdc 183e c0e5 ad3d 51bb abbd d1a7 ad3c
000001a0: 0d9a 663c 0088 dfbd 0d98 8c3d 522a 453d
000001b0: 0566 7c3e f70c 96bd 85a9 053e bddc bd3d
000001c0: 5ba5 b53d df39 af3d cb68 973d 7444 95bd
000001d0: 8fa4 9e3d 57f4 623d 5776 0f3e 0fb0 113e
000001e0: ea18 a43d f95c 01be 6fc7 f23c 1f37 a2bb
000001f0: eff7 e43d a647 7cbd 94ef 183d 319f 25bd
00000200: 3da9 a73c 743a 153e 6972 aebd a804 c2bd
00000210: d65f b2bc f826 9bbd 5d5f c3b8 63ec 01be
00000220: 97bb bebc 5de0 36be a075 ac3d 278a 8ebd
00000230: 0d5f a739 909b 4a3c 0531 0abb 28ac 713d
00000240: 1211 183d b341 55be 65e1 0f3d 5ff8 213d
00000250: 1e29 bd3c dda2 3dbd 621c 8fbe 8edf 413d
00000260: 848b a8bd 0684 923c 4b06 5abd 506b 32be
00000270: 6809 1e3e ea31 503c 8bc7 d93d c4e9 e83d
00000280: 001a 5dbd 7d6b ba3d 280a f8bc fc91 44bd
00000290: 2989 47bd e53b 873e aaef 623d de5f 4ebc
000002a0: 4de7 583e c943 693d 6119 8ebd fba7 c03b
000002b0: 1baf cebd 81f0 92bd 3750 073e bd31 a63d
000002c0: f19b c83d 579e 5fbd 5448 1abd b0fb 48bd
000002d0: 8e52 a2bc d503 a9bd 7edd 1cbe 2686 61bd
000002e0: b35a 123c 04c7 90bd a21c 14be af40 4bbe
000002f0: ce97 62be bb99 7cbe 17b5 0dbe 5880 babc
00000300: 3f5c 003d 2eb0 23be 1c84 26be 669d 6abe
00000310: 957d 4b3d 9bcb a3bd b39e 7fbd 5547 59bd
00000320: 6231 d9bd 96fe 7e3c 862c ad3c bd12 17be
00000330: 8b0f b3be e265 14be ead8 3f3d d7c7 903d
00000340: 331a 9dbd e567 86bd 3dc4 e1bd 8f76 313e
00000350: b56e 80bd 6e24 b13b 3e5d 103e eaf3 ccbc
00000360: 197f da3d a475 953d b35c bdbd 840b 2d3d
00000370: a956 3d3e df76 4abd 0e8a 06be d1cd 143e
00000380: 966d 383d b01d a6bd c0cc 6f3c e085 963c
00000390: ecb3 62be a67c 323d 5466 603c 59a6 7fbd
000003a0: 4d91 01bd 81fb e93d c4a9 29bd 1880 47bd
000003b0: 4786 46be b3e7 333c 7f2e f5bd bd89 053e
000003c0: a891 72bb 3b3e dabd c086 973b 88fb 0ebd
000003d0: 8bf1 93bd c20d acbd db2b 35bd c26e c0bc
000003e0: 232f 9bbc 1dd9 8bbd 08c1 e93a aefe 49bd
000003f0: 61a2 e1bc 1b4b cbbd 4f6f d8bd b18b 27bd
-0.028829293 -0.12074616 -0.07823387 0.034064393 -0.051193733 0.12655362 0.15791544 0.011436003
-0.08741244 0.068877056 -0.15119731 -0.05825182 0.025519874 0.03339573 0.22360168 0.14901516
-0.043328848 0.08323793 -0.037236545 -0.12316053 0.030519048 0.06322159 0.08683331 -0.03004472
-0.002545419 -0.060958438 0.054566264 -0.00272764 -0.009508741 -0.04353757 0.011003688 -0.014309886
-0.035502836 -0.15138903 -0.18336418 -0.019605415 -0.2359994 -0.050829083 -0.04989371 -0.05881467
0.02010805 -0.02576895 -0.009298764 0.12517624 0.12252333 -0.0071084965 0.0333932 -0.09231404
-0.06892151 0.002408254 -0.062963486 -0.04198732 -0.062798426 -0.031278674 -0.1985006 -0.0889233
-0.09521892 -0.105265334 -0.07922475 -0.22793567 -0.15170805 -0.009155106 -0.041955445 -0.057990313
0.074849464 -0.061821133 -0.010227648 -0.023502098 -0.11418539 -0.1204832 -0.06678475 0.10125519
0.18056542 0.13252743 0.23427379 0.18194921 -0.10046842 0.00069540396 -0.0088984 0.15012947
0.048299894 0.14896517 0.04056167 0.14906044 0.07634968 -0.070358105 0.107506625 -0.0006650608
0.047659714 0.06335387 -0.052809816 0.117437236 0.22121423 0.015576175 -0.13465555 -0.13600896
-0.016855104 -0.00324679 -0.030929035 0.12407001 0.14927743 0.08491087 -0.08385337 0.021198185
0.0140748145 -0.10914612 0.06864939 0.048136063 0.24648292 -0.073266916 0.13052948 0.09270618
0.0886943 0.0855596 0.073930345 -0.07288447 0.07746231 0.055408802 0.14009987 0.14227317
0.080125645 -0.12633123 0.029636113 -0.0049504186 0.11180102 -0.061591767 0.037337855 -0.04043502
0.020466441 0.1457308 -0.08517916 -0.09473544 -0.021774214 -0.07575792 -9.3160874e-05 -0.1268783
-0.02328281 -0.17859025 0.08420873 -0.06959944 0.0003192354 0.012366191 -0.0021086347 0.05900207
0.037125655 -0.20825844 0.035127062 0.039543506 0.023090895 -0.046297897 -0.27951342 0.04733234
-0.082297355 0.01788522 -0.053228658 -0.17423749 0.15433276 0.012707213 0.10633763 0.11372712
-0.053979874 0.09102533 -0.03027828 -0.047990784 -0.04871479 0.26412883 0.055404343 -0.012596099
0.21181984 0.05694941 -0.069384344 0.0058794 -0.100919925 -0.07174779 0.13214193 0.081149556
0.097953685 -0.054594364 -0.037666634 -0.049068153 -0.019814756 -0.08252684 -0.15318868 -0.055059575
0.008932757 -0.07069209 -0.14464048 -0.19848894 -0.22128221 -0.24668019 -0.13838612 -0.022766277
0.031337973 -0.15985176 -0.16261333 -0.22911605 0.04968031 -0.07997819 -0.062407207 -0.053046543
-0.10605122 0.015563628 0.021139394 -0.14753242 -0.34972796 -0.1449199 0.046837725 0.070693664
-0.07671013 -0.06562785 -0.110237576 0.17330383 -0.06271116 0.005405954 0.14098069 -0.025018651
0.10668773 0.07297829 -0.092461966 0.04224731 0.1849009 -0.04942977 -0.13138601 0.14531638
0.045026384 -0.08111131 0.014636219 0.018374383 -0.22138947 0.043575905 0.013696272 -0.0624145
-0.03163271 0.11424924 -0.041421667 -0.048706144 -0.1938716 0.010980534 -0.11971759 0.13040824
-0.0037013087 -0.10656401 0.0046242177 -0.034907848 -0.07223805 -0.084010616 -0.044231277 -0.023490313
-0.018943375 -0.068285204 0.0017834017 -0.049315147 -0.027543249 -0.099264346 -0.105681054 -0.040904704

gru.weight_hh_l0 f4 [768, 256]
00000000: 654b 2fbe 49fb 3b3e 1220 123e d3ef 7d3e
00000010: ae33 17be 970a e93d db69 87bd 8bf9 8a3d
00000020: cea5 d4bd 8353 a4bc 99eb 063d 30fd 7cbe
00000030: 3548 d23c c3b0 6fbc 9a3b a83d ce7a 093d
00000040: ce87 aa3a b3c4 5dbd d644 7bbd 95f8 76be
00000050: dcde 163d c366 623e 7c33 ba3b 5540 ca3c
00000060: 5707 063e 6557 cabc cece 4d3d b8a1 52bd
00000070: c335 b1bd 3b84 c2bd 0824 42be ede3 1d3d
00000080: e80a 6e3e 62db 0b3e 0bbe 093e 99e2 223d
00000090: 5027 83be 2f42 1abd d4cb a6bc 82ca c2bc
000000a0: 5ef9 073e 6215 7b3e 46be 14be f400 3fbe
000000b0: 6767 303e a023 e0bb ed0b fa3d 1f44 9ebd
000000c0: 928d c1bd 3af8 50be f8ed 67be 259f c3bc
000000d0: 4a1a a43d 96a5 27be 0f76 29be 188a e13d
000000e0: c604 433d 4a07 3d3e 4a50 433d 5113 813d
000000f0: d737 d03d 765c cd3c e013 19be c163 bcbd
00000100: 0a0e efbd bd68 d53d dde0 49be 2c2e c53d
00000110: 2bde 7dbe 8134 f63c 1270 37bc dd0c 82bd
00000120: 52e5 5fbd 9025 1d3c 91e3 26bd aa7f 0b3e
00000130: 61ce 4abd 73e7 2b3e 4b07 963d 992d 9f3d
00000140: 4ae4 333e 91a6 8dbd 4acc 03be b5c2 1abc
00000150: e7f2 47bd 1ad2 4b3e ee68 2e3d b0da aabd
00000160: 9718 3e3e 442f 96bd 6192 22be d4de 1d3e
00000170: bba1 053e c49b ba3d c331 39bd bcb5 80bd
00000180: db3c 9c3e 24a7 ce3d bbff 2abe dbd7 0a3e
00000190: efc1 e83c d8bc 173e aa7c 6dbe 1f83 01be
000001a0: b573 13be 392d 813d 1aaf 1b3e 2805 1e3d
000001b0: 6e69 763b 2a2f 8abd 2abb 803d 74b3 753d
000001c0: 10b2 48bd daaf cabd 952e a5bd 2b51 bebd
000001d0: 4847 6dbc f0d4 a0bd 1b4a e93c a5cb 14be
000001e0: f408 62bc 0875 7fbd f5e4 cbbc b277 f3bd
000001f0: a228 00bb a673 433e f993 0d3e 487b 32bc
00000200: 5452 003e a353 07be e59f 1ebd 073f 71bd
00000210: 37e6 9abe 5193 8ebc 633f ea3d ab8b 3a3e
00000220: 1509 ffbd 3be4 22be ad61 4b3d 3c14 81bd
00000230: 8908 ee3d 7d49 423c 687b f4bd 61d0 8dbe
00000240: 64fb e4bc ceae 16be f08b eebd eb04 e03d
00000250: c18e 59be 529a 8d3e 14c5 f5bd a362 62be
00000260: 87fb 283e b0a1 2fbd 1e6f 8d3c d3a4 09be
00000270: d1bf cb3e 6bf8 32bb 7baa 973d 126e 663e
00000280: 6ae6 e83d bf27 cb3c 419d b83d 7852 11bd
00000290: 2f82 093e f4ca 613d a221 c4bd 7948 1ebd
000002a0: 5629 603d 5fed 66be 60e3 8cbd 5488 87bc
000002b0: 55cc 76be a2e2 85bc d6bc c9bc 3f1a 8a3b
000002c0: 20e8 a2bd 742b 033e 25d3 7d3d ae4f 8c3d
000002d0: 1084 073e e1ce b13d 0fd4 d1bc 7298 79bc
000002e0: 0af8 f0bd ba3f 77be 75a9 ac3d 3228 113e
000002f0: 2c65 0ebd d916 cebd b789 6c3d dd3c 84bd
00000300: 9272 31be b163 42be 45f9 bebd dab5 db3b
00000310: 7161 94bd 5a95 393e a718 e7bd c4fd 2a3d
00000320: c8f6 0bbe 23ec 273e 02eb b23c 005b 1dbe
00000330: 9c40 2cbd e8b0 d5bd 02f3 673d 50c0 1ebe
00000340: 23fd 993d 1555 1a3c 5cb8 9dbd 141f cb3d
00000350: 2d6e 8f3c f265 d7bd 7369 24be 4c60 11bb
00000360: 6479 163e 4252 2cbe 0890 1d3e e0e5 02bd
00000370: ccc6 0a3e 94f4 af3d 28d5 fe3d 8ccc 003e
00000380: d83c 1c3d f992 3a3d 90de 5ebd 024d 913e
00000390: 1601 90bd a361 17be 6115 b53c cd8c 6bbe
000003a0: f31c 823d 6539 b23d d7c3 4fbe bb47 83bd
000003b0: 6314 0f3d cf9c cf3d f89f cf3d a375 abbc
000003c0: 53c2 7dbe 1294 a03d 9316 15be ef24 5ebd
000003d0: a3ee 033e 553d e2bd 7fa7 f8bd 4793 603d
000003e0: 0d30 773d 819e 623d 7930 fe3c f3c1 74bd
000003f0: 6f6e 3f3c 14ce d23c 2eee 9a3c 0b42 cd3c
-0.17118604 0.18357576 0.14270046 0.24798517 -0.14765808 0.11378973 -0.06611987 0.06785878
-0.10383187 -0.020059353 0.032939527 -0.24705958 0.025669197 -0.014629546 0.08214493 0.03356438
0.0013010444 -0.054142665 -0.061344944 -0.24118264 0.03683363 0.22109513 0.005682407 0.024688879
0.13088737 -0.024699876 0.050246052 -0.05142376 -0.08652832 -0.09497877 -0.18959057 0.038547445
0.23246348 0.13657907 0.13451402 0.03976688 -0.2561593 -0.037660774 -0.020360865 -0.023778204
0.1327872 0.24519876 -0.14525709 -0.18652707 0.17226945 -0.0068401843 0.12209306 -0.07727837
-0.094508305 -0.20407191 -0.22649372 -0.023879597 0.08012827 -0.1637176 -0.16548942 0.110126674
0.047611974 0.18459812 0.04768399 0.063025124 0.101669006 0.025068503 -0.14948988 -0.09198714
-0.116725996 0.10420368 -0.19714685 0.09627947 -0.24791782 0.030054333 -0.011196153 -0.0635011
-0.054662056 0.009591475 -0.040744368 0.13622919 -0.049513225 0.1678751 0.0732561 0.07772369
0.17567554 -0.06916536 -0.12870899 -0.009445836 -0.048815634 0.19904366 0.042580537 -0.083424926
0.18564068 -0.07333234 -0.15876152 0.15417033 0.13049977 0.09111741 -0.045213472 -0.06284663
0.3051518 0.10090473 -0.16699116 0.13558905 0.028412787 0.14818132 -0.23192087 -0.12647675
-0.14399607 0.06307454 0.15203515 0.038579136 0.0037599462 -0.06747277 0.06285699 0.059985593
-0.04899794 -0.09896822 -0.080655254 -0.09292825 -0.014482327 -0.078531146 0.028477719 -0.14530809
-0.01379608 -0.06236747 -0.024889449 -0.118880644 -0.001955547 0.19087085 0.13825978 -0.01089365
0.12531406 -0.13215499 -0.038726706 -0.058898 -0.30253765 -0.01740423 0.11437871 0.18217342
-0.12452904 -0.15907376 0.049653698 -0.063026875 0.11622722 0.011858341 -0.119376004 -0.27698043
-0.027951904 -0.1471512 -0.11647785 0.10938438 -0.21245863 0.276568 -0.1200048 -0.2210794
0.165022 -0.042878807 0.017264899 -0.13441782 0.39794782 -0.0027308713 0.074055634 0.22502926
0.11372073 0.024799226 0.09014369 -0.03547904 0.13428567 0.05512519 -0.095767274 -0.038643334
0.05472692 -0.22551487 -0.06879306 -0.016544499 -0.24101384 -0.016343419 -0.024626177 0.0042145546
-0.079544306 0.12809545 0.06196894 0.06851135 0.13233972 0.08682037 -0.025613813 -0.0152341
-0.1176606 -0.24145404 0.08430759 0.1417549 -0.034764454 -0.100629516 0.057748523 -0.06456921
-0.17328861 -0.18983342 -0.09324888 0.006705028 -0.07245148 0.1812338 -0.11283999 0.041745916
-0.13668358 0.16398673 0.021840576 -0.15366745 -0.042053804 -0.10434133 0.056628235 -0.15503049
0.07518985 0.009419699 -0.077011794 0.09918037 0.01750859 -0.105174914 -0.1605585 -0.0022182642
0.14694744 -0.16828254 0.15386975 -0.031957507 0.13552397 0.085915715 0.12443 0.12578028
0.038143963 0.04555032 -0.05441147 0.28379065 -0.07031457 -0.14783339 0.02210492 -0.2300293
0.06353178 0.087023534 -0.2028955 -0.06410166 0.03493155 0.10137331 0.101379335 -0.020930117
-0.2478116 0.07840742 -0.14559393 -0.05423444 0.12884001 -0.110468544 -0.12141322 0.054827955
0.06034856 0.055326942 0.031028973 -0.059755277 0.011684044 0.025733031 0.018912401 0.025055906

gru.bias_ih_l0 f4 [768]
00000000: dace 013e c61c 4a3e a53c 903e 0cb7 3c3d
00000010: 4f3e 8b3e f671 bf3e bb82 8a3e 75c8 b63e
00000020: be65 bf3e 430b ec3d d04a 8e3e 71b9 9c3e
00000030: ae62 af3e ecf5 92bd 4591 513e 5e05 4c3e
00000040: 9f5e b13c a882 833e f734 5a3e ceb6 643e
00000050: 6f24 ad3d 4e2f 723e d4e8 193e 9e7b 873e
00000060: cf93 603e 4e8e 543e 2948 fa3a 27ed 763d
00000070: 8ecc 563e de89 9c3e 56af 8a3e ef28 513d
00000080: f6c6 e63d bf4f 1f3e 68fd 003e c119 423e
00000090: 7226 c53e 9904 2e3e 722d c53e 4efc 4f3e
000000a0: 47e3 503e fb5b 4c3d 0f8a 883e 9ff4 6f3e
000000b0: 4a07 943e f921 733e f93d 8c3d cb1c 263e
000000c0: 0697 183e 2014 953e 2d87 433e c711 633d
000000d0: b9e0 893c 58e0 1d3e 6d11 143e b43a 883e
000000e0: a105 a63d cb71 e93d accb 363d 09d9 9f3c
000000f0: ce5e 063e e063 973e 599f 683e 0f2b f73d
00000100: efae 983e dd4e 1e3d 9e54 163e 0307 d13d
00000110: c3c2 a73e f654 c83c 11e1 173e 82a2 953e
00000120: c7b4 743e d1e8 8e3e feb2 383e 81ef 983e
00000130: 7579 c93e b3fb 0dbc e458 163e 7e8a 703d
00000140: 33b1 043e 4416 e2bc 1399 883e cb92 41be
00000150: a3d4 403e 9af5 85bb 13f1 773d 32d6 2e3e
00000160: 3f37 9f3e 6539 3c3e eb05 153e 5778 c23e
00000170: 0e4a d53e 6957 bb3e 00b4 0b3e 7941 3d3e
00000180: ca52 c13e bcf0 043e 0056 853e 165e 333e
00000190: 36d4 733e 471f 093e d6fa 893e 8af4 533e
000001a0: b370 9c3e 08e6 063e a763 793e 8df0 943e
000001b0: 3046 ec3e f213 5c3e 7544 373e caba a63e
000001c0: 8d1b 0c3e 5ce8 473e 98ac a53d 43c7 153c
000001d0: a780 23bd 2e60 303e 5bb0 853e 9c80 463e
000001e0: 2b7b 653e b9eb 7b3e 9f72 283d 53db 853e
000001f0: 864a a03e a2ed 343e 006e 973e 5407 443e
00000200: 0632 913d e7a6 633e 8651 9a3e ff11 333e
00000210: 70fb a33d d83f 0c3e 2547 973e 1fe2 363e
00000220: 6933 d23c ba19 d23e 2a46 a43e 1c3f ce3d
00000230: ab12 0e3e bc31 983d 8f1f 6c3e ff5f 2c3e
00000240: 2e82 093e daba a83d f566 823e 3f09 063e
00000250: 3c6b 273e 71c4 623e f2dd 5b3e 3b90 3e3e
00000260: d821 5a3e 5871 033f 7c41 0d3e d8ef b03e
00000270: b2b1 f83d dda2 4c3e e481 e1bd 8b7c 4b3e
00000280: ea89 5f3e 23cf 973e 70d4 7e3d 49bb 3c3e
00000290: a9aa 1cbd 77b3 6b3e 4bc6 9c3e b354 a03e
000002a0: cdc1 f53b 393b 6e3e e8a0 163e 5c31 b33d
000002b0: 6593 323e 11cc 963e 23ef 8a3e 441e e1bc
000002c0: ced0 613e afd3 b03d ba58 693e 5705 2dbc
000002d0: 0fca 893e 55ff 653e 6632 c03d 757d 2f3e
000002e0: 4681 0e3d 93fa f23c 255e 003e c503 9b3e
000002f0: b5eb 933e fda6 a53e 8f7e a33c ce5f ad3e
00000300: 5772 803e e9b4 543e 23a8 c9bc 7be4 8e3a
00000310: bcd9 d73e b3eb 093e d4e4 8a3e 4acd 6b3e
00000320: 23ff 1b3e e381 193f 4cca 1f3e 3722 3d3e
00000330: 4d73 293e de92 c53d 01c8 723e 9c3b 933e
00000340: aba7 fd3d a764 603e 874e d6bd fb8c cbbb
00000350: 1f68 b53e 710a 113e 6184 ce3d 3bdd 9f3e
00000360: 9ab3 3e3d 9398 003e 1474 833e 14a7 643e
00000370: bc9d 0d3f 8740 243e 1067 cd3c 9749 fb3d
00000380: 04e1 113e 77ae 813b 8faa e23d 0e22 993e
00000390: 007c 593d 9c05 d43d bb3d 083e 8f55 c03d
000003a0: 556a 973e 47db 113f 0aa7 ba3d b4b3 2b3e
000003b0: 1034 863e 9e63 4e3e 6622 8a3e 5906 3e3e
000003c0: 1601 de3e 8be8 283e 93df 0c3e ddad adbd
000003d0: 1106 773e 5353 be3e d269 1cbd 2c30 fc3d
000003e0: a33e 91bb a5a5 283d d58a f43d b2de 283e
000003f0: 6f20 e93d 3a70 bb3e 687f 793e 7f3e 473e
0.12676564 0.19737539 0.28171268 0.046073005 0.27195975 0.37391633 0.27052864 0.35699812
0.3738231 0.115255855 0.27791452 0.3061023 0.34254974 -0.07175812 0.20465572 0.19923922
0.021651564 0.2568562 0.21309267 0.2233536 0.08454215 0.23650858 0.15030223 0.264615
0.21931385 0.2075741 0.0019094992 0.06028476 0.20976469 0.30573934 0.27086896 0.051064428
0.112684175 0.15557764 0.12596667 0.18955137 0.38505894 0.16993941 0.38511235 0.2031109
0.203992 0.049892407 0.2666783 0.2343316 0.2891181 0.23743428 0.06847758 0.16221921
0.14901361 0.29116917 0.19094534 0.055436876 0.016830789 0.15417612 0.14459772 0.26607287
0.081065424 0.113986574 0.04462783 0.01951267 0.13122103 0.29568386 0.22717036 0.1206876
0.29820964 0.03864943 0.14680716 0.102064155 0.3276578 0.024454575 0.1483195 0.29225546
0.23897086 0.27912 0.1803703 0.29870227 0.39350477 -0.008665967 0.14682347 0.058725826
0.12958221 -0.027598508 0.26679286 -0.18903653 0.18831114 -0.004088116 0.06053264 0.17073897
0.31096837 0.1838127 0.14553039 0.37982437 0.41658062 0.36590126 0.13642883 0.18482007
0.37758476 0.12982458 0.26042175 0.1751636 0.23811421 0.13390838 0.26949185 0.20698753
0.30554733 0.13173687 0.2435442 0.29089776 0.461473 0.21491984 0.17897208 0.32564384
0.13682385 0.19522232 0.0808956 0.009141746 -0.039917614 0.1722419 0.2611111 0.19384998
0.22410266 0.2460164 0.041124936 0.26143894 0.31306857 0.17668775 0.2957611 0.1914342
0.07089619 0.22231637 0.30140322 0.17487334 0.08006942 0.1369623 0.29546466 0.17859696
0.02565928 0.41035253 0.3208478 0.10070631 0.13874309 0.07431361 0.23058914 0.16833495
0.13428566 0.08238764 0.25469175 0.13089465 0.163495 0.22145249 0.21471384 0.18609707
0.21301973 0.51344824 0.13794512 0.34557986 0.12143268 0.19984002 -0.11011103 0.19871728
0.21829954 0.2965022 0.062214315 0.18430819 -0.03824869 0.23017679 0.30620036 0.3131462
0.0074999095 0.23264779 0.14709818 0.08749649 0.17439039 0.29452565 0.27135572 -0.027480252
0.22052309 0.086341254 0.22787753 -0.010560355 0.2691197 0.22460683 0.09384613 0.17137702
0.034791254 0.029660499 0.12535913 0.30276313 0.28890768 0.32353964 0.019957809 0.33862156
0.25087234 0.20772137 -0.024616307 0.0010901833 0.42158306 0.13468818 0.27127707 0.2302753
0.15234046 0.59963816 0.15604514 0.18470083 0.1654789 0.09647153 0.23709108 0.28756416
0.12385496 0.21913396 -0.10464197 -0.0062118745 0.35431 0.1416414 0.10083843 0.31223473
0.046558 0.12558202 0.25674498 0.2232936 0.5531881 0.1604024 0.025073558 0.122698955
0.14245993 0.0039575654 0.11067688 0.29908794 0.05309677 0.103526324 0.13304798 0.09391319
0.29573312 0.56975216 0.091138914 0.1676777 0.26211596 0.20155188 0.2697937 0.18557109
0.43360204 0.16494958 0.13757162 -0.084804274 0.24123408 0.37172946 -0.038186856 0.123138756
-0.0044325157 0.041173596 0.119405426 0.16491202 0.11383139 0.3660906 0.24365008 0.19457434

gru.bias_hh_l0 f4 [768]
00000000: da58 643d eb1e 193e 9220 ad3e baa4 423d
00000010: 4220 833e 9f6a bb3e 80e5 903e 541b d63e
00000020: 2ff9 993e 643d 163d 97f4 893e 3297 913e
00000030: 4698 793e 4b87 bc3b d46e 873e dff0 dc3d
00000040: 95e2 fb3d 12e6 7a3e bb5b 6b3e 26fc 733e
00000050: 9ee6 1d3e e361 863e 8d1f 1a3e 24b7 883e
00000060: 4772 2c3e bf9d 583e 9df5 053d 0abc e63d
00000070: 26a4 9e3e fd67 9c3e 4c8a 933e 7aa0 a23d
00000080: 1628 143e f8fb 0b3e e0d2 d83d 5b23 3a3e
00000090: 7a6b bb3e eba4 d33d 72b9 bf3e f734 0e3e
000000a0: 1f59 903e 116f f73d 2644 463e f34c 763e
000000b0: 6bd0 943e 988e 913e 323b a73c 4d74 0d3e
000000c0: e521 193e d071 6e3e 46bc 153e e02d f23d
000000d0: d0ca f6bb e631 1a3e b438 6b3e 2fc8 a43e
000000e0: 84d7 d83d b249 e03d a455 f63d 46da e63d
000000f0: ccd4 da3d 66ba ae3e 5144 923e f776 c63d
00000100: 2362 733e 2b54 f83d c4e1 0d3e a2a6 c23d
00000110: 2c6a b53e 5c99 1fbd a728 9e3d 8920 a33e
00000120: a1dd 843e 5526 a63e 4ab5 203e c50c ad3e
00000130: 1a76 ff3e bc95 6ebc e0bf 023e 8df4 1e3e
00000140: b5aa 763d 149d 93bd 3768 ae3e 42d9 52be
00000150: df92 b83d 68c5 52bb 2e98 323e 6843 7c3e
00000160: 9441 bb3e e9dc 353e ea19 153e 808c 9a3e
00000170: 556a c23e a1c3 9b3e 1293 fc3d 69ea e53d
00000180: 75d5 ae3e 977e 133e 0e98 933e a6de 5f3e
00000190: 50af 083e 8ee9 d03d f6ae 363e 433a 943e
000001a0: 303e 833e e5d3 0a3e 95c8 7c3e d6d5 923e
000001b0: bcb3 dc3e 2d05 793e 66a7 ca3d e510 a03e
000001c0: fb43 c03d 525e d73d e6ff 073e d78d 523c
000001d0: 698a cbbd 739b 023e dcf3 223e 6cbb 623e
000001e0: d7bf 233e c79b 4d3e d34f 073e f8d5 1c3e
000001f0: f6c3 673e 1add 393e 6d0e 913e 8ccc cf3d
00000200: 3ecc 193d bb87 9a3e 473e b73e 7753 783e
00000210: 9d42 863d 4caf 453d 332f 693e d431 1a3e
00000220: d382 18bc cfd5 f43e 0314 653e 4812 d63d
00000230: 00c1 113e 5810 a1bc 414d 463e 7a55 f03d
00000240: 387a 363e 9f36 243e fa2d a13e 5986 363e
00000250: 1791 563e 1e63 103e 6577 433e 72e6 183e
00000260: a64e 873e 9fb0 d23e ceb8 233e b63f aa3e
00000270: 1d41 dc3d 9828 ef3d ed1f 20bd 2a6c 383e
00000280: 89a3 e53d fdd0 523e 05a6 cc3c d8fb 8b3e
00000290: 78ae 2b3d dac9 583e c873 b63e 75dd a73e
000002a0: 9383 d0ba 1cf6 7e3e 0bed 5c3d 59c9 c03c
000002b0: 7c0f 323e 4274 843e a151 a23e e633 633d
000002c0: 6eff 8e3e 23c9 c63d c790 5b3e 37d0 57bd
000002d0: 0c11 9f3e 8cff 4f3e 7794 863d 9bc4 333e
000002e0: 9383 933c cca4 bf3c 4a8e 603e 0fb0 593e
000002f0: 7d9a 883e 500e 9a3e 84ca 56bc 80c6 893e
00000300: 9bb5 523e 239d 8b3e acac 47bb e647 e93c
00000310: f11b ca3e 4acb f73d 8fd4 b43e a7b8 733e
00000320: f347 ea3d 0bfa 073f f008 6d3e 65dd 2f3e
00000330: 6e9e 4c3d f775 a43d c323 773e 5318 893e
00000340: cfd6 2f3e 25e0 6f3e cb1e d6bd bda4 813c
00000350: 7cf0 c73e 9f8e d63d ca24 153e e947 753e
00000360: c667 7e3d 2838 113e 055b 733e 65fb 4a3e
00000370: 0682 0e3f bafd 013e 8742 193d 59b0 d53d
00000380: c0ec 203e 0844 c63d c3e8 3b3e 5dbb 5c3e
00000390: c29d 29bb 7efd 023e d9f1 c33d 5eb9 223d
000003a0: 3451 943e 2853 153f 6619 af3d e7e0 313e
000003b0: 12de 443e 19da 2d3e c92b 3f3e 7876 6e3e
000003c0: e863 a73e bdf7 133e b79d 063e 8216 37bd
000003d0: 6372 823e 996d 9c3e f544 5c3c c0ee 1f3e
000003e0: a817 9abc 9b3f 123e da54 fe3d 983a 0f3e
000003f0: 5135 643e 4633 9e3e 8a29 8b3e 41f8 523e
0.055748798 0.149532 0.33813912 0.047520377 0.25610548 0.36604783 0.28300095 0.41817725
0.30072924 0.03667964 0.2694442 0.28435665 0.24374494 0.005753433 0.26451743 0.1078813
0.122990765 0.24501827 0.22984211 0.23826656 0.15420005 0.26246557 0.15051098 0.26702225
0.16840468 0.21153925 0.03270494 0.11266334 0.3098461 0.30548087 0.2881645 0.07940765
0.14468417 0.13670337 0.10587096 0.1817755 0.36605436 0.1033419 0.3744617 0.13887392
0.28192994 0.12081731 0.19361934 0.24052791 0.2906526 0.28429103 0.020413969 0.13813896
0.14954336 0.23285604 0.14622602 0.11825156 -0.0075315014 0.15058097 0.2297085 0.32183978
0.10587981 0.10951556 0.120280534 0.11272101 0.10685119 0.34126586 0.28567746 0.096906595
0.23767905 0.12125429 0.13855654 0.09504439 0.35432565 -0.038964614 0.077225976 0.3186076
0.2595034 0.3245112 0.15694156 0.33798805 0.49894792 -0.014562067 0.12768507 0.15522976
0.060221393 -0.07207695 0.34063885 -0.2059069 0.090123884 -0.003216112 0.17440864 0.24635088
0.3657347 0.17760052 0.14560667 0.30185318 0.3797175 0.3042269 0.12332739 0.11226351
0.3414723 0.14403759 0.28826946 0.21862277 0.13348126 0.10200797 0.1784018 0.289507
0.25633383 0.13557394 0.24685891 0.2867877 0.43105876 0.2431838 0.0989521 0.3126289
0.09387966 0.10516037 0.13281211 0.0128512 -0.09938509 0.12754612 0.15913337 0.22141808
0.1599115 0.20078956 0.13214044 0.15315998 0.22633347 0.1815075 0.28331318 0.10146436
0.037548296 0.3018168 0.357897 0.2425059 0.06555674 0.04826288 0.22771911 0.1505807
-0.009308535 0.47819373 0.22370915 0.104527056 0.1423378 -0.019661114 0.19365408 0.11735053
0.1782006 0.16036461 0.3148039 0.17824687 0.20953785 0.1410031 0.19088514 0.14931658
0.26427191 0.41150376 0.15988466 0.33251733 0.10754607 0.116776645 -0.039092947 0.18010011
0.112128325 0.20587535 0.024981508 0.2734058 0.041914433 0.2117075 0.3563521 0.32786146
-0.0015908353 0.24898571 0.053937 0.02353351 0.1738872 0.25869948 0.31702903 0.055469416
0.27929252 0.097063325 0.21441947 -0.052688804 0.31067693 0.20312327 0.06571286 0.17555468
0.018007075 0.023394011 0.21929279 0.21258567 0.26680365 0.30089045 -0.013109807 0.26909256
0.2057709 0.27268323 -0.003046791 0.028476667 0.39474443 0.12099321 0.3531842 0.23800908
0.114395045 0.5311591 0.2314794 0.17174299 0.049955778 0.080303125 0.24134736 0.2677637
0.17171787 0.23425348 -0.10455092 0.015825624 0.39050663 0.104764216 0.14564815 0.23953213
0.062110685 0.14181578 0.2376519 0.19822462 0.5566715 0.12694445 0.03741696 0.10434026
0.15715313 0.09680945 0.1835051 0.21555848 -0.0025881384 0.12792012 0.09567613 0.03972756
0.28968203 0.5833001 0.08549766 0.1737095 0.19225338 0.16977729 0.18669046 0.2328738
0.3269341 0.14449973 0.13146101 -0.0446992 0.25477895 0.30552366 0.013444175 0.1561842
-0.018810108 0.14282076 0.12418528 0.13987195 0.22285964 0.30898494 0.2718013 0.20602514

fc.weight f4 [3, 256]
00000000: 5210 553d 20fb c43d 3b6a 2d3e f19f d8be
00000010: 7a70 903e 1509 87be 4a81 f13d 3fba bcbe
00000020: 321e 863e ea43 c03e 159b 4f3e 0207 0bbe
00000030: c1e9 42be 6b4d 2cbd 7fa0 0c3d 5f28 ff3d
00000040: 4068 47be 77ce 18be 3616 083e 194f f53d
00000050: 6b54 493e c3fc 76be e076 3d3c 1e7c a8bd
00000060: 84f4 73be 9377 083e 25af 59be ba27 94be
00000070: fc20 b1be 0563 e2bd 4970 803c d5f1 233e
00000080: 9214 52be 0fbb 03be ecc5 90be 530e b2be
00000090: 26f2 28be 7b9c 5bbe e2de 68be 5e33 e73d
000000a0: 17fb 4b3d d4b9 973d 569e 643e c099 d93d
000000b0: c978 2abe 9310 46be d535 cebd 9f7e f03d
000000c0: 68e0 7fbe 555a 4cbe 232b 933e 0b24 a03d
000000d0: 9b93 febc b6f2 6f3e f6c2 7a3e 4b22 4c3e
000000e0: 89cc 94be 16b9 aa3c d0c8 4ebe 4433 e03d
000000f0: c102 373e 2074 a73e 2eb6 0fbe d6aa b1bd
00000100: ae0e 03bd 3836 c4bd 31ce 3b3c 4a7b 40be
00000110: cd45 cd3d ef42 dd3d e100 27be f2b0 9d3d
00000120: 364e 643e b911 5abe 142a a4bd 6af2 7a3e
00000130: bf97 7dbd c964 86be 8cc0 d6bc 8be8 42be
00000140: 436f 25be 77ce 1abe f963 55be 9a1d 7dbe
00000150: 7345 a03e 0d6b 32be 6535 193e 4331 b43d
00000160: 4ec7 143e d5fa afbc 57c5 3ebe 960a 403e
00000170: 0086 ee3d 83c7 67be 6bdb 86be 3510 47be
00000180: 7938 89be 8563 0dbe 1fe0 81bd 5ffd d1bd
00000190: e62c 203e ba90 80be f281 89bd e9a6 553e
000001a0: 78ec 00be c310 e43d abf6 b73e 7812 f33e
000001b0: 1761 193e 5dce 12be fd8f 19be 8b24 3f3d
000001c0: 2bd5 d73c 0fbf 3f3e 3df8 ab3d 8cb3 5d3d
000001d0: 2dbf 93bd 9387 c33d 6d65 6bbd dfbd 92be
000001e0: 77ca c3bc 6c27 223e b60e 17be 78ab 043e
000001f0: b18a c2bd 590e 923e dc4e 9cbc e070 a7be
00000200: 8ce5 2dbe 976b 79be f502 f33c e068 87be
00000210: 63c6 36be ede1 8cbd 3b4d e93d d3ef 47bc
00000220: 3ee6 0c3e 99f3 413e 9984 fc3d 6c51 81be
00000230: 3624 e2bd 09c6 9bbe cdd4 c93e b7ee d6bd
00000240: 75ce d23c a6a0 95be 3162 983d 8f41 9bbd
00000250: c9b7 683e b671 0abd 5746 75bc a58f c5bd
00000260: 4916 36be 2640 a5be 78a3 40be e9f0 483d
00000270: aebe 833d 4a78 0c3e 13c8 a9bd 3a17 90bd
00000280: 863f f03d 4196 94bd 3b15 e93d 0d6f e2bd
00000290: 039a 11be b5eb a23d 91f3 3dbc a0d5 863e
000002a0: 2a11 8abe 5373 33be c58d cebd bd17 e83d
000002b0: 76f2 0d3e b97b 5dbe a792 8cbe c96a 853e
000002c0: 5fff 71bd 999e ed3d 05e7 8fbd 9357 51bd
000002d0: c36d a2bd 666f b73e 4465 78be fafe 26be
000002e0: 78f8 4cbe a636 a63e 6be3 973d 0312 b13d
000002f0: f2c5 0cbe 8f5a b2be 3c37 ba3c 2ca5 823e
00000300: 836a 163e 3f41 de3d c6e8 18bd 4e3a 5b3e
00000310: 5986 f43d 5640 ca3d cf89 0abe 85c2 d9bd
00000320: ca2e 263c 5930 55bd abab 70be 20cc bbbd
00000330: d433 51be 9465 a73c 778c a13e b38d 67be
00000340: f53a 12bd 11b5 423e 16b4 343e 13d8 11be
00000350: 449a e23d a2ba f33d 8712 0abe 6c0b 19bd
00000360: d8d9 5ebe 1885 afbc 1ba2 95bb a776 523d
00000370: 8cfb 843e acd3 22be a6ba 07be 649b e6bd
00000380: 7a22 bd3d e8c2 88bd 2a3f cc3e 000a d43d
00000390: caa0 9b3c 39bf 5ebe fee0 46be 1d85 09be
000003a0: b553 56bd bbc7 4b3e 92f7 70bd ad72 55bd
000003b0: e3fb 05bd c57d 3dbc 4d04 ab3c 7c2e 4bbe
000003c0: eae7 0d3e ac61 c1be 4579 933e c4c6 983d
000003d0: a35a ca3d 1c61 adbc 7107 f33d eb94 30be
000003e0: 76ec 183e 5869 09be d07a 25bd 2ecd 2dbe
000003f0: d776 4cbe 000f 48be 6c1f 5abe 0502 2b3e
0.052017517 0.09618211 0.16935055 -0.42309526 0.28210813 -0.26374117 0.11792238 -0.36860844
0.26194912 0.37551814 0.20274003 -0.13576892 -0.19034483 -0.04206602 0.03433275 0.12458872
-0.19473362 -0.1492251 0.13289723 0.11977977 0.19661109 -0.24119858 0.011563987 -0.082267985
-0.23823744 0.13326864 -0.21258219 -0.2893656 -0.34595478 -0.11054043 0.015678542 0.1601022
-0.2051566 -0.12864326 -0.28276002 -0.34776554 -0.16498622 -0.21446411 -0.22741273 0.112890944
0.049800005 0.07408491 0.22326025 0.106250286 -0.16647638 -0.1934226 -0.100688614 0.11742901
-0.24987948 -0.19956334 0.28743848 0.07819375 -0.031076243 0.2343243 0.24488434 0.19934957
-0.29062298 0.020840209 -0.20193791 0.10947278 0.17872144 0.32705784 -0.1403434 -0.086751625
-0.03199642 -0.09580654 0.011462734 -0.18797031 0.10023079 0.10803782 -0.16308929 0.07699765
0.2229546 -0.21295823 -0.08015838 0.24506536 -0.061912294 -0.26248768 -0.02621486 -0.1903402
-0.16155724 -0.15117823 -0.20838918 -0.24718323 0.31302986 -0.17423649 0.14961775 0.087984584
0.14529154 -0.02148191 -0.18629967 0.18754038 0.11646652 -0.22634701 -0.26339278 -0.19439776
-0.26800898 -0.13807495 -0.06341576 -0.10253405 0.15642127 -0.25110418 -0.06714238 0.20864452
-0.12590206 0.111360095 0.3593038 0.47475028 0.14978443 -0.14336534 -0.14996333 0.04666571
0.026346764 0.18725227 0.08396957 0.054126307 -0.07214198 0.09547343 -0.057469774 -0.28660485
-0.023900254 0.15835351 -0.14751706 0.12956035 -0.094991095 0.2852657 -0.019080572 -0.32703304
-0.16982096 -0.24357449 0.029664496 -0.264472 -0.17849116 -0.068790294 0.11391684 -0.012203175
0.13759705 0.18940581 0.123299785 -0.25257432 -0.11042063 -0.30424526 0.39420167 -0.1049475
0.025733212 -0.29224128 0.074406035 -0.07580864 0.22726358 -0.03379985 -0.014970384 -0.09646539
-0.17781939 -0.32275504 -0.18812358 0.049057875 0.06432854 0.13717762 -0.08290114 -0.0703568
0.11730866 -0.07255221 0.113810025 -0.110563375 -0.14218907 0.07955114 -0.011593715 0.26334858
-0.2696622 -0.17524461 -0.10085634 0.11332653 0.13862023 -0.21629228 -0.27455637 0.26058033
-0.05908143 0.11602516 -0.07026485 -0.051108908 -0.07931092 0.35827178 -0.2425738 -0.16308203
-0.20016658 0.32463568 0.074164234 0.086460136 -0.13747385 -0.34834716 0.022731416 0.2551664
0.14689068 0.108522885 -0.037331365 0.2140896 0.11939687 0.09875552 -0.13529132 -0.10632805
0.010142991 -0.05204806 -0.23502986 -0.09169793 -0.20429927 0.020434178 0.3155248 -0.22612648
-0.035700757 0.19014384 0.17646822 -0.14242582 0.1106458 0.11900832 -0.1348363 -0.03736441
-0.21762788 -0.021425769 -0.0045664436 0.051382687 0.25973165 -0.15901059 -0.13254794 -0.11260107
0.092350915 -0.066778004 0.3989194 0.1035347 0.018997569 -0.21752633 -0.19421765 -0.13429685
-0.052325923 0.1990041 -0.05882985 -0.052111316 -0.03271092 -0.01156563 0.020876074 -0.19841951
0.13858 -0.3776983 0.2880346 0.074597865 0.09880569 -0.02116447 0.11866654 -0.17244308
0.14933953 -0.13419092 -0.040400326 -0.16972801 -0.19967209 -0.19536972 -0.21301049 0.16699989

fc.bias f4 [3]
00000000: 42d6 0dbd 49ab cabc 0d36 603d
-0.03462816 -0.024739878 0.054739047
