model_gru/best_model.pth (torch, 987826 bytes, 6 tensors)

gru.weight_ih_l0 f4 [768, 62]
-0.022698544 -0.0026597336 -0.056386076 -0.09318586 -0.042783223 0.048385218 -0.005450828 0.072061926
0.046380002 0.054073278 -0.014887361 -0.02936831 -0.09180314 -0.01426222 -0.021332147 -0.064687006
-0.054369453 0.0015774963 0.09094246 0.028452633 0.006123412 -0.108585164 0.0024258548 0.0414904
-0.033074103 0.027970212 -0.05934454 -0.050917774 0.030042829 0.04210826 -0.0153350625 -0.060085956
-0.057708826 -0.077724494 -0.0043313703 -0.0138637945 0.0055457 0.044395443 -0.07749059 -0.060860097
-0.033799008 0.015883142 -0.011918105 -0.02400498 -0.0033999197 -0.013925668 -0.053492963 -0.011300568
-0.016752906 -0.0728709 0.01349947 -0.06528652 -0.06000077 -0.041521203 -0.04486876 -0.03935276
-0.05837272 0.01416335 0.0058272216 0.06927255 -0.020302704 -0.017334685 -0.0016305606 -0.010794368
0.050638765 0.050447926 -0.04830908 -0.014314149 -0.024462663 -0.046962254 0.034504227 0.0067660655
0.0062885503 0.004429136 -0.08361701 -0.027062835 0.031244544 -0.030825961 -0.013307339 0.038086947
0.05448632 -0.049750328 -0.029881 -0.02244155 0.038538486 0.036612913 -0.023677902 -0.058010336
-0.02365016 0.02829059 -0.03269719 -0.013896043 0.010605187 0.02137319 0.03740108 -0.05564311
0.04530531 -0.033666264 0.07193337 0.05728051 -0.10065124 0.010275119 -0.0032916109 0.045366593
0.030750357 -0.01306127 -7.520335e-05 0.06436953 0.035561755 0.043651335 -0.013523483 0.0057484885
-0.061490845 0.022466505 -0.040997062 -0.0110728685 -0.034333862 -0.0853707 -0.049633607 -0.037139304
-0.10506032 -0.068941645 -0.017688189 -0.0164669 -0.01906299 -0.031795725 0.035492767 0.0144509915
-0.058056638 -0.008074926 0.05837931 -0.003615513 0.027894458 -0.10359013 0.013647572 -0.068928555
-0.09183676 0.013220137 -0.042810436 -0.03625968 -0.008070434 0.034990963 0.056903247 -0.021469215
-0.09590175 0.015848126 -0.08174291 -0.083934695 -0.01630478 0.05550989 -0.09685845 -0.0504429
0.04161582 -0.0057003167 0.033247147 -0.07119037 0.0097957505 0.016369477 0.008724737 -0.04913565
-0.05720464 -0.031542093 0.024509735 0.0060727615 0.006557737 0.046120223 -0.049206756 0.037293907
0.062712364 0.032970402 0.014884732 -0.043936834 0.055651713 0.034300003 -0.037544277 0.046658963
0.09859502 0.029710542 -0.06208208 0.016650666 0.058373325 -0.016101273 0.050998107 -0.0039698286
0.0800666 0.037174385 -0.04185848 0.008492205 -0.047800973 -0.02515865 0.09109185 -0.05748638
-0.017968513 -0.08250414 0.009171591 0.014487107 -0.04322852 0.031552702 0.08645601 -0.0026349407
-0.08135864 -0.057568863 -0.06650678 -0.016549177 0.05586041 0.033349067 -0.033320192 0.03077013
0.012637147 -0.014578238 0.044382483 0.031370137 -0.010361739 -0.09977004 0.077188134 -0.00018784376
0.04153007 -0.066312805 -0.06248976 -0.007344152 -0.051362224 -0.015640618 0.03876842 -0.0037675393
-0.052229818 -0.009685004 -0.023619799 0.03626402 0.008477345 -0.07564136 -0.06093601 -0.015055054
0.032670714 -0.039659914 -0.053064797 0.03016626 0.019410577 0.032613654 -0.016154395 0.0040156315
0.04437785 -0.040836465 0.0070164558 0.0050742473 -0.0038199718 -0.018134532 -0.025227273 0.052069064
-0.032606147 -0.024779271 -0.04403717 -0.030382773 0.01712453 -0.022894189 -0.0283161 -0.0011764971
00000000: 4cf2 b9bc ed4e 2ebb 16f5 66bd 3ad8 bebd
00000010: 763d 2fbd 942f 463d dc9c b2bb 3495 933d
00000020: f5f8 3d3d f17b 5d3d 1eea 73bc cf95 f0bc
00000030: 4903 bcbd 16ac 69bc c1c0 aebc 9f7a 84bd
00000040: 81b2 5ebd fec3 ce3a 0a40 ba3d 7f15 e93c
00000050: e7a6 c83b e661 debd 17fb 1e3b d6f1 293d
00000060: b678 07bd c921 e53c 4313 73bd 288f 50bd
00000070: 611c f63c b679 2c3d ea3f 7bbc b11c 76bd
00000080: 1760 6cbd 052e 9fbd 2bee 8dbb f824 63bc
00000090: b4b8 b53b ffd7 353d 63b3 9ebd 7048 79bd
000000a0: d470 0abd 5d1d 823c 2844 43bc 18a6 c4bc
000000b0: 30d1 5ebb 7c28 64bc 701b 5bbd 0426 39bc
000000c0: 643d 89bc 573d 95bd e22c 5d3c f0b4 85bd
000000d0: 5ec3 75bd 2312 2abd 4ec8 37bd 5c30 21bd
000000e0: 3c18 6fbd 650d 683c 47f2 be3b c4de 8d3d
000000f0: db51 a6bc 7801 8ebc 89b8 d5ba dcda 30bc
00000100: 986a 4f3d 7ca2 4e3d bedf 45bd e485 6abc
00000110: ec65 c8bc 7e5b 40bd 4e54 0d3d dfb5 dd3b
00000120: 2f10 ce3b 4922 913b 653f abbd e1b2 ddbc
00000130: 8ff4 ff3c ba86 fcbc 0607 5abc 0f01 1c3d
00000140: 0c2d 5f3d 00c7 4bbd 00c9 f4bc 57d7 b7bc
00000150: 88da 1d3d 6cf7 153d 29f8 c1bc 3f9c 6dbd
00000160: fbbd c1bc abc1 e73c 7ded 05bd 3bac 63bc
00000170: 61c1 2d3c d416 af3c e031 193d 08ea 63bd
00000180: 1092 393d a3e5 09bd cd51 933d f89e 6a3d
00000190: 3d22 cebd f958 283c 11b8 57bb 52d2 393d
000001a0: 2ce8 fb3c f0fe 55bc 7eb6 9db8 2cd4 833d
000001b0: 34a9 113d becb 323d 9991 5dbc d15d bc3b
000001c0: d3dd 7bbd ad0b b83c 89ec 27bd fa6a 35bc
000001d0: aaa1 0cbd d5d6 aebd 9c4c 4bbd 621f 18bd
000001e0: dd29 d7bd 4731 8dbd d2e6 90bc 98e5 86bc
000001f0: fd29 9cbc 3c3c 02bd dd60 113d dac3 6c3c
00000200: cccc 6dbd b24c 04bc 251f 6f3d 3ef2 6cbb
00000210: eb82 e43c 1027 d4bd 119a 5f3c 6a2a 8dbd
00000220: e914 bcbd 4699 583c ff59 2fbd 0885 14bd
00000230: db39 04bc af52 0f3d 6113 693d 35e0 afbc
00000240: 2368 c4bd eed3 813c d468 a7bd f4e5 abbd
00000250: 9a91 85bc 575e 633d b95d c6bd 379d 4ebd
00000260: 5a75 2a3d b9c9 babb 292e 083d 42cc 91bd
00000270: 5b7e 203c 4819 863c 33f2 0e3c 7742 49bd
00000280: 6a4f 6abd 4832 01bd a4c8 c83c 04fe c63b
00000290: 49e2 d63b 8fe8 3c3d 068d 49bd 7fc1 183d
000002a0: 576f 803d f90b 073d 17df 733c 1cf7 33bd
000002b0: 0df3 633d 297e 0c3d 07c8 19bd 781d 3f3d
000002c0: 30ec c93d 8663 f33c c749 7ebd fa66 883c
000002d0: de18 6f3d d1e6 83bc 64e3 503d 5615 82bb
000002e0: f5f9 a33d 2b44 183d cc73 2bbd e422 0b3c
000002f0: f4ca 43bd 8319 cebc 5d8e ba3d d776 6bbd
00000300: b432 93bc eef7 a8bd 7144 163c 555b 6d3c
00000310: 6310 31bd 683d 013d d90f b13d f8ae 2cbb
00000320: 5c9f a6bd 54cd 6bbd b534 88bd 2492 87bc
00000330: e3cd 643d 0899 083d c17a 08bd a411 fc3c
00000340: 090c 4f3c 90d9 6ebc 68ca 353d f97d 003d
00000350: 49c4 29bc 3c54 ccbd d014 9e3d edf7 44b9
00000360: 6f1b 2a3d 02cf 87bd 43f5 7fbd 36a7 f0bb
00000370: 3261 52bd c120 80bc a3cb 1e3d d2e8 76bb
00000380: efee 55bd daad 1ebc 4f7e c1bc 9589 143d
00000390: 90e4 0a3c dbe9 9abd 0a98 79bd 79a9 76bc
000003a0: bad1 053d 6f72 22bd 795a 59bd 3c1f f73c
000003b0: ee02 9f3c e595 053d 3956 84bc 8f95 833b
000003c0: 8cc5 353d 2344 27bd 4cea e53b df45 a63b
000003d0: 7e58 7abb df8e 94bc 6da9 cebc 5f46 553d
000003e0: 068e 05bd e6fd cabc 5260 34bd 4be5 f8bc
000003f0: be48 8c3c 988c bbbc 2af7 e7bc b134 9aba

gru.weight_hh_l0 f4 [768, 256]
0.041852836 -0.014834879 -0.021541882 0.033825323 0.07410025 -0.030807193 0.049697436 -0.011940443
0.020252073 -0.006653818 -0.01594922 -0.098919384 -0.082546905 0.04540174 0.06690201 0.053652238
-0.015378995 -0.008676141 -0.0321549 0.012545497 -0.013273435 -0.008951477 0.06796241 0.025302159
-0.069697075 0.024992207 0.010269672 0.04424389 0.023190115 0.08036983 0.06659392 -0.06899019
-0.06539489 0.0058799703 -0.027019367 0.0017914922 -0.0013802678 -0.06627491 -0.047105215 -0.013717154
0.037997894 -0.068685144 0.012926548 -0.043009512 0.028457778 0.010287576 -0.0076025752 -0.017622026
0.014489692 0.06594705 0.015925033 -0.03071974 -0.050278272 0.064828694 -0.03417077 -0.04815422
0.056433264 -0.023834534 0.0531791 -0.07546149 -0.06060796 0.058149695 -0.04521488 0.07964002
0.035436478 -0.053354416 0.08505735 0.0045404406 -0.09012756 0.022855114 -0.05594807 0.04865975
0.007502425 0.0047318176 0.04906215 0.05177376 0.013062251 -0.015467906 -0.08393055 -0.0141028315
0.024850879 0.0036785728 -0.0069356505 0.06650024 -0.004022795 0.038627155 -0.05108561 -0.049487706
-0.050781358 -0.046885695 0.06743108 -0.03921512 -0.06811316 -0.005897392 -0.04964035 -0.037615743
0.029033136 -0.047880452 -0.044713695 -0.073384695 -0.026464067 0.020367047 0.009513086 0.03796595
-0.034220245 -0.0006501631 -0.0035562937 -0.053307813 0.0011802295 -0.0064784214 -0.01606589 -0.06103948
-0.08349454 0.012478436 -0.07156372 -0.037497237 0.0019255523 -0.014730956 -0.03345485 -0.040325094
0.01478598 -0.043147855 -0.036520034 -0.021965353 0.018235654 0.019710314 -0.032508302 0.08949712
0.054069724 0.045751117 -0.034774356 -0.0033296868 0.07428404 -0.026204258 -0.053353515 -0.011968403
0.07607959 -0.019786963 0.013979577 -0.037459884 0.024132395 0.013054435 0.07230718 0.008523743
-0.0028617226 -0.014351656 -0.029081717 0.034795433 -0.04464456 -0.0040855636 -0.0031379417 -0.056602836
-0.018210486 0.04583798 -0.044933952 0.064743236 0.03771267 0.077167936 0.037460715 -0.05995436
-0.03892626 -0.10086456 -0.084775515 -0.021930838 0.033087403 0.07675335 0.011253361 0.025281092
0.0020589933 0.016697457 0.039625242 -0.0007486672 -0.04105185 0.008436383 -0.022878727 -0.07283163
0.010211668 -0.06903061 0.02141652 -0.027623858 0.042651787 0.0568361 -0.02328701 -0.03325463
-0.069099 0.08618516 -0.051824223 0.05991438 -0.027130028 0.055154096 0.042186137 0.05469304
0.03258033 0.09300361 -0.034439236 0.04303226 0.07261591 -0.056145187 -0.044596475 -0.003894765
-0.060788624 -0.09125324 0.04967721 -0.05006878 -0.059599362 0.07275238 0.0730113 0.02262249
-0.011991103 0.040610593 0.08741347 0.033445098 -0.031807486 -0.004131925 0.043024223 0.059104715
0.012531573 -0.015042872 0.04389766 0.06642153 -0.0741342 -0.028122574 0.008433573 -0.015372906
0.03856375 -0.032795012 -0.04522249 -0.07002502 -0.043679878 0.045890376 -0.023707863 0.0665961
-0.087698184 -0.03025552 -0.06069534 -0.0816534 -0.036773168 -0.0061572986 0.022791604 -0.0015867335
0.042784546 0.007289688 0.03182683 0.032979175 -0.019788519 0.022054229 -0.06741428 -0.06373527
0.048152454 -0.08870989 -0.073104836 -0.06551838 -0.0068040714 -0.03693589 0.024067989 -0.057312146
00000000: e16d 2b3d fe0d 73bc 9a78 b0bc 6c8c 0a3d
00000010: dfc1 973d 5e5f fcbc 8a8f 4b3d d9a1 43bc
00000020: ade7 a53c 4508 dabb f0a7 82bc 3f96 cabd
00000030: 5a0e a9bd 2df7 393d ec03 893d 73c2 5b3d
00000040: 2ef8 7bbc 5f26 0ebc dbb4 03bd a18b 4d3c
00000050: d278 59bc 37a9 12bc e02f 8b3d 7946 cf3c
00000060: 57bd 8ebd 75bc cc3c 2042 283c 1539 353d
00000070: 32f9 bd3c f098 a43d 6562 883d bb4a 8dbd
00000080: c2ed 85bd c4ac c03b b857 ddbc 81d0 ea3a
00000090: 1aea b4ba 24bb 87bd 66f1 40bd eabd 60bc
000000a0: aea3 1b3d ccaa 8cbd dfc9 533c be2a 30bd
000000b0: 4920 e93c 398d 283c 061f f9bb 115c 90bc
000000c0: 2c66 6d3c 3f0f 873d 3775 823c f7a7 fbbc
000000d0: 97f0 4dbd e8c4 843d a6f6 0bbd 5c3d 45bd
000000e0: 9126 673d a440 c3bc 54d2 593d 8e8b 9abd
000000f0: 0d40 78bd 602e 6e3d 3d33 39bd 4f1a a33d
00000100: d725 113d 298a 5abd 8c32 ae3d fac7 943b
00000110: cc94 b8bd a63a bb3c ce29 65bd 724f 473d
00000120: e7d6 f53b 5d0d 9b3b 65f5 483d b910 543d
00000130: 0d03 563c 1a6d 7dbc c8e3 abbd 900f 67bc
00000140: 1294 cb3c 3614 713b 7444 e3bb 4731 883d
00000150: a6d1 83bb 8237 1e3d 253f 51bd 9fb3 4abd
00000160: 1d00 50bd 370b 40bd 4e19 8a3d 09a0 20bd
00000170: ea7e 8bbd e93e c1bb ae53 4bbd f712 1abd
00000180: e6d6 ed3c 4b1e 44bd b525 37bd b74a 96bd
00000190: 2ccb d8bc cbd8 a63c c6dc 1b3c 2f82 1b3d
000001a0: 872a 0cbd b56f 2aba b510 69bb 4b59 5abd
000001b0: eeb1 9a3a f048 d4bb 9d9c 83bc 8904 7abd
000001c0: 2fff aabd 5b72 4c3c 0090 92bd b496 19bd
000001d0: d062 fc3a 1c5a 71bc f407 09bd ed2b 25bd
000001e0: e540 723c cebb 30bd 0896 15bd aff0 b3bc
000001f0: f062 953c 8677 a13c 6d27 05bd 444a b73d
00000200: 3778 5d3d 8665 3b3d 8e6f 0ebd e036 5abb
00000210: 3b22 983d 50aa d6bc 3789 5abd 1f17 44bc
00000220: 9ecf 9b3d 4518 a2bc 990a 653c 896f 19bd
00000230: 4db1 c53c 45e2 553c c915 943d 2ba7 0b3c
00000240: bd8b 3bbb 3523 6bbc c83c eebc a885 0e3d
00000250: 37dd 36bd 31e0 85bb eda5 4dbb 60d8 67bd
00000260: 282e 95bc 9bc0 3b3d aa0c 38bd 1a98 843d
00000270: 9a78 1a3d 390a 9e3d 6870 193d b492 75bd
00000280: 2471 1fbd 1492 cebd c99e adbd 4da8 b3bc
00000290: a886 073d dc30 9d3d 0460 383c 4b1a cf3c
000002a0: 2df0 063b 1bc9 883c 144e 223d 3542 44ba
000002b0: fc25 28bd c138 0a3c 2b6c bbbc c028 95bd
000002c0: d74e 273c ec5f 8dbd b371 af3c 6e4b e2bc
000002d0: a4b3 2e3d f8cc 683d 66c4 bebc 0236 08bd
000002e0: c783 8dbd d881 b03d a345 54bd c868 753d
000002f0: cb3f debc 43e9 613d 5fcb 2c3d cf05 603d
00000300: f472 053d ad78 be3d 2810 0dbd 9842 303d
00000310: a6b7 943d 7ff8 65bd cbaa 36bd 503f 7fbb
00000320: 7efd 78bd fbe2 babd 557a 4b3d ec14 4dbd
00000330: 761e 74bd 33ff 943d f386 953d cd52 b93c
00000340: 5576 44bc 4b57 263d d505 b33d bafd 083d
00000350: 9148 02bd 1965 87bb 2b3a 303d c917 723d
00000360: 3a51 4d3c 6176 76bc 08ce 333d 0308 883d
00000370: acd3 97bd 5061 e6bc f82c 0a3c a4de 7bbc
00000380: 06f5 1d3d 1054 06bd 383b 39bd 4769 8fbd
00000390: ace9 32bd 8cf7 3b3d fe36 c2bc 8963 883d
000003a0: 1b9b b3bd 6dda f7bc ad9b 78bd e639 a7bd
000003b0: 769f 16bd 2ac3 c9bb 75b5 ba3c f1f9 cfba
000003c0: d93e 2f3d 56de ee3b da5c 023d 2c15 073d
000003d0: 881b a2bc 12ab b43c 7f10 8abd a387 82bd
000003e0: 823b 453d 88ad b5bd fdb7 95bd 802e 86bd
000003f0: b0f4 debb 164a 17bd 3b2a c53c 24c0 6abd

gru.bias_ih_l0 f4 [768]
0.024549596 0.14916514 0.15641597 -0.04522683 0.01038806 0.10762024 0.059263628 0.050044764
0.09007529 -0.00552009 0.057628956 0.08588508 0.0070519033 0.09361472 0.07201304 0.05438557
0.15843141 0.09227365 0.0779013 0.053021688 0.21350242 0.08137372 0.08856249 -0.015964596
0.16509283 -0.038178753 -0.0061656567 0.09666029 0.11485818 -0.017534588 0.1113491 0.14925948
0.13377787 0.0050063403 0.001318171 0.17487425 0.08188356 0.08567123 0.11875848 0.041775092
0.041356206 0.036999937 0.094805434 0.09973311 -0.0023511357 0.06668355 0.105414756 0.049042296
0.031021385 0.022871144 0.03829921 0.08010048 0.044748023 0.114795074 0.022215849 0.057376556
0.06836927 0.05636848 0.020386288 0.21888612 0.10696151 0.12302757 0.035663538 0.03793614
0.07384665 0.05793659 0.045160394 0.06464764 0.14875726 0.13599084 0.07953987 0.079253435
0.05627052 0.09160838 0.15153642 0.040103763 0.10753274 0.037234668 0.087844215 0.028028069
-0.009507819 0.05196228 0.16703445 0.09015657 0.13524954 0.093597464 -0.0025304623 0.011408019
0.093004815 0.066554174 0.08607771 0.038650505 0.1235693 0.04765471 0.13535811 0.07054221
-0.025312554 -0.0040889033 0.05584173 0.23271576 0.07296022 0.07936774 0.042389452 -0.007957876
-0.033185445 -0.063704744 0.017968012 0.0670491 0.03196205 -0.02764971 0.09975361 0.071566224
0.045394357 0.08587478 0.13344793 0.122402295 0.06610495 0.07654262 0.12854908 0.03485121
-0.003099865 0.066998 0.0034215525 0.08122162 0.20201312 -0.018203089 0.050599355 0.07714802
-0.052761145 0.13186409 0.12762858 0.062280413 0.060213316 0.17633434 0.1084776 0.05240111
0.101604395 0.09962402 0.07468527 0.11500943 0.07448184 0.09392637 0.08188614 0.14839993
0.04714484 0.1130801 0.11252802 0.09307548 0.0504914 0.0050379247 0.106066816 -0.03925541
0.11145481 0.12538975 0.0030911316 0.19347793 0.13470915 0.044604402 0.06242322 0.040830705
0.1734798 0.008003258 0.079493 0.11582112 0.16934021 -0.0011459737 0.097426996 -0.0035466668
0.09516196 0.17018105 -0.037813284 0.15597378 0.122414395 0.17096825 0.07924181 0.13069163
0.09402552 0.046031434 0.037130743 0.050763365 0.019269776 0.06360988 0.08885643 0.038840435
0.038031388 0.097396165 0.12812424 0.21229398 0.09043553 0.016212812 0.033704862 0.070109546
0.031783868 0.011815712 0.16809224 -0.033791505 0.1306392 0.058201283 0.09292021 0.06286245
0.11089001 0.13490494 0.07570182 0.06575204 -0.017422458 0.1069528 -0.0017199875 -0.029459983
0.045066286 0.16802442 0.16501556 0.11286205 0.21048078 0.10400607 0.10728551 0.08652435
0.016407311 0.120535314 0.10202533 -0.014962059 0.06617249 0.028307382 0.09506522 0.1338124
0.013106772 0.02195192 0.18752183 0.32538286 0.1361784 0.108044825 0.04302921 0.17505503
0.018260526 0.12591508 0.08788285 0.0046457145 0.011748147 0.027825665 0.11856854 0.08229259
0.02111886 0.14520107 0.08069169 0.012012112 0.004480629 0.08971202 0.13747568 0.000669898
-0.0517447 -0.024600454 0.034584187 0.014659227 0.09923319 0.015962344 0.07122252 -0.012637835
00000000: 3c1c c93c bfbe 183e 822b 203e c53f 39bd
00000010: ae32 2a3c 0068 dc3d 6bbe 723d bdfb 4c3d
00000020: 6579 b83d dfe1 b4bb 570c 6c3d 84e4 af3d
00000030: a713 e73b 13b9 bf3d 937b 933d 67c3 5e3d
00000040: d83b 223e f8f9 bc3d b78a 9f3d 452d 593d
00000050: 61a0 5a3e 44a7 a63d 4060 b53d 2fc8 82bc
00000060: 180e 293e 5361 1cbd 4709 cabb d5f5 c53d
00000070: c43a eb3d b2a4 8fbc ff0a e43d 7ad7 183e
00000080: 11fd 083e 3a0c a43b 7bc6 ac3a 3c12 333e
00000090: 91b2 a73d 6674 af3d a537 f33d 5c1c 2b3d
000000a0: 2065 293d 3f8d 173d 5a29 c23d df40 cc3d
000000b0: 8315 1abb 6391 883d b1e3 d73d 93e0 483d
000000c0: 8f20 fe3c 445c bb3c a2df 1c3d b80b a43d
000000d0: b449 373d ae19 eb3d 03fe b53c ae03 6b3d
000000e0: 3005 8c3d a3e2 663d 2501 a73c af23 603e
000000f0: a30e db3d e1f5 fb3d ee13 123d ed62 1b3d
00000100: ea3c 973d eb4e 6d3d 1bfa 383d fb65 843d
00000110: d353 183e 2f41 0b3e cde5 a23d a04f a23d
00000120: eb7b 663d 2d9d bb3d 5d2c 1b3e d843 243d
00000130: 203a dc3d 6183 183d abe7 b33d 1f9b e53c
00000140: afc6 1bbc 66d6 543d 140b 2b3e 02a4 b83d
00000150: db7e 0a3e 07b0 bf3d 1dd6 25bb b3e8 3a3c
00000160: 4f79 be3d 8e4d 883d 8349 b03d fe4f 1e3d
00000170: e711 fd3d 9631 433d 519b 0a3e 6f78 903d
00000180: 465c cfbc 35fc 85bb 4cba 643d 0a4d 6e3e
00000190: 2b6c 953d 8e8b a23d 90a0 2d3d c061 02bc
000001a0: 76ed 07bd a277 82bd a731 933c 0a51 893d
000001b0: a3ea 023d a581 e2bc 9f4b cc3d 5091 923d
000001c0: 6fef 393d 1edf af3d 93a6 083e 0eae fa3d
000001d0: 0862 873d 61c2 9c3d 5fa2 033e 24c0 0e3d
000001e0: 1b27 4bbb 3f36 893d 203c 603b 8557 a63d
000001f0: 87dc 4e3e a51e 95bc 4541 4f3d c8ff 9d3d
00000200: 121c 58bd 6107 073e 11b1 023e bf19 7f3d
00000210: 3da2 763d fd90 343e 8129 de3d 8ca2 563d
00000220: f715 d03d ae07 cc3d 97f4 983d 108a eb3d
00000230: ef89 983d 785c c03d ecb3 a73d 27f6 173e
00000240: f31a 413d 8a96 e73d 1775 e63d 5b9e be3d
00000250: 12d0 4e3d 2d15 a53b 8f39 d93d 48ca 20bd
00000260: 6b42 e43d 2c66 003e 9594 4a3b 141f 463e
00000270: 32f1 093e 1bb3 363d 7eaf 7f3d 193e 273d
00000280: b0a4 313e 1920 033c 3acd a23d a033 ed3d
00000290: 8567 2d3e 7f34 96ba ce87 c73d 326f 68bb
000002a0: 46e4 c23d f143 2e3e 1ae2 1abd 97b7 1f3e
000002b0: 66b4 fa3d 4d12 2f3e 8849 a23d 07d4 053e
000002c0: 7490 c03d 758b 3c3d 6816 183d 3fed 4f3d
000002d0: a6db 9d3c e645 823d 5cfa b53d 2617 1f3d
000002e0: cdc6 1b3d a477 c73d 0033 033e 9863 593e
000002f0: 4336 b93d bbd0 843c 1c0e 0a3d 9895 8f3d
00000300: cd2f 023d b096 413c 5f20 2c3e f668 0abd
00000310: 48c6 053e 7864 6e3d f34c be3d 07be 803d
00000320: 4d1a e33d 8524 0a3e 8e09 9b3d 01a9 863d
00000330: 8bb9 8ebc 120a db3d 3471 e1ba 1056 f1bc
00000340: 6d97 383d 980e 2c3e d7f9 283e 3824 e73d
00000350: 4688 573e 2201 d53d 81b8 db3d ae33 b13d
00000360: a068 863c 38db f63d a8f2 d03d 6d23 75bc
00000370: 7185 873d e2e4 e73c 8eb1 c23d 1e06 093e
00000380: c9bd 563c 83d4 b33c b905 403e 9598 a63e
00000390: 5a72 0b3e 9b46 dd3d 663f 303d a041 333e
000003a0: 1997 953c e2ef 003e ecfb b33d 143b 983b
000003b0: 4d7b 403c a6f2 e33c 10d4 f23d 0489 a83d
000003c0: 7601 ad3c 97af 143e af41 a53d 73ce 443c
000003d0: 3ed2 923b efba b73d 6dc6 0c3e 189c 2f3a
000003e0: 40f2 53bd e486 c9bc 26a8 0d3d 412d 703c
000003f0: c53a cb3d 76c3 823c 1ddd 913d ec0e 4fbc

gru.bias_hh_l0 f4 [768]
-0.031600274 0.11982362 0.1599141 -0.030583415 0.103676334 0.13880974 0.041018113 0.047098793
0.033629853 0.034665238 0.093356565 0.11144161 0.09938999 0.100535385 0.076981604 0.04299799
0.19652854 0.009967843 0.120384045 0.041978598 0.21199593 0.06266793 0.041318897 -0.0005591415
0.100344814 0.07198752 0.059508577 0.15967931 0.051570214 0.012071726 -0.0039676996 0.12121827
0.10800355 -0.01664836 0.0032187435 0.18530643 0.060732327 0.14853667 0.08211101 0.1261664
-0.003935012 0.07039104 0.07599592 0.023359524 0.010996089 0.10123579 0.08037654 0.013597166
0.08674795 0.052285194 0.064917736 0.0326247 0.11070893 0.13908878 0.082330234 0.13500184
0.021950467 0.08745717 -0.026287714 0.18031992 0.012668319 0.15761527 -0.012722068 0.046338618
0.014245786 0.13607723 0.05752775 0.099399954 0.12568891 0.029688524 0.123273395 0.111393474
0.12276419 0.11361442 0.12839031 0.013401291 0.03485547 0.09448634 0.017346783 0.07350712
0.056173075 0.13224897 0.16785598 0.10002911 0.21688472 0.0736481 0.08109788 -0.051127207
0.053045463 0.0991226 0.06279729 -0.05341052 0.1545691 0.13283615 0.15695684 0.060242336
0.045222003 0.07997102 0.087908275 0.1926533 0.15548542 0.01731106 0.12831812 0.080215916
-0.0448171 -0.047303226 0.08543518 0.0038951007 0.036293954 0.056303374 0.11559462 0.052652955
0.023883902 0.041639753 0.17482229 0.021488408 -0.005739115 0.06674952 0.12222461 0.03579901
0.028887475 0.06814078 0.07022808 -0.020067628 0.09374853 -0.061590433 0.06057305 -0.0033095384
-0.08370717 0.12588398 0.06886387 0.04032484 0.122943096 0.15539865 0.044434413 -0.043736488
0.03221931 0.048312757 0.14792788 0.12735371 0.14333484 0.1356715 -0.0209225 0.08172124
0.018047944 0.070282854 0.09915637 0.07174643 0.09655926 0.03428514 0.025889346 0.056973875
0.058535278 0.09943426 0.01133258 0.19062448 0.095578104 0.102631144 -0.051266123 0.015735056
0.1375752 0.042320315 0.11248826 0.03038411 0.11972147 0.050796956 0.104076736 0.0027387012
0.03376699 0.09876121 0.0744877 0.11932686 0.05889916 0.08938089 0.028619029 0.120077476
0.08843799 0.14839013 0.1082023 0.021547804 0.03994882 0.062784985 0.10600347 0.14157817
0.024541423 0.016249666 0.11149805 0.16117333 0.13860925 -0.0007214254 0.01456436 0.046556797
0.040534038 0.06163482 0.14296825 0.055944473 0.11696542 0.10970265 0.06317745 0.021602388
0.008634976 0.07983849 0.038875792 0.097124584 0.04039318 0.13067412 0.011715335 0.05504688
0.13862228 0.08523238 0.16733012 0.09098269 0.13970904 -0.007988329 0.19164734 0.14585039
0.0055320966 0.06672843 0.102666855 -0.015094763 0.06766809 0.038127426 0.13720652 0.120549165
0.10866596 -0.013088017 0.16653496 0.28304484 0.14385022 0.06803764 0.06366466 0.14783134
0.10203273 0.1314163 0.07056593 -0.016177565 0.08330994 0.055170853 0.07880393 0.09291608
-0.031858664 0.089089036 0.12482737 0.11074793 0.11458112 0.1547325 0.09716206 0.059609562
0.063790634 -0.012907601 0.032402337 0.0555353 0.06413213 0.02411228 0.04521996 0.07373791
00000000: 4a6f 01bd 1666 f53d 86c0 233e 128a fabc
00000010: 4254 d43d 2424 0e3e 9c02 283d aaea 403d
00000020: 75bf 093d 23fd 0d3d ba31 bf3d 803b e43d
00000030: fb8c cb3d 7fe5 cd3d 88a8 9d3d a91e 303d
00000040: c73e 493e 2a50 233c e98b f63d c0f1 2b3d
00000050: 7615 593e 0b58 803d 013e 293d 5a93 12ba
00000060: 9581 cd3d 316e 933d 44bf 733d f982 233e
00000070: 4a3b 533d 7dc8 453c 7a03 82bb 4941 f83d
00000080: f730 dd3d 2462 88bc 8ef1 523b f8c0 3d3e
00000090: 76c2 783d ff19 183e d129 a83d c431 013e
000000a0: 46f1 80bb 2d29 903d c0a3 9b3d 795c bf3c
000000b0: f128 343c b654 cf3d 759c a43d a6c6 5e3c
000000c0: e9a8 b13d 0029 563d 97f3 843d 7aa1 053d
000000d0: 5dbb e23d 4a6d 0e3e c19c a83d ec3d 0a3e
000000e0: 77d1 b33c bf1c b33d 5559 d7bc c9a5 383e
000000f0: c88e 4f3c e665 213e 3870 50bc 90cd 3d3d
00000100: 2867 693c d457 0b3e 38a2 6b3d 3492 cb3d
00000110: 98b4 003e 5935 f33c c376 fc3d 4322 e43d
00000120: cb6b fb3d adae e83d c078 033e 1791 5b3c
00000130: 9cc4 0e3d 0e82 c13d d71a 8e3c e78a 963d
00000140: bd15 663d 466c 073e 70e2 2b3e 10dc cc3d
00000150: 0717 5e3e d1d4 963d a516 a63d c36a 51bd
00000160: 3346 593d ca00 cb3d de9b 803d fdc4 5abd
00000170: 5d47 1e3e 3306 083e 4bb9 203e abc0 763d
00000180: b53a 393d d9c7 a33d 4109 b43d e846 453e
00000190: 9237 1f3e edcf 8d3c d365 033e 3e48 a43d
000001a0: 2392 37bd 07c1 41bd a4f8 ae3d f244 7f3b
000001b0: f8a8 143d 5e9e 663d dfbc ec3d a0aa 573d
000001c0: 2ca8 c33c 728e 2a3d 9d04 333e 7508 b03c
000001d0: 300f bcbb f9b3 883d e550 fa3d fca1 123d
000001e0: 6da5 ec3c 658d 8b3d bdd3 8f3d de64 a4bc
000001f0: 3bff bf3d 4046 7cbd 721b 783d d7e4 58bb
00000200: aa6e abbd bbe7 003e 8008 8d3d a92b 253d
00000210: 97c9 fb3d d320 1f3e dc00 363d 0825 33bd
00000220: 65f8 033d 99e3 453d 687a 173e 0369 023e
00000230: 5ec6 123e 78ed 0a3e aa65 abbc 775d a73d
00000240: 48d9 933c 75f0 8f3d 7f12 cb3d cbef 923d
00000250: dcc0 c53d 936e 0c3d e515 d43c 705d 693d
00000260: b0c2 6f3d 30a4 cb3d 49ac 393c 1033 433e
00000270: 74be c33d 4730 d23d 6dfc 51bd cee6 803c
00000280: 83e0 0c3e 1158 2d3d 3f60 e63d 19e8 f83c
00000290: 8830 f53d 7810 503d 2f26 d53d c87b 333b
000002a0: 414f 0a3d 5143 ca3d 028d 983d a461 f43d
000002b0: 3f40 713d 540d b73d 7472 ea3c 2eeb f53d
000002c0: fa1e b53d 95f3 173e 2b99 dd3d 0585 b03c
000002d0: 60a1 233d 6a95 803d 5918 d93d def9 103e
000002e0: 180b c93c 051e 853c 1759 e43d 9f0a 253e
000002f0: 95ef 0d3e 0a1e 3dba 5a9f 6e3c 57b2 3e3d
00000300: 0507 263d cb74 7c3d 4566 123e 0826 653d
00000310: 918b ef3d c8ab e03d 2e63 813d 7ef7 b03c
00000320: b779 0d3c 5d82 a33d 393c 1f3d 41e9 c63d
00000330: 5273 253d 70cf 053e adf1 3f3c d678 613d
00000340: 00f3 0d3e 508e ae3d 9658 2b3e 2255 ba3d
00000350: e30f 0f3e 7be1 02bc 333f 443e ce59 153e
00000360: 9746 b53b eaa8 883d 0043 d23d 0650 77bc
00000370: 9195 8a3d 812b 1c3d de7f 0c3e 7be2 f63d
00000380: 428c de3d 1f6f 56bc 2488 2a3e 41eb 903e
00000390: 794d 133e 5157 8b3d 9e62 823d 1961 173e
000003a0: 89f6 d03d ff91 063e df84 903d d086 84bc
000003b0: 679e aa3d d5fa 613d f463 a13d c94a be3d
000003c0: 3b7e 02bd 5074 b63d 7ea5 ff3d d0cf e23d
000003d0: 82a9 ea3d 3272 1e3e e7fc c63d 2829 743d
000003e0: aaa4 823d 677a 53bc 50b8 043d fc78 633d
000003f0: b557 833d 1e87 c53c 9138 393d e703 973d

fc.weight f4 [3, 256]
-0.08384875 0.14860606 0.12686448 0.060908396 0.01700428 -0.18159498 0.09132534 -2.8301788e-06
0.13116628 -0.10818226 -0.0017817063 0.043249935 0.09037837 -0.13040061 0.014250237 -0.049863003
0.11928687 0.1308906 0.029546151 -0.09088341 0.02215517 -0.1064312 -0.040570494 -0.044066783
0.06677323 -0.10450322 0.10072882 -0.060982563 -0.12438107 -0.1281741 -0.11200499 0.11181808
0.04053937 -0.13135408 0.117385164 -0.055965763 -0.16374394 -0.15061025 0.06558109 -0.009366891
-0.05500986 0.13328551 -0.10899371 0.044346243 0.15866138 0.13228005 0.040168405 0.09326422
-0.12191271 0.09159541 0.14978972 0.1419431 0.12164641 -0.0096382 -0.028084597 -0.03266611
0.10056497 -0.16966163 -0.012235803 0.16512646 -0.12337741 0.08525131 0.051410485 0.108342096
-0.12671152 0.082364865 -0.007648727 -0.15525873 -0.10242057 -0.0071372567 0.12046545 -0.12893097
-0.08026569 -0.13107398 0.03033011 -0.09130999 -0.04152414 0.05800046 -0.04154348 0.015038071
0.116939515 -0.13777877 0.14520398 0.09191065 -0.089061245 0.066114895 0.12794156 0.029087052
0.05679127 -0.046733316 0.077101395 -0.14794907 -0.09860492 -0.1474505 -0.17640397 0.07425823
-0.1133929 0.1287512 -0.02912096 -0.14272347 -0.084811114 -0.015240299 -0.10943831 0.12655383
0.01726888 -0.07394899 -0.061806183 0.11484288 -0.19947612 -0.029212466 0.19544432 -0.15120281
0.096293 -0.042095926 -0.059152897 -0.09446318 0.16953665 -0.14163719 0.0822278 -0.07783602
0.11392246 0.0013447606 -0.07746651 0.04474322 -0.06854088 -0.12469725 0.121381424 -0.13908488
-0.03820629 0.044809688 0.05167682 -0.12133592 -0.11981281 -0.07672493 -0.15618059 0.067317076
0.09390122 0.028039996 -0.08393409 -0.19458088 0.18030155 0.04929561 -0.1596386 0.046137784
0.088427275 0.10657311 -0.13949679 0.105089 0.039516583 -0.00087337446 0.10305111 -0.00411118
0.14557669 -0.05511061 0.09151455 -0.10300975 -0.116398245 -0.14794151 -0.034293607 0.04676949
-0.15338407 0.111614555 0.07321236 0.028764144 0.12329657 0.20221452 0.009501757 -0.079515606
0.13198511 -0.1399747 0.1551749 -0.02588555 -0.06340847 -0.086349204 -0.045804698 0.08576661
-0.16023588 0.034296364 -0.08457193 0.105435334 0.12576993 -0.020404931 0.048992235 -0.096811816
-0.06742281 -0.05231272 0.12626807 0.03144134 -0.21188723 0.031992983 -0.0737305 0.027925843
0.10639895 0.088264674 0.04962238 0.04492011 0.061986443 -0.03236124 -0.023028001 -0.006337902
-0.06296232 -0.09526238 0.113932095 0.03884335 0.108572476 -0.069121465 -0.06431618 0.022814803
0.060051493 -0.14385332 -0.14612201 0.023572193 -0.13001922 -0.08231649 0.11200117 -0.059615847
-0.045433827 -0.05379591 0.07530363 0.11481009 0.064043276 -0.02045827 -0.10393966 0.15556741
-0.06954024 -0.0740461 -0.10181833 0.06429081 -0.13610567 0.14159593 -0.07387852 -0.16816874
0.095484376 0.16211976 -0.12922588 0.1293393 0.11002877 -0.12554361 -0.09496398 -0.03776494
0.17321001 -0.078634605 -0.12965836 0.13989313 0.017396552 -0.22059573 0.10777628 -0.1040501
-0.0636579 0.09191913 0.019639187 -0.1309634 -0.122766316 0.15790333 0.004155306 -0.1932977
00000000: e5b8 abbd 302c 183e c3e8 013e 157b 793d
00000010: 8f4c 8b3c 09f4 39be c808 bb3d 1aee 3db6
00000020: 7450 063e a98e ddbd 2588 e9ba d826 313d
00000030: 4b18 b93d bd87 05be d379 693c 263d 4cbd
00000040: ad4c f43d 2f08 063e c50a f23c 1521 babd
00000050: c27e b53c 9af8 d9bd 3f2d 26bd 5f7f 34bd
00000060: 67c0 883d c905 d6bd e94a ce3d dac8 79bd
00000070: 81bb febd 1240 03be df62 e5bd e100 e53d
00000080: 9c0c 263d af81 06be a267 f03d 5b3c 65bd
00000090: 7eac 27be 9339 1abe 614f 863d 9777 19bc
000000a0: 0552 61bd ff7b 083e 1838 dfbd 68a4 353d
000000b0: 2178 223e 6c74 073e a087 243d 5001 bf3d
000000c0: 5fad f9bd 6096 bb3d 7a62 193e 8859 113e
000000d0: c121 f93d 8ae9 1dbc ab11 e6bc e6cc 05bd
000000e0: 02f5 cd3d c7bb 2dbe ad78 48bc e916 293e
000000f0: 4cad fcbd 3d98 ae3d cd93 523d 76e2 dd3d
00000100: aac0 01be e9ae a83d 2ca2 fabb 25fc 1ebe
00000110: e0c1 d1bd a6df e9bb 97b6 f63d 7b06 04be
00000120: 5762 a4bd 4238 06be da76 f83c bb00 bbbd
00000130: 3715 2abd e491 6d3d 7f29 2abd 3e62 763c
00000140: fc7d ef3d e115 0dbe 5ab0 143e a73b bc3d
00000150: be65 b6bd 3f67 873d 1d03 033e f847 ee3c
00000160: f69d 683d 6f6b 3fbd 56e7 9d3d f67f 17be
00000170: 60f1 c9bd 44fd 16be 3ea3 34be b314 983d
00000180: 893a e8bd 5bd7 033e 148f eebc 1a26 12be
00000190: 73b1 adbd 72b2 79bc 3121 e0bd 5497 013e
000001a0: 7777 8d3c 9172 97bd 7b28 7dbd be32 eb3d
000001b0: 7843 4cbe fb4e efbc 8e22 483e e9d4 1abe
000001c0: 4435 c53d c76c 2cbd 4f4a 72bd e975 c1bd
000001d0: 049b 2d3e 5709 11be 0c67 a83d 7e68 9fbd
000001e0: 2e50 e93d ae42 b03a c3a6 9ebd ab44 373d
000001f0: 295f 8cbd 4661 ffbd d396 f83d 446c 0ebe
00000200: 337e 1cbd 5d8a 373d 13ab 533d f87e f8bd
00000210: 6b60 f5bd f621 9dbd ceed 1fbe 89dd 893d
00000220: 484f c03d 22b4 e53c a3e5 abbd 3640 47be
00000230: f8a0 383e 32ea 493d 4d78 23be f9fa 3c3d
00000240: 5c19 b53d 0143 da3d 3fd8 0ebe e738 d73d
00000250: 24dc 213d 2bf3 64ba 760c d33d 14b7 86bb
00000260: 0e12 153e aabb 61bd fb6b bb3d c7f6 d2bd
00000270: 3462 eebd fb7d 17be 7477 0cbd 5d91 3f3d
00000280: b710 1dbe 2c96 e43d 5df0 953d c8a2 eb3c
00000290: e982 fc3d 5311 4f3e 42ad 1b3c 14d9 a2bd
000002a0: 1b27 073e 8755 0fbe 2be6 1e3e ef0d d4bc
000002b0: 4ddc 81bd dad7 b0bd b59d 3bbd 68a6 af3d
000002c0: e014 24be 587a 0c3d 0c34 adbd 7bee d73d
000002d0: d5c9 003e 3e28 a7bc 15ac 483d 4645 c6bd
000002e0: f814 8abd dd45 56bd 6b4c 013e a2c8 003d
000002f0: f7f8 58be 130b 033d 0400 97bd bdc4 e43c
00000300: b1e7 d93d 1cc4 b43d d640 4b3d 26fe 373d
00000310: 7fe5 7d3d 388d 04bd 38a5 bcbc 2dae cfbb
00000320: 64f2 80bd ec18 c3bd 3b55 e93d 341a 1f3d
00000330: 3f5b de3d 8e8f 8dbd 34b8 83bd 1ce6 ba3c
00000340: 8ef8 753d 494e 13be 02a1 15be 791a c13c
00000350: c223 05be 8c95 a8bd df60 e53d bf2f 74bd
00000360: d218 3abd 1a59 5cbd ca38 9a3d 8d21 eb3d
00000370: 1f29 833d 1a98 a7bc 51de d4bd 104d 1f3e
00000380: 1d6b 8ebd 7ba5 97bd 2186 d0bd e6aa 833d
00000390: 495f 0bbe 86fe 103e 9f4d 97bd 6d34 2cbe
000003a0: 508d c33d b902 263e ca53 04be 8571 043e
000003b0: c456 e13d 818e 00be 7a7c c2bd 69af 1abd
000003c0: f75d 313e 2e0b a1bd 29c5 04be 2540 0f3e
000003d0: 3783 8e3c d9e3 61be cfb9 dc3d 3818 d5bd
000003e0: 135f 82bd 1940 bc3d 5ce2 a03c 451b 06be
000003f0: e86c fbbd 69b1 213e 3c29 883b d5ef 45be

fc.bias f4 [3]
-0.02290811 -0.05141605 -0.02949086
00000000: caa9 bbbc a399 52bd d196 f1bc
