model_transformer/best_model.pth (torch, 987826 bytes, 6 tensors)

gru.weight_ih_l0 f4 [768, 62]
0.04705727 -0.039189864 0.030648168 0.016095893 -0.0040429006 -0.017567538 0.036096912 0.020841928
-0.07808686 -0.013932394 -0.03367781 -0.030975193 -0.015088292 0.009670543 -0.0033769696 -0.019335246
-0.009431022 -0.057333115 -0.07435694 0.02209634 -0.005715037 -0.06468904 -0.0042955787 0.028607864
-0.036451668 -0.07088992 -0.06576494 0.028193329 0.014861992 -0.06537175 0.007731063 0.015998647
0.009616841 -0.06254361 -0.02341097 -0.07495601 -0.05777098 -0.06480395 0.030633457 -0.06618972
-0.0516178 0.018261893 -0.046946693 -0.01528873 -0.035319224 0.03918694 -0.00013695704 -0.0427264
0.0009366035 0.05001295 -0.059706397 0.031062964 0.01392335 0.028691117 -0.027867075 -0.02145353
-0.032226846 0.026808197 -0.042683296 -0.049540263 0.008212138 0.009206556 -0.015050966 -0.03478972
0.044007905 -0.03248888 -0.03539649 0.0068788654 0.021240603 -0.052137088 0.020199556 -0.038773675
0.07098719 0.048384134 0.015144225 0.03648346 -0.02721037 -0.08162096 0.03131172 0.039110206
0.017809551 0.06959536 0.017650528 0.020690216 -0.021812493 0.003331793 -0.044384282 -0.00786641
0.0072945817 0.074144885 0.007434885 0.0020923093 0.040618513 0.046298556 0.0034193464 0.03133764
-0.027260225 0.006643444 -0.030068174 -0.019189889 -0.03134914 0.046908446 -0.04131792 0.006175081
-0.04468328 0.043249823 -0.008308569 -0.0091910865 0.03029162 -0.050964423 -0.02426673 -0.019688318
0.014555257 -0.019770999 -0.015725391 -0.06589776 -0.0030427147 0.06807349 0.028358772 0.010174019
-0.040553823 0.06193959 -0.023594229 -0.021438127 0.026592003 -0.032566406 -0.035024446 -0.03908114
-0.017327616 -0.014275135 0.034126755 -0.036571212 -0.04002658 -0.03085736 -0.0018790384 0.05341547
0.05075263 0.041176267 -0.019360572 -0.04166075 0.05444042 0.019746056 -0.0394045 0.04630276
0.046986494 0.029823098 0.064613536 -0.034121446 -0.07845898 -0.036944844 -0.056549292 0.013088477
0.026664963 -0.029927915 -0.031701855 -0.0039719623 0.016182 -0.0794507 0.010047618 -0.010830611
-0.0013153813 -0.035605818 0.03586491 0.028271096 -0.044337325 -0.02447446 0.032843538 0.03731602
-0.05505388 0.029552888 -0.060898855 -0.02895949 0.009952631 -0.049575504 0.028968751 -0.039028596
0.021719217 -0.009764337 -0.030625844 -0.057684466 -0.009603913 -0.062413145 0.0052146437 0.036802966
0.043992233 -0.023944106 -0.020774247 0.049262602 0.06128435 0.0015163156 0.036949765 -0.039686177
0.02651251 0.023865413 -0.054995228 -0.0031586234 0.032317683 0.02541968 0.042502213 0.014746266
-0.02575008 0.016335841 0.048754334 -0.037284393 0.051829033 0.0029703672 -0.046719402 -0.07350063
0.038287695 0.0029589313 -0.08369498 -0.02067588 0.018495701 -0.015434859 -0.015911803 -0.06711365
0.0035622898 -0.027519008 -0.051500805 -0.07787085 0.036831323 -0.0011269659 -0.037827075 0.0060278596
-0.046036277 -0.060112696 0.0012895237 -0.04454821 0.008486528 -0.018844083 0.0026509052 0.013474523
0.03394718 0.0060346164 0.041622885 -0.0258264 -0.020058108 -0.015303875 -0.004738094 0.011648546
0.029618265 0.042909 -0.05814212 -0.0352525 0.043060407 0.09056916 0.05995727 0.021196788
-0.07375148 -0.07444195 -0.021601837 -0.0031369887 0.0042643747 0.007551855 0.03813233 0.024638854
00000000: 20bf 403d 8d85 20bd de11 fb3c 89db 833c
00000010: 4f7a 84bb cce9 8fbc 5bda 133d b1bc aa3c
00000020: 01ec 9fbd b244 64bc bef1 09bd b0bf fdbc
00000030: e234 77bc 3271 1e3c 2650 5dbb f364 9ebc
00000040: 9384 1abc 21d6 6abd 7448 98bd 6203 b53c
00000050: 3545 bbbb b07b 84bd edc1 8cbb 0a5b ea3c
00000060: 584e 15bd bc2e 91bd c5af 86bd b2f5 e63c
00000070: b67f 733c a0e1 85bd db54 fd3b 980f 833c
00000080: f48f 1d3c dd16 80bd 5dc8 bfbc 8982 99bd
00000090: 43a1 6cbd efb7 84bd 04f3 fa3c 7a8e 87bd
000000a0: 306d 53bd f799 953c 2d4b 40bd 957d 7abc
000000b0: e4aa 10bd 7c82 203d 209c 0fb9 e101 2fbd
000000c0: 6686 753a 61da 4c3d b28e 74bd c277 fe3c
000000d0: c31e 643c a209 eb3c 7e49 e4bc 50bf afbc
000000e0: 4c00 04bd dd9c db3c aed4 2ebd bbea 4abd
000000f0: 348c 063c 18d7 163c 5498 76bc aa7f 0ebd
00000100: a241 343d 0f13 05bd e9fb 10bd 1b68 e13b
00000110: c600 ae3c b38d 55bd 8a79 a53c 25d1 1ebd
00000120: bb61 913d 712e 463d 7c1f 783c ae6f 153d
00000130: 48e8 debc e428 a7bd b840 003d 0632 203d
00000140: 56e5 913c 0388 8e3d d797 903c 877e a93c
00000150: 1db0 b2bc 365a 5a3b 4bcc 35bd 1de2 00bc
00000160: 6307 ef3b 46d9 973d 56a0 f33b 201f 093b
00000170: 995f 263d 8ea3 3d3d 1d17 603b e65b 003d
00000180: d650 dfbc 3fb1 d93b 8851 f6bc 1d34 9dbc
00000190: f567 00bd 1223 403d fb3c 29bd 5558 ca3b
000001a0: d105 37bd ba26 313d aa20 08bc 3696 16bc
000001b0: 2226 f83c 12c0 50bd 05cb c6bc 6549 a1bc
000001c0: 2c79 6e3c caf6 a1bc 89d2 80bc 68f5 86bd
000001d0: 4868 47bb 1d6a 8b3d a850 e83c eeb0 263c
000001e0: c41b 26bd 5eb4 7d3d af48 c1bc 039f afbc
000001f0: 79d7 d93c 5a64 05bd cb75 0fbd 8c13 20bd
00000200: a5f2 8dbc 41e2 69bc 7fc8 0b3d b2cb 15bd
00000210: e9f2 23bd 93c8 fcbc 114a f6ba 2eca 5a3d
00000220: fde1 4f3d 72a8 283d 109a 9ebc 76a4 2abd
00000230: ebfc 5e3d 7bc2 a13c 9d66 21bd f6a7 3d3d
00000240: e974 403d 924f f43c 1a54 843d eec2 0bbd
00000250: 1aaf a0bd 7a53 17bd 3ba0 67bd 0d71 563c
00000260: 7b70 da3c 632b f5bc ced9 01bd 3c27 82bb
00000270: 1d90 843c 0cb7 a2bd c49e 243c e072 31bc
00000280: df68 acba 68d7 11bd 15e7 123d c998 e73c
00000290: 0e9b 35bd aa7e c8bc f286 063d afd8 183d
000002a0: 2d80 61bd e618 f23c 1471 79bd 743c edbc
000002b0: 5c10 233c af0f 4bbd e04f ed3c 73dc 1fbd
000002c0: 80ec b13c 99fa 1fbc 0de3 fabc 8c46 6cbd
000002d0: bb59 1dbc eda4 7fbd 9adf aa3b b5be 163d
000002e0: 3331 343d 6e26 c4bc c12e aabc 95c7 493d
000002f0: 4c05 7b3d 1cbf c63a a358 173d f98d 22bd
00000300: c330 d93c 6681 c33c ad42 61bd e800 4fbb
00000310: 8c5f 043d ef3c d03c cd16 2e3d 539a 713c
00000320: d5f1 d2bc bed2 853c a0b2 473d 85b7 18bd
00000330: ae4a 543d 7eaa 423b d85c 3fbd 8087 96bd
00000340: 8fd3 1c3d a1ea 413b 4668 abbd 7760 a9bc
00000350: 4c84 973c 7ee2 7cbc 7859 82bc e272 89bd
00000360: 4e75 693b 8b6f e1bc 82f2 52bd c17a 9fbd
00000370: 71dc 163d b3b6 93ba 90f0 1abd 5a85 c53b
00000380: 8990 3cbd bb38 76bd 3c05 a93a 2f78 36bd
00000390: 140b 0b3c e85e 9abc cfba 2d3b 3fc4 5c3c
000003a0: 330c 0b3d 08be c53b c27c 2a3d e391 d3bc
000003b0: e750 a4bc 1bbd 7abc 0342 9bbb 8bd9 3e3c
000003c0: 01a2 f23c 59c1 2f3d 6e26 6ebd ed64 10bd
000003d0: 1c60 303d 537c b93d c195 753d e3a4 ad3c
000003e0: 040b 97bd 0575 98bd 56f6 b0bc f095 4dbb
000003f0: 2bbc 8b3b 8d75 f73b a530 1c3d 6cd7 c93c

gru.weight_hh_l0 f4 [768, 256]
-0.018952662 -0.022992712 -0.012335536 -0.025194993 -0.061704572 0.013784827 0.019538602 0.054879967
0.042353407 0.026961701 -0.04197194 -0.023636712 -0.07192331 0.012826553 0.009600422 0.009027909
-0.008274102 -0.043882634 0.008625794 -0.002388883 0.09941724 -0.01662691 0.017207459 0.004788677
-0.03565851 0.049784448 0.028514473 0.028499618 0.0279776 -0.025499893 -0.031373758 -0.00796529
0.04638299 -0.025225444 0.02448218 -0.021648312 0.031876348 0.04311426 0.038000103 0.06661569
0.033972856 -0.041028444 -0.055335555 0.013736997 -0.04822996 0.020267395 0.05719751 0.042028982
0.012810375 0.07315273 -0.018360605 -0.049394164 0.019223578 -0.043712735 0.00012460409 0.0019011123
0.028347272 0.0727288 0.005729448 0.070816286 0.0071680914 -0.0075604236 0.06738882 0.037765115
-0.038225945 0.041845 0.0029879494 0.04363476 -0.017897824 -0.0035839446 0.045378912 0.0009669309
0.027529255 0.07211 -0.04289228 0.07320458 -0.0066277445 0.041952096 0.014760755 -0.006148493
-0.012549546 0.030996352 -0.033735678 -0.0008898779 0.012644923 -0.004561203 -0.026169263 -0.00035950702
-0.043105308 -0.06564795 -0.0052407617 0.035465848 -0.056714866 -0.06646117 0.017638091 -0.03865646
-0.049060754 0.03792177 -0.052711263 -0.017174585 0.036008455 -0.035692442 -0.04428295 -0.034106098
-0.0018295274 -0.044432078 -0.03565514 -0.027489368 0.052345674 -0.05665862 -0.0005457297 -0.021280758
0.078581125 0.018927515 -0.044182822 -0.07223086 0.04379048 -0.024812192 0.044870228 0.00209447
0.0024413103 -0.033087745 0.024171874 -0.010603001 0.06059667 0.040312327 0.073772244 0.01587281
0.045979477 -0.0062825507 -0.06890691 -0.04158976 0.021287 0.06035897 0.053219456 0.030329106
-0.096767575 -0.035705324 -0.0014560912 -0.001417753 -0.026396746 0.08939985 0.08098736 -0.008944684
0.035793483 0.0028363583 -0.053208742 0.038439702 0.012346397 -0.028922128 -0.022298774 0.04802182
0.029357912 -0.0131402165 0.052071165 -0.061770882 -0.05840686 0.06779499 -0.024316588 -0.012599204
-0.08095242 0.008245018 -0.03979756 0.02084818 -0.0017046845 -0.027760763 0.039279893 0.00907174
-0.041309316 0.02312763 0.03304415 0.036539473 -0.0358326 -0.011539945 -0.008518903 0.019261861
0.026988467 0.0060349028 0.001176243 0.051455695 0.05515227 -0.04972408 -0.010536478 0.054156207
-0.027271714 -0.018673835 0.03920693 -0.017452942 0.028516881 0.06493043 -0.023480909 -0.07330535
-0.010525321 0.036394022 0.032320123 -0.008044094 0.003095082 0.027758345 0.05261715 -0.082953915
-0.006016961 -0.03535475 0.09020742 -0.013750821 -0.022541458 -0.020722546 0.013766695 0.04818791
-0.01335532 -0.031061452 0.046660643 -0.0056584165 0.009806419 -0.019312967 0.052157752 -0.050448555
0.009410943 -0.057425875 0.042576544 0.03859688 0.014606273 -0.01413009 -0.049572315 -0.039755784
0.040382832 -0.062238432 -0.010203579 0.076541215 -0.07252475 0.035462495 0.019157106 -0.02670503
-0.053688668 0.0385415 -0.059791792 -0.04924034 -0.047203664 -0.05230606 -0.057219997 0.023345299
-0.03388713 0.0022249802 0.049186774 -0.009103476 -0.015097924 0.04341185 -0.015275088 -0.02965632
-0.012131463 0.041054413 -0.0047807563 -0.013209864 0.0033296694 -0.005899437 0.029300652 0.026385976
00000000: 9d42 9bbc 365b bcbc fd1a 4abc bb65 cebc
00000010: efbd 7cbd c1d9 613c 6b0f a03c d1c9 603d
00000020: c47a 2d3d c9de dc3c c5ea 2bbd c7a1 c1bc
00000030: 874c 93bd 7626 523c 174b 1d3c cbe9 133c
00000040: 1990 07bc 47be 33bd 3453 0d3c ce8e 1cbb
00000050: 449b cb3d 2835 88bc a8f6 8c3c 56ea 9c3b
00000060: a80e 12bd c7ea 4b3d 2f97 e93c 0878 e93c
00000070: 4831 e53c 27e5 d0bc c581 00bd d980 02bc
00000080: 17fc 3d3d 97a5 cebc da8e c83c cd57 b1bc
00000090: c690 023d 9498 303d ffa5 1b3d cf6d 883d
000000a0: 1f27 0b3d 710d 28bd 89a7 62bd 2411 613c
000000b0: c78c 45bd cf07 a63c f047 6a3d 9526 2c3d
000000c0: 9be2 513c 19d1 953d fb68 96bc 8951 4abd
000000d0: c47a 9d3c 200c 33bd 28a8 0239 be2e f93a
000000e0: 8a38 e83c d6f2 943d 18be bb3b 2108 913d
000000f0: 4fe2 ea3b 6ebd f7bb 2603 8a3d 98af 1a3d
00000100: cf92 1cbd aa65 2b3d 79d1 433b 5dba 323d
00000110: 759e 92bc 9de0 6abb 3ddf 393d a279 7d3a
00000120: 0885 e13c 68ae 933d d1af 2fbd 48ec 953d
00000130: 8d2d d9bb f6d5 2b3d 18d7 713c 4c79 c9bb
00000140: 9c9c 4dbc 10ec fd3c 6c2e 0abd b246 69ba
00000150: a72c 4f3c 2576 95bb ec60 d6bc 377c bcb9
00000160: 318f 30bd 6f72 86bd b2ba abbb a344 113d
00000170: d94d 68bd cb1c 88bd c27d 903c 3c56 1ebd
00000180: eef3 48bd dc53 1b3d c4e7 57bd b7b1 8cbc
00000190: 9a7d 133d 3d32 12bd 0a62 35bd d6b2 0bbd
000001a0: c1cc efba 69fe 35bd 200b 12bd 6231 e1bc
000001b0: 6b68 563d de12 68bd 4d0f 0fba fc54 aebc
000001c0: 24ef a03d e00d 9b3c 0cf9 34bd c6ed 93bd
000001d0: a55d 333d f042 cbbc d8c9 373d 6043 093b
000001e0: 64fe 1f3b 0487 07bd 1804 c63c 36b8 2dbc
000001f0: 3734 783d 8a1e 253d e715 973d b207 823c
00000200: fa54 3c3d dbdd cdbb 111f 8dbd 065a 2abd
00000210: 1362 ae3c f83a 773d a5fc 593d bf74 f83c
00000220: 142e c6bd bf3f 12bd 50da beba e6d3 b9ba
00000230: fd3d d8bc 4517 b73d b3dc a53d b98c 12bc
00000240: 309c 123d 32e2 393b 69f1 59bd f372 1d3d
00000250: 8b48 4a3c 19ee ecbc ebab b6bc 87b2 443d
00000260: 0180 f03c 104a 57bc 9348 553d 7703 7dbd
00000270: 083c 6fbd 1ad8 8a3d 9533 c7bc e46c 4ebc
00000280: 62ca a5bd 1d16 073c c402 23bd cdc9 aa3c
00000290: b86f dfba 8a6a e3bc f4e3 203d a3a1 143c
000002a0: f533 29bd 2876 bd3c 4d59 073d 6aaa 153d
000002b0: 34c5 12bd 0a12 3dbc de92 0bbc 0dcb 9d3c
000002c0: eb16 dd3c 6fc0 c53b 2a2c 9a3a 35c3 523d
000002d0: 59e7 613d 7aab 4bbd 31a1 2cbc e6d2 5d3d
000002e0: ee68 dfbc dff9 98bc 7297 203d 79f9 8ebc
000002f0: 3c9c e93c 3ffa 843d 095b c0bc 1e21 96bd
00000300: 6572 2cbc e611 153d 1b62 043d 60cb 03bc
00000310: dcd6 4a3b 7865 e33c 1585 573d bee3 a9bd
00000320: ed29 c5bb 24d0 10bd abbe b83d 204b 61bc
00000330: dda8 b8bc 54c2 a9bc b48d 613c b060 453d
00000340: 46d0 5abc 9674 febc 3b1f 3f3d 3d6a b9bb
00000350: 1aab 203c 3a36 9ebc 5ea3 553d 25a3 4ebd
00000360: 5b30 1a3c 6537 6bbd be64 2e3d c317 1e3d
00000370: 264f 6f3c e581 67bc 570c 4bbd f6d6 22bd
00000380: 7868 253d baed 7ebd ea2c 27bc a4c1 9c3d
00000390: db87 94bd 1f41 113d 5def 9c3c 82c4 dabc
000003a0: a6e8 5bbd b1dd 1d3d 3de8 74bd 3db0 49bd
000003b0: a158 41bd e13e 56bd 845f 6abd a43e bf3c
000003c0: 3bcd 0abd f9d0 113b 1278 493d bf26 15bc
000003d0: 485d 77bc a0d0 313d 5d44 7abc d0f1 f2bc
000003e0: 0bc3 46bc ac28 283d e4a7 9cbb 2f6e 58bc
000003f0: 9536 5a3b 1050 c1bb ec07 f03c 6727 d83c

gru.bias_ih_l0 f4 [768]
0.009861351 0.08006073 0.043524366 -0.024406431 0.0019335068 0.038545717 0.03238909 0.035285506
0.07498689 0.008498555 -0.013157529 0.014362988 -0.004352812 0.062498793 0.08740977 0.046525396
0.008979229 0.091421716 0.07824762 -0.016274206 0.030511273 0.052953698 0.07168408 0.0030108413
0.08008122 0.01767623 0.03771151 -0.006826033 -0.02630835 0.0100155175 0.0411055 -0.012854499
0.008639726 0.037716478 0.073369406 0.03593148 0.09835908 -0.059906375 -0.05776112 -0.029323759
-0.035663787 0.0037523338 0.082936026 0.09490973 0.07769772 0.017447205 0.053986985 0.0139714815
0.027481122 0.0028443371 0.044767395 0.14097668 0.050330162 0.0016311572 0.026820567 0.06737955
0.043252815 0.03725352 0.10412414 0.072597936 -0.03817407 0.12979771 -0.01116509 0.098320685
0.012520685 0.021360904 -0.028891379 0.01212904 0.04051017 0.09345435 0.024425756 0.0478288
0.074371666 0.09586107 0.065256126 0.12180546 0.0027592035 0.07210007 -0.016420249 0.072985224
0.047453877 0.01939074 0.08216088 0.01717102 -0.010772631 0.060505565 0.019621776 0.028138788
-0.03936014 0.026891032 0.16552278 0.01507703 0.059644315 0.048166722 0.0191119 0.0636668
-0.036755644 0.07389468 -0.020182205 -0.058948226 0.107081264 -0.00757316 0.08491832 0.008585353
0.028505564 0.022798283 -0.05937284 0.037011947 -0.009953751 0.08765185 -0.021506421 0.010601446
0.01021158 0.10166301 0.024335656 0.06666133 -0.02773577 0.023430463 -0.031653725 0.05407857
0.060666993 0.005872527 0.04661967 0.17413399 0.0074486295 0.011860128 0.051796637 -0.05436867
0.018347409 0.10268998 0.0029425945 0.0693815 -0.017502198 -0.000553791 0.07266222 -0.0057275016
-0.013504339 -0.02569525 0.082890876 -0.015456574 0.04379037 0.045100126 0.003931956 0.04501531
0.04727683 0.0080905575 0.108867854 0.07526833 0.063345775 -0.03263297 0.014723115 0.0012289524
0.011378921 0.017295854 0.06227744 -0.032190092 -0.026207553 0.010213289 0.06953477 -0.032459322
-0.020021677 0.06381594 0.072255634 0.034991797 0.031130355 0.095063955 0.0038393673 -0.014915381
0.08658271 -0.02039405 0.023601258 0.10588894 0.057925053 0.09224989 0.03554259 0.16740695
0.08659533 0.06269258 0.059595738 0.006295839 -0.010429644 -0.012199153 0.10898649 0.021921812
-0.0062989783 0.05373136 0.10724272 0.115329735 0.08510474 0.043045487 0.09904336 0.020349221
-0.03074501 -0.008367972 0.073166884 0.014628134 -0.004724211 -0.014852213 0.047351304 0.09700945
0.017123738 0.06451439 0.01217369 -0.012311787 0.07059564 0.032435507 0.12580384 0.07265848
0.068751045 -0.075701974 0.041984156 -0.026603295 -0.027576702 0.009249789 0.04527143 -0.030788383
-0.00965279 0.04693609 0.1038546 -0.0028533037 0.033497646 0.06291949 0.057583127 -0.030866738
0.006838587 0.02672391 0.012078159 0.11643949 0.06272252 0.05731997 0.052840818 0.14551784
0.0820088 0.020960068 0.005177763 0.081385076 0.07266021 0.03522194 -0.01695961 -0.05749587
-0.008180581 0.047374785 -0.011083897 0.0034488516 0.0551865 0.11707669 -0.023985727 -0.023042709
0.06315744 0.09789454 0.04360416 0.058497142 -0.031814422 0.03714122 0.00220124 -0.022045285
00000000: 8191 213c e1f6 a33d 9b46 323d ffef c7bc
00000010: b96d fd3a 1de2 1d3d 6caa 043d 8987 103d
00000020: ba92 993d 863d 0b3c ad92 57bc bd52 6b3c
00000030: 09a2 8ebb bcfe 7f3d e503 b33d 6a91 3e3d
00000040: 9e1d 133c 4f3b bb3d 4a40 a03d 7c51 85bc
00000050: c7f2 f93c fae5 583d 1acf 923d 8951 453b
00000060: 9f01 a43d becd 903c 6277 1a3d eaac dfbb
00000070: 9c84 d7bc 2018 243c 3e5e 283d ad9b 52bc
00000080: a38d 0d3c 987c 1a3d b342 963d e32c 133d
00000090: 7c70 c93d 6360 75bd ed96 6cbd 6138 f0bc
000000a0: 3114 12bd b7e9 753b 5dda a93d 0860 c23d
000000b0: fb1f 9f3d 71ed 8e3c 7521 5d3d a4e8 643c
000000c0: 1720 e13c 0f68 3a3b 045e 373d 315c 103e
000000d0: 0027 4e3d 8ecc d53a ceb6 db3c 4afe 893d
000000e0: dd29 313d 2697 183d 0a3f d53d 3aae 943d
000000f0: 6a5c 1cbd b1e9 043e c8ed 36bc 5b5c c93d
00000100: 8f23 4d3c 10fd ae3c 9dad ecbc e2b8 463c
00000110: feed 253d ff64 bf3d 8618 c83c 22e8 433d
00000120: 2c50 983d cf52 c43d 01a5 853d 2475 f93d
00000130: c1d3 343b 34a9 933d c283 86bc 4779 953d
00000140: ff5e 423d 54d9 9e3c f743 a83d 3daa 8c3c
00000150: b07f 30bc afd4 773d d9bd a03c 5183 e63c
00000160: 1938 21bd 954a dc3c ce7e 293e a605 773c
00000170: 994d 743d 784a 453d 8f90 9c3c bd63 823d
00000180: 168d 16bd 1856 973d 2755 a5bc b273 71bd
00000190: 6c4d db3d 4528 f8bb a8e9 ad3d 95a9 0c3c
000001a0: 8084 e93c 77c3 ba3c ef30 73bd d799 173d
000001b0: 0f15 23bc d082 b33d 3c2e b0bc b0b1 2d3c
000001c0: 794e 273c b234 d03d 925b c73c bc85 883d
000001d0: 2036 e3bc 3ef1 bf3c 56a7 01bd 7e81 5d3d
000001e0: f47d 783d 546e c03b 44f4 3e3d 2e50 323e
000001f0: a213 f43b fb50 423c b628 543d afb1 5ebd
00000200: 4e4d 963c 204f d23d 8bd8 403b e317 8e3d
00000210: c560 8fbc 492c 11ba eecf 943d c4ad bbbb
00000220: 4e41 5dbc d87e d2bc b1c2 a93d 923d 7dbc
00000230: 885d 333d e9ba 383d a3d7 803b f961 383d
00000240: 59a5 413d 428e 043c 1cf6 de3d 4826 9a3d
00000250: 6ebb 813d 26aa 05bd 3839 713c cd14 a13a
00000260: a76e 3a3c 09b0 8d3c a116 7f3d c2d9 03bd
00000270: 39b1 d6bc a455 273c 3f68 8e3d 11f4 04bd
00000280: 8004 a4bc eeb1 823d c3fa 933d 8f53 0f3d
00000290: 1605 ff3c e4b0 c23d e59d 7b3b a45f 74bc
000002a0: 4752 b13d 6c11 a7bc 6d57 c13c 4ddc d83d
000002b0: d242 6d3d 83ed bc3d 1b95 113d ba6c 2b3e
000002c0: e458 b13d f864 803d a91a 743d 534d ce3b
000002d0: 19e1 2abc f5de 47bc 4f34 df3d 5f95 b33c
000002e0: a967 cebb 6a15 5c3d 12a2 db3d ff31 ec3d
000002f0: 654b ae3d 7750 303d 3fd7 ca3d 69b3 a63c
00000300: f6dc fbbc d219 09bc 85d8 953d d7aa 6f3c
00000310: 8ecd 9abb b256 73bc 71f3 413d e4ac c63d
00000320: 1547 8c3c 1f20 843d 2874 473c 61b7 49bc
00000330: 7294 903d 18db 043d b9d2 003e f8cd 943d
00000340: 59cd 8c3d a309 9bbd 94f7 2b3d 27ef d9bc
00000350: 89e8 e1bc 6d8c 173c 896e 393d eb37 fcbc
00000360: bc26 1ebc 0f40 403d b8b1 d43d 7efe 3abb
00000370: d434 093d efdb 803d 49dc 6b3d 3edc fcbc
00000380: 3a16 e03b 1aec da3c 78e3 453c d477 ee3d
00000390: aa74 803d 58c8 6a3d 9d6f 583d a102 153e
000003a0: 3bf4 a73d 73b4 ab3c 39aa a93b 38ad a63d
000003b0: e0ce 943d e244 103d e1ee 8abc ca80 6bbd
000003c0: d807 06bc 100c 423d 3c99 35bc 2106 623b
000003d0: 3d0b 623d e7c5 ef3d b77d c4bc 10c4 bcbc
000003e0: b058 813d ef7c c83d 479a 323d b39a 6f3d
000003f0: d74f 02bd 6421 183d ae42 103b 5098 b4bc

gru.bias_hh_l0 f4 [768]
0.04772541 0.059672553 -0.008549952 0.028079014 0.06875746 0.06880071 -0.0005359582 0.09377082
0.054312456 0.018528676 0.09610805 0.081843525 0.07434189 0.068106405 0.058776923 0.019674648
0.0105267605 0.054963615 0.043220915 0.061806735 -0.013950506 0.06839384 0.044985943 0.032333877
0.06275515 -0.03843156 0.09155005 0.058316413 0.002606322 0.073956534 0.032555018 0.037902143
-0.024988664 0.0069709485 -0.0025794462 0.0116281845 0.00952837 -0.043072864 -0.022369552 0.012235301
0.047700573 -0.015276179 0.020403529 0.018997569 -0.03971087 0.050956927 0.10762426 -0.065552816
0.05356302 -0.039578903 0.03755183 0.07877853 0.08018138 -0.02085327 0.08524486 0.07593176
0.037245955 0.06850955 0.056540657 0.05924579 0.051615186 0.051450796 0.009630288 -0.010454888
0.07057282 0.1099814 0.012346319 0.034065153 0.017497394 0.10932689 -0.010186405 0.017610315
0.07218686 0.038171943 0.08700414 0.098057315 0.040906962 0.053677984 0.05861182 0.040084533
0.03444845 0.017151123 0.08863779 0.11402454 0.063161455 -0.017855685 0.009564717 0.09154905
0.05475678 0.05053518 0.087972365 0.097582415 0.061465397 0.0003872512 0.05681215 -0.036825597
0.0064943377 0.04932455 0.002389968 -0.015951887 0.05803006 0.031098552 0.09464353 0.009411922
0.030161176 0.070207484 0.046007853 0.053246554 0.0037380063 0.057858247 0.029842043 -0.016312242
-0.042211127 0.013892019 0.053293962 0.071173936 0.050715763 0.031668127 0.013460273 0.044257816
0.1703714 0.10238232 0.008872438 0.06834156 0.032763965 0.02388275 -0.05339714 -0.056848913
-0.00886785 0.050264977 0.014447752 0.081061244 0.017583175 0.010789455 0.090167105 0.11182096
-0.0060657584 0.0055084787 0.062867984 0.036853354 0.04235834 0.048644464 -0.008948431 -0.037839912
0.004471414 0.042690065 0.11318677 0.074255064 0.10272407 0.043778535 -0.026588585 0.05392214
0.0853453 -0.021872818 0.06287723 -0.021990594 -0.030908335 0.0059754346 0.06863596 0.03503038
0.0196506 -0.0022458446 0.094927534 0.07081731 0.020025462 0.00874122 0.11808445 0.08332684
0.1233449 -0.015371834 -0.0032295305 0.078175835 0.020085093 0.028037217 -0.018989388 0.11861074
0.0068321885 0.011338753 -0.028286863 0.039210554 0.044356328 0.073149905 0.11560503 0.053194262
0.011523802 0.07457327 0.041794274 0.064695194 0.011209941 0.05148616 -0.013653641 0.08477978
0.07719435 -0.04351244 0.105073765 -0.007295816 0.057440326 -0.00071271346 0.07037131 0.04379564
-0.012653751 0.034945775 0.059543867 -0.01734392 -0.03868759 0.08978154 0.08425404 0.033337265
-0.025728617 -0.04310744 0.07101372 0.09342524 0.06293331 -0.0141386585 0.044529807 -0.03063307
0.016609836 0.014500827 0.11566629 0.058413327 0.023253936 -0.025271254 0.056142095 -0.048911795
0.04053104 0.05575874 -0.03670027 0.07315259 -0.011020469 0.050963163 -0.00047022902 0.03893223
0.017048705 0.08297801 0.024052424 0.07111122 0.0025608193 0.030885085 0.03810967 0.055979274
0.0011263726 0.002045644 0.008072744 0.026060764 0.080376804 0.037582323 0.018097622 2.3948292e-05
0.06763954 -0.006356787 0.08795748 0.025571082 0.02023691 -0.014872801 -0.02173964 0.081193715
00000000: b87b 433d 356b 743d 1915 0cbc f605 e63c
00000010: b6d0 8c3d 63e7 8c3d 8c7f 0cba ea0a c03d
00000020: bd76 5e3d 73c9 973c 4cd4 c43d 949d a73d
00000030: 9040 983d 5f7b 8b3d 12c0 703d ba2c a13c
00000040: 6f78 2c3c 8721 613d 6a08 313d 0f29 7d3d
00000050: aa90 64bc 1212 8c3d 2e43 383d 8770 043d
00000060: c685 803d 696a 1dbd 987e bb3d 31dd 6e3d
00000070: d4ce 2a3b 8676 973d 6958 053d 473f 1b3d
00000080: 07b5 ccbc 8e6c e43b ed0b 29bb 2484 3e3c
00000090: e11c 1c3c 2c6d 30bd 5a40 b7bc 9276 483c
000000a0: ad61 433d f048 7abc 4d25 a73c caa0 9b3c
000000b0: dda7 22bd 36b8 503d 1c6a dc3d 8e40 86bd
000000c0: e664 5b3d 7d1d 22bd f3cf 193d a356 a13d
000000d0: 2336 a43d 7ad4 aabc db94 ae3d 1c82 9b3d
000000e0: 378f 183d bc4e 8c3d 2d97 673d b7ab 723d
000000f0: 726a 533d 12be 523d 5bc8 1d3c fb4a 2bbc
00000100: 7c88 903d ee3d e13d 3748 4a3c e787 0b3d
00000110: b256 8f3c c7e6 df3d e1e4 26bc 8243 903c
00000120: b4d6 933d 2f5a 1c3d 3a2f b23d 46d2 c83d
00000130: 0f8e 273d 72dd 5b3d f312 703d ae2f 243d
00000140: d119 0d3d 8380 8c3c bb87 b53d b385 e93d
00000150: cb5a 813d 1646 92bc 55b5 1c3c 117e bb3d
00000160: a548 603d fafd 4e3d db2a b43d 4ad9 c73d
00000170: 24c3 7b3d fa07 cb39 dbb3 683d 70d6 16bd
00000180: 74ce d43b 8a08 4a3d 02a1 1c3b 88ad 82bc
00000190: eeb0 6d3d 64c2 fe3c 78d4 c13d 7634 1a3c
000001a0: 9214 f73c f1c8 8f3d bb72 3c3d 0f19 5a3d
000001b0: 57f9 743b c5fc 6c3d 4d77 f43c 40a1 85bc
000001c0: 93e5 2cbd 5a9b 633c c54a 5a3d a4c3 913d
000001d0: 55bb 4f3d 70b6 013d 7a88 5c3c af47 353d
000001e0: d775 2e3e d2ad d13d b45d 113c a9f6 8b3d
000001f0: 8233 063d c2a5 c33c f6b6 5abd 68da 68bd
00000200: 754a 11bc a6e2 4d3d 44b6 6c3c 7003 a63d
00000210: 970a 903c 41c6 303c 88a9 b83d 6302 e53d
00000220: 45c3 c6bb 7880 b43b eec0 803d 8bf3 163d
00000230: f07f 2d3d 6b3f 473d 719c 12bc 06fe 1abd
00000240: f084 923b c7db 2e3d 77ce e73d 0a13 983d
00000250: ff60 d23d 1f51 333d 4ed0 d9bc 76dd 5c3d
00000260: 84c9 ae3d a02e b3bc c7c5 803d 9e25 b4bc
00000270: 7a33 fdbc 94cd c33b 0391 8c3d 047c 0f3d
00000280: 4cfa a03c 052f 13bb 5e69 c23d aa08 913d
00000290: 700c a43c 5637 0f3c 43d6 f13d 43a7 aa3d
000002a0: 409c fc3d 25da 7bbc 88a6 53bb a71a a03d
000002b0: 7e89 a43c 4eae e53c a28f 9bbc 30ea f23d
000002c0: 8de0 df3b 2dc6 393c dab9 e7bc 3f9b 203d
000002d0: fbae 353d 9ecf 953d 54c2 ec3d 3ae2 593d
000002e0: 54ce 3c3c dfb9 983d 7930 2b3d ea7e 843d
000002f0: e6a9 373c 27e3 523d 85b3 5fbc 05a1 ad3d
00000300: 1218 9e3d 1a3a 32bd ea30 d73d be11 efbb
00000310: 8c46 6b3d 64d5 3aba d51e 903d 0f63 333d
00000320: ae51 4fbc 4d23 0f3d 45e4 733d d614 8ebc
00000330: e176 1ebd 62df b73d 628d ac3d a88c 083d
00000340: d2c4 d2bc 6d91 30bd a46f 913d bb55 bf3d
00000350: 2ee3 803d d5a5 67bc e364 363d 34f2 fabc
00000360: 5a11 883c e094 6d3c 73e2 ec3d d042 6f3d
00000370: 0a7f be3c a905 cfbc 41f5 653d bc57 48bd
00000380: e003 263d 4763 643d 0653 16bd 06d1 953d
00000390: 328f 34bc c0be 503d 1289 f6b9 6777 1f3d
000003a0: baa9 8b3c 60f0 a93d 9709 c53c c2a2 913d
000003b0: 6bd3 273b b802 fd3c e318 1c3d 864a 653d
000003c0: cba2 933a 3610 063b 8b43 043c 627d d53c
000003d0: 989c a43d ecef 193d 7741 943c 91e4 c837
000003e0: 9986 8a3d 984c d0bb 0d23 b43d 727a d13c
000003f0: e0c7 a53c 0cad 73bc 5417 b2bc e448 a63d

fc.weight f4 [3, 256]
-0.13348043 -0.06322439 -0.020093113 -0.16703656 -0.109865986 0.020026485 0.15376545 -0.07144143
-0.026361505 -0.07157566 -0.14069717 -0.030568263 0.13717501 0.04323642 -0.0071994103 -0.073509715
0.70224524 0.117635615 -0.07185982 -0.07067665 0.03309426 -0.24154794 -0.049584176 0.031392276
-0.11537556 -0.04158768 -0.09583012 -0.052963812 -0.022026662 0.007121346 -0.034076363 -0.017233467
0.23329882 -0.13327056 0.010504687 0.0143067315 -0.09877917 0.17388374 0.27650395 -0.055077408
0.09368336 0.058488257 -0.0058459877 0.0047780555 0.12926775 -0.02681917 -0.06913868 -0.17113657
-0.078562014 0.13934475 0.045691878 0.32027674 -0.13054115 0.08631858 0.42129862 -0.015745936
0.045552514 0.019003164 -0.14802223 0.01400261 0.01737266 0.0070527946 0.049360726 -0.10397849
0.04718409 -0.053989835 0.00062748697 0.05841238 0.053360455 -0.28898114 0.014942116 -0.1307848
0.040607437 -0.046739142 0.06401535 0.00794966 0.099088706 0.0016807083 -0.034874782 -0.034705628
-0.004879307 0.36305985 -0.12239801 0.01183108 0.03402357 -0.52479357 -0.022764888 0.06314848
0.09831076 0.04834633 -0.56177497 0.039241765 0.077829204 0.07845279 -0.042122368 0.097261466
0.09684372 -0.11925477 0.114094615 -0.03195945 -0.28812307 0.10260398 -0.14132583 0.02931719
0.02799359 0.13173994 -0.10288625 0.20293136 -0.01692585 -0.0013781526 0.08505952 -0.0632143
-0.07269483 -0.15685794 -0.0996515 -0.044426184 0.039969236 0.032544017 -0.02847384 0.10656947
0.038477257 -0.08549351 0.11657309 -0.10585661 0.115356624 0.050426777 -0.059137426 0.19936487
0.07864516 0.0035813618 0.21971147 0.21249922 0.15033679 -0.03484021 -0.14705814 0.029661082
-0.019912433 0.028520552 -0.0103292195 -0.017930211 0.15897734 0.0493892 -0.0019741661 -0.1523999
-0.019141208 -0.008553483 0.12666914 0.10750265 -0.08594729 -0.040367052 -0.025648745 0.1270332
0.039558493 -0.040410038 -0.13438004 0.05411033 -0.109073095 0.087279886 0.05860138 -0.03877718
-0.040323913 0.0731509 -0.20939107 -0.06379342 -0.033911355 0.06523644 0.40392745 -0.039141376
0.116365895 0.041447897 0.0149415815 0.63220215 -0.017318625 0.061024584 0.04801037 -0.057232607
0.04274774 -0.0046787453 0.0030610964 0.020498477 -0.04854717 -0.0064931973 -0.20731561 0.1840061
-0.026347674 -0.019991241 -0.11712048 -0.13152389 0.036827702 0.11113285 0.07513316 0.32838395
0.03488107 0.08713751 -0.009189239 0.039105326 0.029769886 0.06743024 -0.1956887 -0.007959753
0.042540852 -0.23644401 0.16785543 0.2032133 -0.08186379 0.008676765 0.075521335 -0.03392612
0.04939703 0.058483593 0.04781561 -0.04597885 -0.06383303 0.22026807 -0.033325464 0.01606311
0.07970865 0.041758284 -0.041190986 0.02635191 -0.08487529 -0.025687246 0.10564813 0.10008082
0.08113376 -0.013488745 0.037772644 0.12978975 0.027558492 0.1076401 0.04051567 0.12455399
0.00841717 0.12526473 -0.014165141 0.252662 0.018324994 0.089807816 -0.042087756 -0.10251902
-0.33891445 0.03249574 -0.09562009 0.08399949 0.16440456 0.06692506 -0.2039192 0.022109585
-0.32379568 1.0018064 -0.056261968 -0.043882422 0.56783605 -0.5534304 0.029325088 -0.045325026
00000000: 18af 08be ca7b 81bd 509a a4bc a20b 2bbe
00000010: 6b01 e1bd 950e a43c b174 1d3e e24f 92bd
00000020: 15f4 d7bc 4296 92bd eb12 10be 4b6a fabc
00000030: 9b77 0c3e ac18 313d 08e9 ebbb 438c 96bd
00000040: 58c6 333f f1ea f03d 3e2b 93bd ebbe 90bd
00000050: d98d 073d 5858 77be c718 4bbd 3095 003d
00000060: 064a ecbd d857 2abd 9542 c4bd 95f0 58bd
00000070: 4271 b4bc 2e5a e93b a893 0bbd 332d 8dbc
00000080: e3e5 6e3e 1478 08be da1b 2c3c c866 6a3c
00000090: bc4c cabd 940e 323e ed91 8d3e d998 61bd
000000a0: 10dd bf3d 6291 6f3d b38f bfbb 3c91 9c3b
000000b0: c45e 043e e0b3 dbbc 9598 8dbd 6d3e 2fbe
000000c0: 1fe5 a0bd 64b0 0e3e 6827 3b3d 50fb a33e
000000d0: 94ac 05be ccc7 b03d 74b4 d73e 9ffd 80bc
000000e0: 4695 3a3d 86ac 9b3c 2493 17be 346b 653c
000000f0: 1c51 8e3c 211b e73b 792e 4a3d adf2 d4bd
00000100: 1b44 413d 7224 5dbd f07d 243a d241 6f3d
00000110: 7e90 5a3d 56f5 93be c7cf 743c 73ec 05be
00000120: fc53 263d 8b71 3fbd 7b1a 833d 4a3f 023c
00000130: 05ef ca3d 364b dc3a dcd8 0ebd 7d27 0ebd
00000140: 98e2 9fbb fbe2 b93e cfab fabd 25d7 413c
00000150: 4d5c 0b3d df58 06bf 6e7d babc fe53 813d
00000160: 2757 c93d cd06 463d 7cd0 0fbf f9bb 203d
00000170: eb64 9f3d dbab a03d 8188 2cbd 0531 c73d
00000180: 0056 c63d d83b f4bd 70aa e93d eae7 02bd
00000190: de84 93be 0922 d23d b8b7 10be 9b2a f03c
000001a0: d052 e53c d6e6 063e 07b6 d2bd 3dcd 4f3e
000001b0: 15a8 8abc 21a3 b4ba b033 ae3d 8076 81bd
000001c0: 07e1 94bd 5e9f 20be 1616 ccbd 3bf8 35bd
000001d0: c8b6 233d e04c 053d f841 e9bc 1841 da3d
000001e0: 549a 1d3d 3917 afbd dfbd ee3d 5acb d8bd
000001f0: 1840 ec3d 4f8c 4e3d 163a 72bd 4e26 4c3e
00000200: b710 a13d 48b5 6a3b 0bfc 603e 6599 593e
00000210: e3f1 193e 9cb4 0ebd 6996 16be ccfb f23c
00000220: 661f a3bc efa3 e93c e33b 29bc 61e2 92bc
00000230: f5ca 223e 544c 4a3d 0361 01bb b80e 1cbe
00000240: 06ce 9cbc e823 0cbc 8eb5 013e 592a dc3d
00000250: 2205 b0bd ec57 25bd 511d d2bc fe14 023e
00000260: 1608 223d ff84 25bd ec9a 09be cba2 5d3d
00000270: b761 dfbd ccbf b23d 0008 703d d2d4 1ebd
00000280: b02a 25bd 24d0 953d 9d6a 56be 20a6 82bd
00000290: a2e6 0abd af9a 853d 94cf ce3e b552 20bd
000002a0: 3e51 ee3d 45c5 293d 89cd 743c 00d8 213f
000002b0: cadf 8dbc eaf4 793d 86a6 443d bd6c 6abd
000002c0: 4118 2f3d 2950 99bb ad9c 483b 6cec a73c
000002d0: 66d9 46bd e3c4 d4bb 8b4a 54be 186c 3c3e
000002e0: 14d7 d7bc acc4 a3bc dddc efbd 33ae 06be
000002f0: a5d8 163d 9f99 e33d 6adf 993d f121 a83e
00000300: 74df 0e3d 2775 b23d 768e 16bc e82c 203d
00000310: fadf f33c de18 8a3d 9e62 48be a069 02bc
00000320: 513f 2e3d 611e 72be 4be2 2b3e 2617 503e
00000330: 34a8 a7bd fd28 0e3c eeaa 9a3d 1df6 0abd
00000340: 8a54 4a3d 7e8c 6f3d 4dda 433d 5254 3cbd
00000350: e4ba 82bd f48d 613e 4880 08bd c996 833c
00000360: 4a3e a33d bc0a 2b3d e1b7 28bd f6df d73c
00000370: 19d3 adbd 0f6e d2bc 0c5e d83d 2cf7 cc3d
00000380: 7529 a63d e6ff 5cbc 7db7 1a3d 9be7 043e
00000390: 59c2 e13c 6a72 dc3d c2f3 253d 2a16 ff3d
000003a0: 2be8 093c 6645 003e e814 68bc ea5c 813e
000003b0: 4c1e 963c 29ed b73d 3664 2cbd 7ef5 d1bd
000003c0: 3286 adbe 411a 053d 77d4 c3bd ed07 ac3d
000003d0: ab59 283e 0110 893d 32d0 50be 291f b53c
000003e0: 8cc8 a5be 313b 803f f372 66bd 0ebe 33bd
000003f0: b45d 113f 9dad 0dbf 2b3b f03c bca6 39bd

fc.bias f4 [3]
0.002111279 0.03930839 -0.0018332984
00000000: 625d 0a3b d601 213d 494b f0ba
