model_LSTM/best_model.pth (torch, 121072 bytes, 8 tensors)

lstm.weight_ih_l0 f4 [200, 62]
0	0xbd522242	-0.051302202
1	0x3c29a516	0.010354301
2	0xbb046a99	-0.0020205139
3	0xbd8abaa2	-0.06773879
4	0x3e107678	0.14107692
5	0x3d762015	0.06008919
6	0x3e0b405a	0.13598767
7	0x3e02bfa1	0.12768413
8	0xbdf792bb	-0.120885335
9	0x3dae6507	0.08515363
10	0x3da1bcfd	0.07897375
11	0xbde11ec6	-0.10992198
12	0x3d9ba6f6	0.07600205
13	0x3cd375ba	0.025812972
14	0x3e129c2b	0.14317386
15	0x3d975dec	0.07390961
16	0x3d8aabeb	0.06771072
17	0xbd8d1460	-0.06888652
18	0x3d8591d0	0.06521952
19	0x3e7a9156	0.24469504
20	0x3d8ee121	0.06976534
21	0x3d519120	0.051163793
22	0x3e3018ec	0.17197007
23	0x3de8661a	0.11347599
24	0xbe31875e	-0.17336795
25	0x3d07f12a	0.033188976
26	0x3d3677a6	0.0445477
27	0x3dd3a597	0.10334318
28	0x3e6b8d16	0.23003039
29	0xbcb49971	-0.022045823
30	0xbd3f5b9b	-0.04671822
31	0x3e2379ed	0.1596448
32	0xbd9f9d7e	-0.07793711
33	0xbd76c1ac	-0.060243294
34	0xbe043771	-0.12911774
35	0x3df3dcb8	0.11907333
36	0x3df3fcc5	0.11913446
37	0xbcc21f32	-0.023696516
38	0xbe064898	-0.1311363
39	0xbd9ce91b	-0.07661649
40	0x3dfe22cc	0.12408981
41	0xbd0b4e31	-0.034010116
42	0xbe1d7e21	-0.15380146
43	0x3da10f0e	0.078641996
44	0xbd2cd2a4	-0.04219307
45	0xbd748238	-0.0596945
46	0xbcb5dbfc	-0.022199623
47	0x3d5a7d53	0.053342175
48	0x3d1d3c32	0.038387485
49	0x3deac6c2	0.11463691
50	0x3c1ee6c3	0.009698573
51	0x3b3f422a	0.0029183724
52	0xbdf87200	-0.12131119
53	0x3e1817ef	0.1485288
54	0xbde3aabf	-0.111165516
55	0xbe060548	-0.13087952
56	0xbdb15c61	-0.08660198
57	0x3cf0f916	0.029415648
58	0x3cdc5138	0.026894197
59	0xbe45a17c	-0.19299883
60	0x3d8cf290	0.068822026
61	0x3d6b2698	0.057409853
62	0xbdd15a1d	-0.10222266
63	0xbc8c712a	-0.017143805
64	0x3ccb62ae	0.024827328
65	0xbe34c952	-0.17654923
66	0xbe0024b1	-0.12513997
67	0xbbe2885b	-0.0069132275
68	0x3cc7e0f0	0.02439925
69	0xbe492c2a	-0.19645754
70	0xbd51ffe9	-0.051269446
71	0x3e138e48	0.14409745
72	0xbe17f9ee	-0.14841434
73	0xbd2149ba	-0.03937695
74	0x3dd0f444	0.1020284
75	0x3d1aba5c	0.037775382
76	0xbdc666b3	-0.09687557
77	0xbe538db5	-0.20659526
78	0x3e0b5523	0.13606696
79	0x3e16c6ad	0.14724226
80	0x3e3cfaf5	0.18455108
81	0x3e48d179	0.19611157
82	0xbe11ef07	-0.14251338
83	0xbe23d4a5	-0.15999086
84	0x3d764e1d	0.06013309
85	0xbe533760	-0.20626593
86	0xbd250aef	-0.04029363
87	0xbe3e87ee	-0.1860654
88	0x3d5d0b0b	0.05396561
89	0x3cc657ca	0.024211783
90	0x3c390001	0.011291505
91	0x3d91fec3	0.0712867
92	0x3bc31a64	0.0059540737
93	0x3d6a121e	0.057146184
94	0x3d1a6f15	0.037703592
95	0xbdc053fc	-0.09391019
96	0x3d5f3e92	0.05450303
97	0x3cca0881	0.024662258
98	0xbcbd812f	-0.023132889
99	0x3ae0e89b	0.0017159166
100	0x3c69ee31	0.014277981
101	0xbc744e58	-0.014911257
102	0x3d651935	0.055932242
103	0x3e002be1	0.12516738
104	0xbcdc2c4e	-0.026876595
105	0x3d39bef1	0.04534811
106	0x3db696e5	0.089154996
107	0x3c897473	0.01677916
108	0xbdbe402b	-0.09289583
109	0x3d3e6fef	0.046493467
110	0x3db6d274	0.089268595
111	0xbda2b8f4	-0.07945433
112	0x3d4873bd	0.0489385
113	0x3dcb5270	0.09927833
114	0x3e11cbc1	0.14237882
115	0xbdd54562	-0.10413624
116	0xbd3d3585	-0.04619362
117	0x3d4d67c6	0.050147794
118	0x3d120583	0.035649788
119	0x3e0d291a	0.1378521
120	0x3de8d41d	0.113685824
121	0x3d85010e	0.06494342
122	0xbdec8858	-0.11549443
123	0x3dde7080	0.108613014
124	0xbd88113a	-0.06643911
125	0x3ba0d8a6	0.004908639
126	0x3c52df60	0.01287064
127	0x3d9c29a4	0.0762513
128	0x3e314d0b	0.17314546
129	0x3cee1341	0.029061915
130	0xbe1d7eb8	-0.1538037
131	0x3aecd574	0.0018068985
132	0xbdb92004	-0.090393096
133	0xbda81511	-0.08207143
134	0xbd956e12	-0.07296385
135	0xbb934978	-0.004494842
136	0x3d3d077c	0.046149716
137	0xbe0c5459	-0.13704051
138	0xbd127e41	-0.035764936
139	0xbd2ca0c4	-0.042145506
140	0x3a9b4580	0.0011846274
141	0xbdc0ffca	-0.09423788
142	0xbdda4b6e	-0.10658918
143	0x3d3a706c	0.04551737
144	0xbc235582	-0.009969117
145	0x3dcf04e5	0.101083554
146	0x3d922c92	0.07137407
147	0xbe17a682	-0.14809611
148	0x3d82cad9	0.06386346
149	0x3d9873f7	0.074439935
150	0xbe41dff0	-0.18933082
151	0x3cdc2d15	0.026876966
152	0x3cb38027	0.021911694
153	0xbcaa2ae5	-0.020772407
154	0xbdf2d1ab	-0.11856397
155	0x3e051c31	0.12999035
156	0x3dcd0829	0.10011322
157	0xbd5a4cb9	-0.053295825
158	0x3c2c248e	0.010506762
159	0x3de31fb9	0.11090035
160	0xbe584114	-0.21118575
161	0x3daba9e5	0.08382014
162	0xbc7956bc	-0.015218433
163	0xbc30e0b4	-0.010795761
164	0xbdcae61a	-0.0990717
165	0xbdb6cc91	-0.08925737
166	0x3cdcbdba	0.026945937
167	0x3cd67b62	0.02618188
168	0xbd0d81c3	-0.03454758
169	0x3de95538	0.11393207
170	0x3d1e1da9	0.038602505
171	0xbc90b0f0	-0.017662495
172	0xbe18b5a9	-0.14913048
173	0xbe5cff94	-0.2158187
174	0x3d8475cc	0.064677805
175	0x3dd60e96	0.10452001
176	0xbda9876c	-0.08277783
177	0x3e3c59f1	0.18393685
178	0xbc216d51	-0.009852723
179	0xbd53a2a8	-0.051668793
180	0x3d82118b	0.06351002
181	0x3d3064f0	0.04306501
182	0xbe266900	-0.16250992
183	0xbdfe46de	-0.124158606
184	0x3e160a1e	0.14652297
185	0xbe14d91c	-0.14535946
186	0x3e0cbfdc	0.13745064
187	0xbd695cff	-0.056973454
188	0xbdafb9fb	-0.08580395
189	0x3c0134ed	0.007886154
190	0xbd0369bd	-0.03208326
191	0xbdbf3409	-0.09336097
192	0x3e17afe7	0.14813195
193	0x3d9ca76b	0.0764912
194	0xbda6472e	-0.08119045
195	0x3d83542e	0.064125404
196	0x3e06bbb3	0.13157539
197	0x3d1af115	0.03782757
198	0xbdea6040	-0.114441395
199	0xbdb90d44	-0.09035733
200	0x3d4a2591	0.049352232
201	0x3d999e8e	0.07500945
202	0xbda79728	-0.08183128
203	0x3dcf7bc0	0.10131025
204	0x3c01925c	0.00790843
205	0xbd766b48	-0.060160905
206	0xbc8f68d9	-0.01750605
207	0x3ca8128b	0.020516654
208	0xbda51927	-0.08061438
209	0xbd88dcab	-0.06682714
210	0xbe4164c1	-0.18886091
211	0xbe3fd065	-0.1873184
212	0xbdc38452	-0.095467225
213	0x3d00c2e0	0.031435847
214	0xbdd79c2e	-0.10527836
215	0xbe4a2304	-0.1973992
216	0xbe045cf2	-0.12926081
217	0xbcd2985a	-0.025707413
218	0xbcaabcaf	-0.020841924
219	0xbe1b9198	-0.15192258
220	0xbd5a3b86	-0.053279422
221	0x3d3a4690	0.04547745
222	0xbe08c45c	-0.13356155
223	0x3d4dc184	0.05023338
224	0xbe0c2667	-0.13686524
225	0xbdbf0af1	-0.09328259
226	0xbd035f23	-0.03207315
227	0x3b7b8fb7	0.0038385221
228	0x392398bc	0.0001560179
229	0x3db25851	0.08708251
230	0x3e16f0ea	0.14740339
231	0x3c687bd3	0.014189678
232	0xbc946646	-0.018115174
233	0x3ddcd058	0.10781926
234	0x3d9a39a3	0.075305246
235	0xbe04f539	-0.1298417
236	0xbe2987de	-0.16555735
237	0xbdd28a1f	-0.10280251
238	0xbce1d206	-0.027565967
239	0xbdd33c23	-0.103142045
240	0x3c0b62b7	0.008507422
241	0x3cda3a19	0.026639031
242	0xbe301368	-0.17194903
243	0xbddbd4e8	-0.10733968
244	0x3c7ea767	0.0155428415
245	0x3dafd3e2	0.08585335
246	0xbdebe0e0	-0.11517501
247	0xbdcdf6b3	-0.1005682
248	0xbe0bc66d	-0.13649912
249	0xbdbf2b93	-0.09334483
250	0xbd9cfd20	-0.07665467
251	0xbdb35ea6	-0.08758287
252	0xbe131ae8	-0.14365733
253	0x3d0efd72	0.034909673
254	0xbd0c7099	-0.03428707
255	0xbdd59949	-0.104296274

lstm.weight_hh_l0 f4 [200, 50]
0	0x3e21a68f	0.15786193
1	0xbdaa1080	-0.083039284
2	0xbd6285d0	-0.055303395
3	0xbddb3c2a	-0.10704835
4	0xbbadb0e3	-0.0053006276
5	0xbe804f58	-0.25060534
6	0x3dbf5218	0.0934183
7	0x3d078463	0.03308524
8	0x3cc5ff9a	0.024169732
9	0x3dc08684	0.09400657
10	0xbdd10730	-0.10206449
11	0x3e008d50	0.12553906
12	0xbd3a18b7	-0.045433726
13	0x3d9a69ff	0.075397484
14	0xbe04fdb8	-0.12987411
15	0xbd258f91	-0.04042012
16	0xbd013189	-0.03154138
17	0x3d6f8da0	0.058484674
18	0xbe2b53d9	-0.16731204
19	0xbe2836a8	-0.164271
20	0xbe642465	-0.22279508
21	0x3dceb29c	0.10092661
22	0xbd71b1b9	-0.05900738
23	0xbdb3d371	-0.087805636
24	0x3c098e74	0.00839578
25	0x3dc76cc4	0.09737542
26	0x3df84752	0.12122978
27	0x3ceefc8c	0.029173158
28	0xbe273aa0	-0.16330957
29	0x3e1ee662	0.15517572
30	0x3d4d9cd4	0.05019839
31	0xbe009068	-0.12555087
32	0xbdd6dacf	-0.10490953
33	0xbdcf5c39	-0.10125012
34	0xbcbfbc6f	-0.023405282
35	0x3daedb57	0.085379295
36	0x3d498322	0.049197324
37	0xbd0f383a	-0.03496573
38	0xbd107036	-0.035263263
39	0xbd8287b3	-0.06373539
40	0x3e73ce16	0.23809084
41	0x3e4d2f77	0.20037638
42	0x3cdde1a8	0.02708514
43	0xbd9d0443	-0.076668285
44	0x3d484576	0.048894368
45	0xbd90ea9a	-0.07075997
46	0x3d706a1b	0.05869494
47	0x3e582e3c	0.21111387
48	0xbdd1d948	-0.10246521
49	0x3e4c282c	0.199372
50	0x3acd6199	0.0015669345
51	0x3cd93d00	0.026518345
52	0x3bf8adf7	0.0075890976
53	0xbe3e0729	-0.18557419
54	0x3e4c9209	0.19977583
55	0x3e119673	0.14217548
56	0xbc8e760c	-0.017390274
57	0xbd7a89cf	-0.06116658
58	0xbe030d24	-0.12797982
59	0x3deea513	0.11652579
60	0x3d1b1ce7	0.03786936
61	0xbda99a0c	-0.08281335
62	0x3d3b521a	0.045732595
63	0xbca7f8a8	-0.02050431
64	0x3dcd0c57	0.10012119
65	0x3cbf4102	0.023346428
66	0xbd23cca8	-0.039990097
67	0x3e127990	0.14304185
68	0x3ded2957	0.115801506
69	0x3e264c3b	0.16240017
70	0xbdeabc4e	-0.114616975
71	0x3db8b838	0.09019512
72	0xbdef1982	-0.11674787
73	0xbd5cd91c	-0.05391799
74	0x3c842a50	0.016133457
75	0xbde642c3	-0.112432025
76	0x3e0445b2	0.12917212
77	0x3d913353	0.070898674
78	0xbd8b90a7	-0.068146996
79	0xbd4a21ae	-0.049348526
80	0xbd8d64f1	-0.06904019
81	0x3d573c4d	0.05254774
82	0x3dab5e86	0.08367638
83	0x3e19bc29	0.15013184
84	0x3caf771c	0.0214191
85	0x3e0b113f	0.13580798
86	0x3e0cce86	0.13750657
87	0x3dba258d	0.090891935
88	0xbdb63847	-0.08897453
89	0x3e3eaea5	0.18621309
90	0x3ab6239b	0.0013896109
91	0x3d3b376f	0.045707162
92	0x3daf2907	0.08552747
93	0x3e68568a	0.22689262
94	0xbe7ebb3b	-0.2487611
95	0x3dbcfd01	0.09227944
96	0xbe4c817d	-0.19971271
97	0xbd9b88b0	-0.075944304
98	0xbd39d1b1	-0.045365993
99	0x3e049df6	0.12950882
100	0x3ca7e7de	0.020496305
101	0x3e11b7d5	0.14230283
102	0x3cac0652	0.020999108
103	0x3d738b4d	0.05945902
104	0xbe3d63f3	-0.18495159
105	0x3e445569	0.19173206
106	0xbdc025cf	-0.093822114
107	0xbd88bc24	-0.0667651
108	0xbd3523c4	-0.044223562
109	0x3e29df5c	0.16589111
110	0xbc7136d1	-0.014722542
111	0xbd40518d	-0.046952773
112	0xbded7a52	-0.115955964
113	0x3db29cfc	0.08721349
114	0x3d742615	0.05960663
115	0x3d86f374	0.06589404
116	0x3ccda51d	0.025103146
117	0x3e0f9dd1	0.14025046
118	0xbd947051	-0.07247985
119	0x3db4cea6	0.088284776
120	0xbda5942f	-0.080849044
121	0xbd9c5eef	-0.07635295
122	0x3c9aca9e	0.018895444
123	0x3d63ca6e	0.055612974
124	0x3e838565	0.2568771
125	0xbdb8d0f9	-0.09024233
126	0x3d6f330e	0.0583983
127	0xbe3d96dd	-0.18514581
128	0x3cc5725f	0.024102388
129	0xbd601ad6	-0.054713093
130	0x3d269464	0.04066886
131	0xbda2822b	-0.07934984
132	0x3d69c58b	0.057073157
133	0xbcd87ccf	-0.0264267
134	0x3d1e6612	0.03867156
135	0x3db74184	0.08948043
136	0x3dca96a6	0.09892015
137	0xbe0ea462	-0.13929895
138	0xbe1a5b56	-0.15073904
139	0xbd7f116b	-0.06227247
140	0xbd83b22d	-0.06430469
141	0x3e10e69e	0.14150473
142	0xbdfa5bd2	-0.122245446
143	0xbddaa52b	-0.106760345
144	0xbe37a669	-0.17934574
145	0xbd844802	-0.06459047
146	0xbd674799	-0.056464765
147	0xbb360109	-0.0027771613
148	0xbd737d98	-0.059445947
149	0xbe15c090	-0.14624238
150	0xbd2d576c	-0.0423197
151	0xbdd0546b	-0.101723514
152	0x3e1977f2	0.14987162
153	0x3d854cce	0.0650879
154	0xba7363ec	-0.0009284604
155	0x3d8aca69	0.06776888
156	0x3d075394	0.03303869
157	0xbdb9cb40	-0.0907197
158	0xbd7b4008	-0.06134036
159	0xbdc37bcf	-0.09545099
160	0x3d614960	0.055001616
161	0xbdf5b4c1	-0.11997367
162	0x3c0f091d	0.0087302
163	0xbe4a94d7	-0.1978334
164	0xbd7090c0	-0.058731794
165	0x3c99a9c4	0.018757708
166	0xbd1eb9fc	-0.038751587
167	0xbd8201da	-0.063480094
168	0x3cfc9049	0.03083052
169	0x3df4b920	0.11949372
170	0xbcf9c944	-0.030491479
171	0xbe3fc740	-0.18728352
172	0xbd6d1f54	-0.057891205
173	0xbd151e74	-0.036405995
174	0x3cb93afe	0.022611137
175	0x3e252aa3	0.16129546
176	0x3e08a0c9	0.13342585
177	0xbb1003f3	-0.002197501
178	0x3daed76a	0.08537181
179	0x3e66a28f	0.22522949
180	0xbd1704fb	-0.036869984
181	0x3d909d87	0.07061296
182	0xbd2e8679	-0.042608712
183	0x3cd62b5c	0.026143722
184	0xbe28fa45	-0.1650172
185	0xbdfbb141	-0.12289668
186	0xbdcaf0f9	-0.09909243
187	0xbd4b5ed8	-0.049650997
188	0x3d891a5e	0.06694482
189	0x3d84821d	0.0647013
190	0xbe0b8c97	-0.1362785
191	0xbbbaa26f	-0.005695633
192	0x3c6ee9dd	0.014582125
193	0x3e3366e0	0.17519712
194	0xbe0b9bfd	-0.13633724
195	0x3d61f6da	0.055167057
196	0xbd3d98ee	-0.046288423
197	0x3d3eda74	0.046595052
198	0xbd305c2a	-0.043056644
199	0x3dd27723	0.1027663
200	0x3d3c08ac	0.045906708
201	0x3d51abbe	0.051189177
202	0xbba3a1f5	-0.004993672
203	0xbe24e431	-0.16102673
204	0x3b29c3b6	0.0025904006
205	0x3df08fbd	0.11746166
206	0xbd02fd1b	-0.03197966
207	0xbdc8b119	-0.09799404
208	0xbbc785d0	-0.0060889497
209	0x3db1c2fe	0.0867977
210	0x3d7541e3	0.059877288
211	0xbe3528ac	-0.17691296
212	0x3d7b3930	0.061333835
213	0xbc670c38	-0.014102034
214	0xbe639d5a	-0.22227994
215	0x3e2b6d94	0.1674102
216	0x3df44178	0.1192655
217	0xbe1fc276	-0.15601525
218	0xbea998d0	-0.331244
219	0xbe3c14fc	-0.1836738
220	0xbe3a18d9	-0.18173541
221	0x3d970dea	0.07375701
222	0x3de19557	0.110148124
223	0x3d602bfd	0.05472945
224	0x3a5f5172	0.0008518911
225	0x3da764d6	0.0817353
226	0x3e1da840	0.15396214
227	0xbd61331d	-0.054980386
228	0xbe4a1603	-0.1973496
229	0x3de4e25a	0.11175986
230	0xbba2cb18	-0.0049680583
231	0xbbf8f526	-0.0075975833
232	0xbda33efa	-0.07970996
233	0xbd20ea98	-0.039286226
234	0x3dce50f8	0.10074037
235	0x3e0724a2	0.13197568
236	0xbcc6685d	-0.024219686
237	0x3cd301c0	0.02575767
238	0xbdea0f0c	-0.11428651
239	0xbc2798da	-0.010229314
240	0x3b0ac68d	0.0021175474
241	0xbe00f80c	-0.12594622
242	0x3e0fbf47	0.1403781
243	0xbd80c885	-0.06288246
244	0x3ce8bcfe	0.028410431
245	0x3d9ba363	0.07599523
246	0xbea00ac9	-0.31258228
247	0x3ca44399	0.020051764
248	0x3e87d7c0	0.26531792
249	0xbc03a8a7	-0.008035815
250	0xbe0f743c	-0.14009184
251	0x3c2d6b22	0.0105846245
252	0x3d8b2f9b	0.067961894
253	0x3de95226	0.11392622
254	0xbe0ec86b	-0.13943641
255	0xbcdb3682	-0.02675939

lstm.bias_ih_l0 f4 [200]
0	0x3e030126	0.12793407
1	0xbdf09a66	-0.11748199
2	0xbca9612d	-0.02067622
3	0x3d919105	0.071077384
4	0x3c7b92c6	0.015354818
5	0xbe1de51a	-0.15419427
6	0x3de2a480	0.11066532
7	0x3d08f8b3	0.033440303
8	0xbd254366	-0.04034748
9	0x3d520886	0.05127766
10	0xbe146d3c	-0.14494795
11	0x3d0f37aa	0.034965195
12	0x3e5baac7	0.21451865
13	0x3d9aae61	0.075527914
14	0xbd59d6ce	-0.05318337
15	0x3e3c8538	0.18410194
16	0x3d48d9b5	0.049035747
17	0x3df6898a	0.12037952
18	0xbd8bcbee	-0.06826006
19	0x3dbf89dc	0.093524665
20	0x3d2ccbde	0.04218661
21	0xbe05b1fe	-0.1305618
22	0x3e24eca2	0.16105893
23	0xbdef36f6	-0.11680405
24	0x3e0fc6c8	0.14040673
25	0x3ded3c9c	0.11583826
26	0x3dfd6d6c	0.12374386
27	0x3e28d472	0.16487291
28	0x3da48b09	0.08034331
29	0xbd8d9120	-0.06912446
30	0xbb080c17	-0.002075916
31	0x3e03221d	0.12805982
32	0xbe0f2b10	-0.13981271
33	0xbdd656cd	-0.10465775
34	0xbd343685	-0.043997306
35	0xbd91cfc3	-0.071197055
36	0x3e437634	0.1908806
37	0xbd614784	-0.054999843
38	0xbd7eaa22	-0.06217397
39	0xbcb0e9f8	-0.02159594
40	0x3d5f8e00	0.05457878
41	0x3d7d4984	0.061837688
42	0x3e4f3527	0.2023512
43	0x3e247db7	0.16063581
44	0x3dade862	0.08491589
45	0xbd0baa49	-0.034097943
46	0xbe014710	-0.12624764
47	0xbd997159	-0.074923225
48	0xbd2616d0	-0.0405491
49	0xbaf40602	-0.0018617513
50	0x3db43542	0.087992206
51	0xbe16b101	-0.14715959
52	0x3d82fd3c	0.06395957
53	0x3dedca5b	0.11610862
54	0x3d829218	0.063755214
55	0x3e11b13e	0.14227769
56	0x3e20bdb9	0.15697373
57	0xbd12082a	-0.035652317
58	0x3d9b1310	0.07571995
59	0x3e1c4ff0	0.15264869
60	0xbde2c0fe	-0.110719666
61	0x3d181d21	0.037137154
62	0x3dba7670	0.091046214
63	0x3cc95729	0.024577694
64	0xbc9af095	-0.018913547
65	0x3e5960fd	0.21228404
66	0x3daa131f	0.08304428
67	0x3e22b92c	0.1589095
68	0x3dc38835	0.09547464
69	0x3e0735b2	0.13204077
70	0xbdc1ecdd	-0.09469006
71	0x3e161154	0.14655048
72	0xbdfbc223	-0.12292888
73	0x3e34d9dc	0.17661232
74	0x3d7a6552	0.061131783
75	0x3dbc019e	0.09179996
76	0x3df533cb	0.11972769
77	0x3d02c9f7	0.03193089
78	0xbde4fbc1	-0.11180831
79	0xbd6cb4eb	-0.057789724
80	0xbe003acb	-0.12522428
81	0xbd68f044	-0.05686976
82	0xbe13c3b1	-0.14430119
83	0xbe2b5d9b	-0.16734926
84	0xbe3f465e	-0.18679187
85	0xbe418f70	-0.18902373
86	0xbc8d7565	-0.017267892
87	0xbd5e0c49	-0.054210935
88	0x3d8d243d	0.068916775
89	0x3e22a4ef	0.1588323
90	0x3d0a27e5	0.033729453
91	0xbbd046aa	-0.00635608
92	0x3e2b8446	0.16749677
93	0xbe024b90	-0.12724137
94	0x3dec4c72	0.11538018
95	0xbdf30adc	-0.11867306
96	0xbd49fb7d	-0.049312104
97	0xbc628355	-0.013825257
98	0x3be2a30c	0.0069164094
99	0x3c0d3077	0.008617512
100	0x3c250b57	0.010073504
101	0x3e1e0bb2	0.15434149
102	0xbbc3daa0	-0.00597699
103	0x3e01d5eb	0.1267926
104	0x3dfa38bb	0.12217852
105	0x3e26b18b	0.16278665
106	0xbd562e54	-0.052290276
107	0x3dd7297a	0.10505958
108	0x3d82947b	0.06375977
109	0xbdd80051	-0.10546935
110	0x3daa0893	0.08302417
111	0x3d537fd5	0.051635582
112	0xbd1a646d	-0.03769343
113	0xbe04393b	-0.12912457
114	0x3d033c23	0.032039773
115	0xbdbc8eb1	-0.09206904
116	0xbd3f424e	-0.046694092
117	0x3d4b3074	0.049606755
118	0xbc2fdc24	-0.010733638
119	0x3dc11151	0.09427131
120	0x3d91da1d	0.0712168
121	0xbc2888f8	-0.010286562
122	0x3c08f46f	0.008359059
123	0x3aeba530	0.0017978307
124	0xbd7165a6	-0.05893483
125	0x3d12681e	0.035743825
126	0x3dbc0cb2	0.09182109
127	0x3e0c9048	0.13726914
128	0xbd8e93bb	-0.06961771
129	0xbdbacb48	-0.09120804
130	0xbd88780f	-0.06663524
131	0x3e46de66	0.19420776
132	0x3dcab4c0	0.098977566
133	0x3d007bbf	0.031368013
134	0xbe140b5f	-0.14457463
135	0x3d21f650	0.039541543
136	0xbc7a7be1	-0.015288324
137	0xbd7c3d32	-0.061581798
138	0x3ddf5696	0.10905187
139	0x3d1b8791	0.037971083
140	0x3d659f29	0.05605999
141	0x3db65ace	0.08904038
142	0x3e1dc48f	0.15407012
143	0xbe3efbf8	-0.18650806
144	0x3e4ee161	0.20203163
145	0xbd79faca	-0.061030187
146	0x3c6044fc	0.013688322
147	0xbe1f8665	-0.15578611
148	0x3da7a0c2	0.08184959
149	0xbb8ec9d9	-0.004357558
150	0xbdd5a32d	-0.10431514
151	0x3e436825	0.19082697
152	0x3dc9e361	0.09857822
153	0x3e0da4c8	0.1383239
154	0x3c01462b	0.0078902645
155	0x3dbbf6bc	0.0917792
156	0x3d82a4de	0.06379102
157	0x3cda4bf0	0.026647538
158	0x3d7f9dbe	0.062406294
159	0x3d748fba	0.05970738
160	0xbde1a3e6	-0.11017589
161	0x3d406302	0.04696942
162	0xbd5d8a12	-0.054086752
163	0x3db43c31	0.08800543
164	0x3ccc706a	0.024955947
165	0x3dbb2e71	0.09139717
166	0xbdced1d1	-0.10098613
167	0xbcbd3670	-0.023097247
168	0x3e1b1f6f	0.1514871
169	0x3d3f8e6c	0.046766683
170	0x3e965452	0.29361206
171	0x3e100989	0.14066137
172	0xbd54a37c	-0.051913723
173	0x3e1935b1	0.14961888
174	0x3db3b65a	0.08775015
175	0x3de95003	0.11392214
176	0x3dc6a248	0.096989214
177	0x3e3a0f2c	0.1816985
178	0xbbd4c09f	-0.006492689
179	0x3d886cf9	0.0666141
180	0x3e34c13a	0.17651835
181	0xbc204089	-0.009781011
182	0x3da23996	0.0792114
183	0x3d893bbb	0.06700846
184	0xbd5686bc	-0.052374586
185	0x3ddeb20d	0.10873804
186	0x3e115f6f	0.14196561
187	0xbd7d8c53	-0.0619014
188	0xbc8532d6	-0.016259592
189	0xbdc07179	-0.09396643
190	0x3e21d8c9	0.15805353
191	0x3d12ec12	0.035869665
192	0x3bd65c79	0.0065417853
193	0xbb97489f	-0.0046168114
194	0x3e546b0d	0.20743962
195	0x3d12730f	0.03575426
196	0xbe6331d0	-0.2218697
197	0xbd4bf801	-0.04979706
198	0x3bd934d0	0.00662861
199	0xbd74abb8	-0.059734076

lstm.bias_hh_l0 f4 [200]
0	0x3da8149b	0.08207055
1	0xbcb1fd09	-0.021727102
2	0xbd2d6837	-0.042335715
3	0xbdaa2e32	-0.08309592
4	0x3c65f9a9	0.014036574
5	0xbade190e	-0.0016944723
6	0x3e13e255	0.14441808
7	0x3af4a9ee	0.0018666366
8	0xb8f14400	-0.000115044415
9	0xbdd8b9e1	-0.105823286
10	0xbd1baa6b	-0.03800432
11	0x3e0d02bc	0.13770574
12	0x3d11159d	0.035421003
13	0xbdbcc964	-0.092181
14	0x3e2e8c95	0.17045815
15	0x3df8e364	0.12152746
16	0x3db29fd8	0.08721894
17	0xbd95de8e	-0.073178396
18	0x3d51d786	0.05123093
19	0xbe30189b	-0.17196886
20	0xbe1d8109	-0.15381254
21	0xbe45e9d5	-0.19327481
22	0xbd1c3dd0	-0.038144886
23	0xbe23788d	-0.15963955
24	0xbc8ea01f	-0.017410336
25	0x3e39f4c8	0.18159783
26	0x3d873211	0.06601346
27	0xbb82d0b3	-0.003992164
28	0x3e26646c	0.16249245
29	0x3de6af11	0.1126386
30	0x3e427c21	0.18992664
31	0x3d0b29e9	0.033975516
32	0x3dd5d8f1	0.10441769
33	0x3cea8553	0.028628027
34	0xbdff2aff	-0.12459373
35	0x3c997ad5	0.018735329
36	0x3e3b7679	0.18306912
37	0x3da8b2c4	0.08237222
38	0x3db3c644	0.087780505
39	0x3e2cf1c1	0.16889097
40	0x3e142e3a	0.14470759
41	0xbb62ed50	-0.0034626313
42	0x3d35472a	0.04425732
43	0xbd2be57f	-0.04196691
44	0x3cbdb5a7	0.023157908
45	0x3ddaa594	0.10676113
46	0x3d9714f6	0.07377045
47	0x3d66591a	0.056237318
48	0x3d3bfab9	0.045893405
49	0x3e6566f2	0.22402552
50	0x3e2ffdc6	0.1718665
51	0xbe1e0dc0	-0.15434933
52	0xbd86d06d	-0.06582723
53	0xbc925e85	-0.017867336
54	0x3e0f0dd0	0.13970113
55	0x3db08ba9	0.08620388
56	0xbdaa588d	-0.08317671
57	0x3e49ada7	0.1969515
58	0x3e0632fa	0.13105384
59	0x3e1833da	0.1486353
60	0xbd5f1903	-0.054467212
61	0x3d51137e	0.05104398
62	0x3c16438e	0.00917138
63	0x3e289bd7	0.16465698
64	0x3dc6e29b	0.0971119
65	0x3e783061	0.24237205
66	0x3d5eea45	0.054422636
67	0xbc2391cf	-0.009983494
68	0x3e118966	0.1421257
69	0xbb54708e	-0.003241572
70	0x3d90a870	0.07063377
71	0x3e0899ae	0.13339874
72	0x3c63341d	0.013867405
73	0x3e19b096	0.15008768
74	0xbd05f6eb	-0.032706182
75	0xbdc2114a	-0.09475954
76	0x3d94da2a	0.07268174
77	0x3db6b879	0.08921904
78	0xbc96fc0f	-0.018430738
79	0x3db76a2b	0.08955797
80	0xbc25523a	-0.010090405
81	0xbac5303a	-0.001504428
82	0x3c8c36cf	0.017115979
83	0xbdfcdda2	-0.123469606
84	0xbe47e821	-0.19522144
85	0xbe13b108	-0.14423001
86	0x3ddbe986	0.107379004
87	0xbdac5e7b	-0.08416458
88	0x3dd8fa22	0.10594584
89	0x3e57b890	0.21066499
90	0x3e15dc14	0.14634734
91	0xbc8c9fd2	-0.017166052
92	0x3e282ddd	0.16423745
93	0x3d2bb0db	0.04191671
94	0x3d302112	0.04300029
95	0x3d21f82a	0.03954331
96	0xbe32365b	-0.17403547
97	0x3e0ed5a2	0.13948682
98	0x3c83f94c	0.016110085
99	0xbdade574	-0.0849103
100	0x3dd7255d	0.10505173
101	0x3e2683c7	0.16261207
102	0x3db23693	0.087018155
103	0x3b85d344	0.0040840227
104	0xbdfce3e9	-0.12348158
105	0x3cb86cc6	0.022512805
106	0xbdc485fe	-0.095958695
107	0xbd0c96fd	-0.03432368
108	0xbda1d85e	-0.07902597
109	0xbc5bf1f9	-0.01342439
110	0x3ddd88cf	0.1081711
111	0xbc647373	-0.013943541
112	0xbdb393d0	-0.08768427
113	0xbdf2afaa	-0.118499115
114	0xbcad024d	-0.021119261
115	0xbdb99dfb	-0.090633355
116	0xbbb68b55	-0.005570809
117	0xbdadccf1	-0.08486355
118	0x3d0f21b3	0.034944247
119	0xbd86dffc	-0.065856904
120	0x3df0579d	0.11735461
121	0x3e40006e	0.18750164
122	0x3cb71d52	0.022352848
123	0x3c814106	0.015778076
124	0x3bbd4105	0.005775573
125	0xbca62c9e	-0.020284947
126	0x3c3828cc	0.0112401955
127	0xbc63f77f	-0.013913988
128	0xbdef4649	-0.11683328
129	0xbe138806	-0.14407358
130	0x3bcaf982	0.0061942944
131	0xbbdd9dfe	-0.006763219
132	0x3e185050	0.14874387
133	0xbbcd689f	-0.0062685753
134	0x3ca41f01	0.020034315
135	0x3dfc793b	0.123278104
136	0x3d6078b7	0.054802623
137	0xbcebd6ee	-0.02878901
138	0x3e132ae4	0.1437183
139	0xbc9cb869	-0.019130902
140	0x3d9ffebd	0.07812259
141	0x3d287fb3	0.04113741
142	0x3b88cd1b	0.004174841
143	0xbd5b1979	-0.05349109
144	0xbbb5121d	-0.005525841
145	0xbd0f4008	-0.034973174
146	0xbdc748eb	-0.09730705
147	0x3db8ec0a	0.09029396
148	0xbdfd733b	-0.12375494
149	0xbd6c8d26	-0.057751797
150	0xbd3b4e05	-0.045728702
151	0x3e65ef22	0.22454503
152	0x3dea20e8	0.114320576
153	0x3df62b79	0.120200105
154	0xbdb67f2c	-0.08910975
155	0x3db2633b	0.08710333
156	0x3d7ba4d3	0.061436485
157	0x3bd0dcd6	0.006373982
158	0xbd3ec9a7	-0.04657903
159	0x3e604f49	0.21905245
160	0x3d03f89c	0.032219514
161	0x3e7c2355	0.24622853
162	0xbe04762f	-0.12935708
163	0x3e3dc7c8	0.18533242
164	0xbe12942e	-0.14314339
165	0x3cd6ee9e	0.026236828
166	0xbe2a4643	-0.16628365
167	0x3c56a343	0.013100448
168	0x3dacbf0d	0.084348775
169	0x3e1f25b9	0.15541734
170	0x3e59718f	0.21234725
171	0xbdc506cc	-0.09620437
172	0x3dbef36e	0.09323774
173	0x3e02ae0b	0.12761705
174	0xbcbd952b	-0.023142418
175	0x3e5b38d4	0.21408397
176	0x3cf4eb71	0.029897423
177	0x3e0af9e2	0.13571885
178	0x3e6859d6	0.2269052
179	0x3bc3994d	0.0059692026
180	0x3e0abc10	0.13548303
181	0xbdef1055	-0.11673037
182	0x3d56013a	0.052247263
183	0x3e8211e5	0.25404277
184	0x3ce006fa	0.027347077
185	0x3dee5dac	0.1163896
186	0x3c9ac651	0.018893393
187	0xbdc21bc7	-0.09477954
188	0xbe0b6c24	-0.13615471
189	0x3d3756db	0.044760566
190	0x3da36139	0.07977528
191	0x3c0a5a1f	0.008444338
192	0xbcb5cdca	-0.022192854
193	0xbdbe6b0d	-0.09297762
194	0x3e331719	0.1748928
195	0x3b8c3335	0.0042785653
196	0xbdeca366	-0.11554603
197	0x3cf19c82	0.029493574
198	0x3d579400	0.05263138
199	0x3c911561	0.01771039

fc_1.weight f4 [128, 50]
0	0x3da33c9c	0.07970545
1	0x3d58f3be	0.052966826
2	0x3c48afd0	0.012248948
3	0x3e123174	0.14276677
4	0x3e6d75c6	0.23189458
5	0xbe678ec3	-0.22613053
6	0xbd89b82c	-0.06724581
7	0x3e2bb297	0.16767345
8	0x3defe587	0.11713701
9	0x3d0d9806	0.03456881
10	0x3bfd5b97	0.0077318656
11	0x3d2da8cc	0.042397305
12	0xbe2d9505	-0.16951378
13	0xbe5038c5	-0.20334156
14	0x3e78fad9	0.24314441
15	0xbdbf4f2e	-0.09341274
16	0x3cbb4640	0.022860646
17	0x3e20c15b	0.1569876
18	0xbd83c20e	-0.06433497
19	0x3d321490	0.04347664
20	0x3d8599c5	0.0652347
21	0xbdb4732a	-0.08811028
22	0xbde2b9a6	-0.11070566
23	0x3daf446c	0.08557972
24	0x3e3dd134	0.18536836
25	0x3ea6c948	0.3257544
26	0xbd964e88	-0.073391974
27	0x3d8dec72	0.06929864
28	0x3d44af45	0.048018713
29	0xbdebcf80	-0.11514187
30	0xbe2e2ec6	-0.1701003
31	0x3e46966e	0.19393322
32	0xbdac11b2	-0.084018126
33	0x3e17962b	0.14803378
34	0xbdca3cf6	-0.098749086
35	0xbdde985b	-0.10868903
36	0x3e31ed81	0.17375757
37	0x3ba75029	0.0051059914
38	0xbb15029f	-0.0022737158
39	0xbe11f74a	-0.1425449
40	0xbdb2cf86	-0.08730988
41	0x3cd30d2a	0.025763113
42	0xbc9eedba	-0.019400466
43	0xbe7fcf35	-0.24981387
44	0x3e0d1f15	0.13781388
45	0xbe0b5e5b	-0.13610213
46	0xbc236302	-0.009972336
47	0xba429a8b	-0.00074235414
48	0x3e39564c	0.18099326
49	0x3db52910	0.08845723
50	0xbe851b2b	-0.2599729
51	0xbd719ed0	-0.058989346
52	0x3c05f11b	0.00817516
53	0xbe63ea5c	-0.2225737
54	0xbd72d6bd	-0.05928682
55	0x3e66c67c	0.22536653
56	0x3d245c53	0.04012711
57	0xbce30048	-0.027710095
58	0xbddd4873	-0.10804834
59	0x3e16adf2	0.14714792
60	0x3e6aae72	0.22918108
61	0xbe17a4c5	-0.14808948
62	0x3e67e546	0.22646055
63	0x3cdd1c64	0.026991077
64	0x3b9c58e4	0.004771339
65	0xbc02aaf4	-0.007975329
66	0xbd869e5c	-0.065731734
67	0xbcdbd670	-0.02683565
68	0xbdb92c9f	-0.09041714
69	0x3d5668f4	0.052346185
70	0x3d00f9f9	0.031488393
71	0x3e402ebd	0.18767829
72	0x3e96a9cc	0.2942642
73	0x3e54b200	0.20771027
74	0xbcc8c824	-0.024509497
75	0x3c3da154	0.011574108
76	0xbcce9cd9	-0.025221275
77	0x3a197f42	0.00058554497
78	0xbe334fc4	-0.17510897
79	0x3d97e0a6	0.07415895
80	0xbe057da6	-0.13036212
81	0xbdb00ec3	-0.085965656
82	0x3e110961	0.14163734
83	0x3c8c6966	0.017140102
84	0x3e55f964	0.20895916
85	0xbd9f88d9	-0.077897735
86	0xbde0e7b2	-0.109816924
87	0x3e884fbc	0.26623333
88	0xbdab7568	-0.08372003
89	0xbd13f51a	-0.03612242
90	0xbd8559a5	-0.06511239
91	0x3e44c622	0.19216207
92	0xbe15c131	-0.14624478
93	0x3e1fd0ee	0.15607044
94	0x3d1e4fbf	0.03865027
95	0x3e7e8e38	0.2485894
96	0x3cbafb60	0.022824943
97	0x3d895ba9	0.06706936
98	0xbe012e53	-0.12615328
99	0x3d0dd363	0.034625422
100	0x3e07b0a4	0.13250977
101	0x3e5fe728	0.21865523
102	0xbd84b0b0	-0.06479013
103	0xbdb3d21b	-0.08780309
104	0xbd2bdbbe	-0.04195761
105	0x3e2d9943	0.16952996
106	0x3c503031	0.012706802
107	0x3da8fb99	0.082511134
108	0x3dffb061	0.124848135
109	0xbd805221	-0.06265665
110	0x3e09d6a0	0.13460779
111	0xbe44fb63	-0.19236521
112	0x3d76a4bd	0.0602157
113	0x3e569973	0.20956974
114	0xbdab50f2	-0.083650485
115	0xbdaa2fc1	-0.083098896
116	0x3e9e9f02	0.30980688
117	0x3db2e472	0.08734979
118	0x3d8a6005	0.067565955
119	0xbe372279	-0.17884244
120	0x3e6ff88c	0.23434657
121	0x3d33b373	0.043872308
122	0x3e32d7be	0.17465112
123	0xbe2333d1	-0.15937735
124	0xbd126667	-0.03574219
125	0xbe04755c	-0.12935394
126	0xbe0499dd	-0.12949319
127	0xbdca593d	-0.09880302
128	0x3d2340ee	0.039856844
129	0x3d50f86c	0.051018164
130	0xbd0aa3af	-0.033847507
131	0x3c03f5d8	0.008054219
132	0xbdba6a8b	-0.09102353
133	0x3e2a9487	0.16658221
134	0xbdf4be93	-0.11950412
135	0x3e9794ff	0.29605862
136	0xbbec557f	-0.0072123404
137	0xbd9d26cd	-0.07673416
138	0x3e7de05a	0.24792615
139	0xbde5668d	-0.11201201
140	0x3d28971b	0.04115973
141	0x3d817736	0.06321566
142	0xbd3b585c	-0.045738563
143	0x3e331c8c	0.17491359
144	0xbd35285c	-0.044227943
145	0x3ccb39a5	0.02480776
146	0x3e64cd7f	0.22344016
147	0x3d2c378d	0.042045165
148	0x3df5c0cc	0.11999664
149	0x3e291359	0.16511287
150	0x3cb9f205	0.022698412
151	0x3d6cfdae	0.057859115
152	0xbbde9861	-0.0067930673
153	0x3d8de28f	0.06927978
154	0x3e57083b	0.20999233
155	0x3d45a354	0.048251465
156	0x3dd2487d	0.10267732
157	0x3e0a9c4e	0.13536188
158	0xbd21a549	-0.03946427
159	0x3d9245db	0.0714223
160	0x3daad4fe	0.08341406
161	0xbd763402	-0.060108192
162	0x3d69477a	0.05695293
163	0xbe291f72	-0.16515902
164	0xbe63f635	-0.2226189
165	0x3de87943	0.11351254
166	0x3cf0cb15	0.029393712
167	0x3e412cd0	0.18864751
168	0xbd93f818	-0.072250545
169	0x3e7a230b	0.2442743
170	0xbde4d192	-0.11172785
171	0x3c9aa1b4	0.018875934
172	0xbd6daf59	-0.058028553
173	0x3e02dea6	0.12780246
174	0x3e631c9c	0.22178882
175	0x3e549cff	0.20763014
176	0x3e32f515	0.17476304
177	0x3db2e85e	0.08735727
178	0x3d224293	0.03961427
179	0x3e142fe1	0.1447139
180	0xbd02b0e9	-0.031906996
181	0xbcc9ff25	-0.024657795
182	0x3d8a0084	0.067383796
183	0xbe210f39	-0.15728463
184	0xbd737c94	-0.05944498
185	0xbe03a7de	-0.12857005
186	0xbe076e89	-0.1322576
187	0x3e217bcf	0.15769885
188	0xbe46bf4b	-0.1940891
189	0x3dfd6714	0.12373176
190	0x3d863686	0.06553368
191	0xbd82908b	-0.06375226
192	0x3e696f3f	0.22796343
193	0xbdce3319	-0.1006834
194	0x3e3222cc	0.17396086
195	0x3dfb20b6	0.122620985
196	0xbc8930f5	-0.016746977
197	0xbe23a1fa	-0.15979758
198	0xbbeef5c0	-0.0072924793
199	0x3da283c6	0.0793529
200	0xbd18a8d7	-0.037270393
201	0x3e479c75	0.19493277
202	0xbc83fe5d	-0.0161125
203	0x3d635034	0.05549641
204	0xbd3aa447	-0.045566823
205	0x3d5151ab	0.051103275
206	0xbd59154a	-0.05299882
207	0xbc5c6093	-0.013450759
208	0xbc380e3c	-0.0112338625
209	0x3d7b5fb2	0.06137056
210	0x3d2f8743	0.042853605
211	0xbe7df0e5	-0.24798925
212	0xbcd7b39e	-0.026330765
213	0x3da7921f	0.08182167
214	0xbd8f95a3	-0.07010963
215	0x3e2c0e2a	0.16802278
216	0x3d5055bf	0.050863024
217	0xbde09e8a	-0.10967739
218	0x3cf3e198	0.029770657
219	0x3d5cfadc	0.053950176
220	0xbb0b3146	-0.0021239086
221	0x3d4d179d	0.050071348
222	0x3eb4c545	0.35306755
223	0xbd8fd50e	-0.07023059
224	0xbe50edf7	-0.20403276
225	0xbcc6ea3f	-0.02428162
226	0xbd8425f2	-0.0645255
227	0x3e51c446	0.20485029
228	0xbe46fd92	-0.19432667
229	0x3e675e53	0.22594576
230	0x3dc1dd3b	0.094660245
231	0xbdf6a0f6	-0.120424196
232	0x3dc9b0e5	0.09848193
233	0xbc130795	-0.008973976
234	0x3bd330ff	0.00644505
235	0x3de208ec	0.11036858
236	0xbe867aaf	-0.26265475
237	0x3e123248	0.14276993
238	0x3e439a36	0.19101796
239	0xbd934be5	-0.0719221
240	0x3c8d51b5	0.017250875
241	0x3de0a0e0	0.109681845
242	0xbd725840	-0.059166193
243	0x3d24dbee	0.040248804
244	0x3d723473	0.05913205
245	0x3df95d7b	0.12176033
246	0x3dddfd51	0.10839332
247	0x3e62509d	0.22101064
248	0xbd631cec	-0.055447504
249	0x3b4d291d	0.0031305023
250	0x3d622ca0	0.05521834
251	0x3e2e58e3	0.17026095
252	0x3b9187e5	0.0044412487
253	0x3dd75f15	0.10516182
254	0x3ea3b6bf	0.31975362
255	0x3db4d1b9	0.08829064

fc_1.bias f4 [128]
0	0x3e066e2c	0.13127965
1	0x3d805e4d	0.062679864
2	0xbcfb27d6	-0.030658644
3	0xbdabe68e	-0.08393584
4	0x3da812a4	0.082066804
5	0x3db44f2f	0.088041656
6	0x3d88c52c	0.066782326
7	0xbc8ee308	-0.017442241
8	0x3d80dd8c	0.06292257
9	0x3b96b13c	0.0045987647
10	0x3d824668	0.06361085
11	0xbdb77d7b	-0.089594804
12	0xbd55a8dc	-0.05216299
13	0xbdd6ab86	-0.10481934
14	0xbdb9edf4	-0.09078589
15	0x3defd6ed	0.11710916
16	0xbdcd4867	-0.10023575
17	0xbc67446d	-0.014115435
18	0x3d1dc471	0.03851742
19	0x3e0a2b1e	0.1349301
20	0xbd3761ee	-0.044771127
21	0x3d2834f5	0.04106613
22	0xbd967323	-0.07346179
23	0x3d00f138	0.031480044
24	0x3d0ff531	0.035145942
25	0xbd518b94	-0.051158503
26	0xbc0fb572	-0.008771287
27	0xbb641f0b	-0.0034808542
28	0x3ded2dd5	0.115810074
29	0xbe0951fd	-0.13410182
30	0x3d6ddca7	0.05807176
31	0xbc279f04	-0.010230783
32	0x3d3f92e8	0.04677096
33	0x3e555a7e	0.20835301
34	0x3ceea298	0.029130265
35	0xbd65e7ea	-0.056129374
36	0x3e11e3f0	0.14247108
37	0x3ced2e6a	0.028952796
38	0x3e10058f	0.1406462
39	0xbdaad0bb	-0.083405934
40	0xbd9b3a24	-0.07579449
41	0x3d781044	0.060562387
42	0xbd155ad8	-0.03646359
43	0x3dc528ea	0.09626944
44	0xbcb36b1c	-0.02190166
45	0xbccb84f0	-0.024843663
46	0x3e4efc9e	0.20213553
47	0xbdd1e8ba	-0.10249467
48	0x3d13f3cf	0.036121186
49	0xbd2ebfca	-0.042663373
50	0x3e173780	0.14767265
51	0xbbc1bd44	-0.005912455
52	0xbd8f3ebc	-0.069943875
53	0x3db313d6	0.08744018
54	0xbd178e51	-0.037000958
55	0x3d96068e	0.07325469
56	0x3decc1cd	0.11560402
57	0x3d93be73	0.0721406
58	0x3d8639f9	0.06554026
59	0x3dfeedb3	0.12447681
60	0x3cb9b373	0.022668576
61	0xbe0cb910	-0.1374247
62	0x3dcd1c71	0.100151904
63	0x3b1fc41b	0.0024378363
64	0x3dd62134	0.10455552
65	0x3e0771d8	0.13227022
66	0x3e0ac192	0.13550404
67	0xbc4d740f	-0.012539878
68	0xbdcd9bee	-0.10039507
69	0x3c9919cd	0.01868906
70	0xbcc738f2	-0.024319146
71	0x3e5160d9	0.204471
72	0x3c4274a3	0.011868629
73	0x3d76c2e6	0.060244463
74	0xbd510cd2	-0.051037617
75	0x3e290801	0.1650696
76	0x3e0dfe32	0.13866499
77	0xba2bdc34	-0.0006555945
78	0x3c69df03	0.014274362
79	0x3caf0f4c	0.021369599
80	0xbd938a40	-0.072041035
81	0xbcc96efb	-0.024589052
82	0x3c1323dd	0.008980718
83	0x3daacf8d	0.083403684
84	0x3da9fad5	0.082997955
85	0x3dc36334	0.09540406
86	0xbd692a98	-0.056925386
87	0x3d8de734	0.06928864
88	0x3cb99699	0.022654818
89	0x3de5785f	0.112045996
90	0x3e25cb18	0.16190755
91	0x3cfc5cfb	0.030806055
92	0xbcb1d42a	-0.021707613
93	0x3e2ed384	0.17072874
94	0xbd6d009b	-0.057861906
95	0x3da8041e	0.0820391
96	0x3d034e07	0.032056835
97	0x3c5a9dc1	0.0133432755
98	0xbd0c2cdd	-0.034222472
99	0x3d973cc0	0.07384634
100	0x3cc06a79	0.02348827
101	0xbd982678	-0.07429212
102	0xbdba6064	-0.09100416
103	0xbcc817ca	-0.024425406
104	0x3da12e19	0.078701206
105	0x3c88c76e	0.016696658
106	0x3d263977	0.040582146
107	0xbcc08f80	-0.023505926
108	0x3db9170f	0.09037601
109	0xbc1a170a	-0.009404907
110	0x3d582fe4	0.052780047
111	0x3db80aab	0.0898641
112	0xbca0189e	-0.019542988
113	0xbd9b895b	-0.07594558
114	0xbe061dce	-0.13097307
115	0x3e146e05	0.14495094
116	0xbda5d148	-0.08096558
117	0x3e476b2b	0.19474475
118	0x3da1ac32	0.07894172
119	0x3c447a05	0.011991982
120	0x3d86c5e5	0.06580714
121	0xbe05e6e2	-0.13076356
122	0x3d521aa7	0.05129495
123	0x3cf612e2	0.0300383
124	0x3da23a55	0.07921282
125	0xbc51c29f	-0.012802749
126	0x3e1e5b68	0.15464556
127	0x3c84f532	0.0162302

fc.weight f4 [3, 128]
0	0x3e431c3d	0.19053741
1	0xbdc9d688	-0.09855372
2	0xbe3c0395	-0.18360741
3	0x3e0178cb	0.12643735
4	0xbe685d24	-0.2269178
5	0x3d62c090	0.055359423
6	0x3e64c940	0.22342396
7	0xbe887736	-0.2665345
8	0xbe48a727	-0.19595014
9	0xbe34715e	-0.17621371
10	0xbd0ec319	-0.03485403
11	0x3e4a5055	0.19757207
12	0x3e6f026b	0.23340766
13	0xbe29fcf2	-0.16600397
14	0x3dccc4c5	0.09998468
15	0xbe0524e5	-0.13002355
16	0xbdd65b59	-0.10466642
17	0xbdda1a46	-0.106495425
18	0x3e1ff6a2	0.15621427
19	0x3e972ac8	0.29524827
20	0xbdc996f5	-0.09843246
21	0x3dfdd6ea	0.12394507
22	0xbe1faeb8	-0.15593994
23	0xbdf09907	-0.11747938
24	0xbdda5d94	-0.1066238
25	0xbe82aacd	-0.25520936
26	0x3eb1b5e9	0.347091
27	0xbdbdb8c6	-0.09263758
28	0xbdf237e3	-0.11827066
29	0x3e37494c	0.17899054
30	0x3cdc11f9	0.026864039
31	0x3bfcc068	0.0077133663
32	0x3e45e09b	0.19323961
33	0x3d134224	0.03595175
34	0x3e259db2	0.16173437
35	0x3dd3e7cd	0.10346947
36	0xbdd0f517	-0.10202997
37	0x3d55a471	0.052158777
38	0xbd28877f	-0.041144844
39	0xbea14d68	-0.3150437
40	0xbe8cd751	-0.27508023
41	0x3e27b2d6	0.16376814
42	0x3e91c5f3	0.28471336
43	0xbd1f798e	-0.038934283
44	0xbda448f0	-0.08021724
45	0xbdbd2363	-0.09235265
46	0xbd2ae872	-0.041725583
47	0xbe613430	-0.21992564
48	0x3e8ca2bc	0.27467906
49	0x3e56d626	0.20980129
50	0xbcc9adff	-0.0246191
51	0x3e898d92	0.26865822
52	0xbea6ad80	-0.32554245
53	0x3e4fc473	0.20289783
54	0x3d6c9bdf	0.057765838
55	0x3cc3e084	0.023910768
56	0xbe4c9141	-0.19977285
57	0xbd966b18	-0.07344645
58	0x3d8e63c9	0.06952626
59	0x3e289a42	0.16465095
60	0x3e36dbb9	0.17857255
61	0xbd0af97e	-0.03392934
62	0xbc88f857	-0.01671998
63	0x3ce98d44	0.028509744
64	0x3df2221a	0.118229106
65	0xbe83ad35	-0.25718084
66	0x3ced8465	0.028993795
67	0xbdcc5dc8	-0.09978825
68	0x3e8cc77f	0.27495953
69	0xbe1727e1	-0.14761306
70	0x3e874eb6	0.2642724
71	0x3e0db2f4	0.13837796
72	0xbe4930ec	-0.19647568
73	0xbdb22709	-0.086988516
74	0x3d5b4198	0.053529352
75	0x3cacc33c	0.021089189
76	0xbdf39dde	-0.11895345
77	0x3dc3ad1b	0.095545016
78	0xbdb74e33	-0.08950462
79	0x3daecbef	0.08534991
80	0x3e0d0843	0.13772683
81	0x3c46b5ac	0.012128275
82	0x3e6628a4	0.2247644
83	0xbdb140ef	-0.08654963
84	0xbc9fa179	-0.019486176
85	0x3e7adab9	0.24497499
86	0x3ddf7fa5	0.10913018
87	0xbdb7dbf3	-0.08977499
88	0xbe3cdb55	-0.18443044
89	0x3e10f6d5	0.14156659
90	0x3e630bd6	0.22172484
91	0xbe82512d	-0.25452557
92	0x3e1c21f9	0.15247335
93	0xbe34dccf	-0.17662357
94	0xbe1532de	-0.14570186
95	0x3e4d0060	0.20019674
96	0xbe855796	-0.26043385
97	0xbd874df2	-0.06606664
98	0xbe485237	-0.19562612
99	0xbdcca822	-0.09993006
100	0xbe1cbfec	-0.15307587
101	0xbe1ec416	-0.15504488
102	0xbd4c4ead	-0.04987972
103	0xbd6d42a7	-0.057924893
104	0x3d8cef2b	0.06881555
105	0xbe222649	-0.15834917
106	0xbe2ec171	-0.1706598
107	0xbebed19a	-0.37269288
108	0x3e5027fd	0.20327754
109	0xbe64c021	-0.22338916
110	0x3daf566d	0.08561406
111	0xbd7e91fb	-0.062150937
112	0x3d30a207	0.04312327
113	0x3e12e942	0.14346793
114	0x3e17c8d2	0.148227
115	0xbe40f222	-0.18842366
116	0x3e152fa8	0.1456896
117	0x3e518091	0.204592
118	0xbe6904f9	-0.22755803
119	0x3dd9c494	0.106331974
120	0x3cce3ab7	0.025174482
121	0xbbf7459d	-0.0075461403
122	0xbe9351c3	-0.28773317
123	0x3e1c094c	0.15237921
124	0x3c23e655	0.010003646
125	0x3e433d5c	0.19066375
126	0xbdb601e3	-0.088870786
127	0xbe7d9926	-0.24765453
128	0x3d8f62b7	0.0700125
129	0xbe801860	-0.25018597
130	0x3e51d285	0.20490463
131	0xbe32bc1d	-0.17454572
132	0xbd4bb097	-0.049728956
133	0x3e00e69a	0.12587968
134	0xbe36a081	-0.17834665
135	0x3e87c746	0.2651922
136	0x3e167bad	0.14695616
137	0xbc7950ab	-0.015216987
138	0xbdb92b0e	-0.09041415
139	0xbe107220	-0.14106035
140	0xbea44e12	-0.32090813
141	0xbe04cfe3	-0.12969927
142	0xbd8e15e5	-0.0693777
143	0x3d6689a6	0.056283616
144	0xbe8263a5	-0.25466648
145	0xbad91b67	-0.0016563953
146	0x3caa7a55	0.020810286
147	0xbe07c1e3	-0.13257556
148	0x3c0543e4	0.008133862
149	0xbe6887d9	-0.22708072
150	0x3e413d35	0.18871005
151	0xbca3705c	-0.019951038
152	0xbe11702c	-0.14202946
153	0x3d52aa4c	0.05143194
154	0xbe871c73	-0.26388893
155	0xbe5a6642	-0.21328071
156	0x3e6ca992	0.23111561
157	0xbcdf0198	-0.02722244
158	0x3e887324	0.26650345
159	0xbe59e115	-0.21277268
160	0xbdd007c3	-0.101577304
161	0x3e2f20ea	0.171024
162	0x3e220c8d	0.158251
163	0xbda81190	-0.08206475
164	0x3e75e32f	0.24012445
165	0xbe0bcf95	-0.13653405
166	0x3e92fb8f	0.2870755
167	0x3e80457c	0.25053012
168	0x3cca73cb	0.024713418
169	0x3d04f306	0.032458328
170	0xbe4009f7	-0.18753801
171	0xbd32ae3e	-0.0436232
172	0xbe94b08a	-0.2904094
173	0x3d3cdab5	0.046107013
174	0x3e18b61e	0.14913222
175	0x3df45b4c	0.11931476
176	0xbe1e0864	-0.15432888
177	0xbe2929d2	-0.1651986
178	0x3e5e3829	0.21701111
179	0x3d1397da	0.03603349
180	0xbd2e8898	-0.042610735
181	0x3dbb9606	0.09159474
182	0x3deb20a9	0.11480839
183	0xbe1df92b	-0.15427081
184	0x3dba2a93	0.09090152
185	0xbe02446c	-0.12721413
186	0xbe49244e	-0.19642755
187	0x3e014f9c	0.12628025
188	0xbe825bfb	-0.254608
189	0x3d907039	0.07052655
190	0x3dd478a0	0.1037457
191	0xbe874e8f	-0.26427123
192	0xbe1ff063	-0.15619044
193	0x3eb47e63	0.35252675
194	0x3e9e95e3	0.3097373
195	0xbd3ed08e	-0.046585612
196	0x3c5c4d39	0.013446146
197	0x3e4ef814	0.20211822
198	0xbe152edf	-0.14568661
199	0x3de210f2	0.11038388
200	0x3c3658bb	0.011129553
201	0x3e54cf2c	0.20782155
202	0x3c2d781c	0.010587718
203	0x3e812c31	0.25229028
204	0x3e71dde1	0.23619796
205	0x3b67c678	0.00353661
206	0xbe697032	-0.22796705
207	0xbe32a7b0	-0.1744678
208	0xbe107716	-0.14107928
209	0xbe56c4ca	-0.20973507
210	0xbdf8b41e	-0.121437296
211	0x3e89514e	0.26819843
212	0x3e5c5b15	0.2151912
213	0xbe275dac	-0.16344327
214	0xbe291e92	-0.16515568
215	0xbe0781b3	-0.1323307
216	0x3d3145c4	0.043279424
217	0x3dfe125e	0.12405847
218	0xbd01e117	-0.031708803
219	0xbe456907	-0.19278346
220	0xbe03eb70	-0.12882781
221	0x3e1d142d	0.15339728
222	0xbe102245	-0.14075573
223	0xbdcc8441	-0.09986163
224	0x3da201c7	0.07910495
225	0x3db2b94f	0.08726751
226	0xbe0ee83e	-0.13955781
227	0x3e737699	0.2377571
228	0x3de41425	0.11136655
229	0x3e19976a	0.14999166
230	0xbe9191c5	-0.28431526
231	0xbea66bf7	-0.32504246
232	0xbdb8cbd3	-0.090232514
233	0x3eaf2f30	0.3421569
234	0x3e801645	0.2501699
235	0x3e24fe9a	0.16112748
236	0xbe046a3e	-0.12931153
237	0x3e1416b4	0.14461786
238	0xbe372814	-0.17886382
239	0x3d15f05d	0.03660618
240	0x3e592c35	0.2120827
241	0xbeb9a9eb	-0.3626245
242	0xbed4474c	-0.41460645
243	0x3e4c8ec6	0.19976339
244	0xbea79372	-0.3272968
245	0xbc11878f	-0.008882417
246	0xbe3ecd50	-0.18633008
247	0xbd8b6735	-0.068067946
248	0xbced3c3b	-0.028959384
249	0xbe96e91b	-0.2947472
250	0xbcb702ee	-0.022340264
251	0xbcf75d66	-0.030195903
252	0x3e2be81a	0.16787758
253	0x3cae517e	0.021279093
254	0x3e9cf02c	0.30651987
255	0xbd230c37	-0.03980657

fc.bias f4 [3]
0	0xbcf6f33e	-0.030145284
1	0x3df53bfa	0.1197433
2	0xbdd8c957	-0.105852775
